…
00:00, 10400.81it/s] 94%|█████████▍| 94453/100000 [00:10<00:00, 10420.22it/s] 96%|█████████▌| 95500/100000 [00:10<00:00, 10434.57it/s] 97%|█████████▋| 96545/100000 [00:10<00:00, 10438.95it/s] 98%|█████████▊| 97590/100000 [00:11<00:00, 4405.76it/s]  99%|█████████▊| 98632/100000 [00:11<00:00, 5325.69it/s]100%|█████████▉| 99676/100000 [00:11<00:00, 6241.91it/s]100%|██████████| 100000/100000 [00:11<00:00, 8493.88it/s]
------------
Train & Test
------------
AQEnoW Number of parameters: 16535657
AutoQEncoderNoWupdate(
  (encoder_layer): EncoderLayer(
    (linear_encoder): Sequential(
      (0): Linear(in_features=1548, out_features=3968, bias=True)
      (1): ReLU()
      (2): Dropout(p=0.5, inplace=False)
      (3): BatchNorm1d(3968, eps=1e-05, momentum=0.1, affine=True, track_running_stats=True)
      (4): Linear(in_features=3968, out_features=1984, bias=True)
      (5): ReLU()
      (6): Dropout(p=0.5, inplace=False)
      (7): BatchNorm1d(1984, eps=1e-05, momentum=0.1, affine=True, track_running_stats=True)
      (8): Linear(in_features=1984, out_features=992, bias=True)
      (9): ReLU()
      (10): Dropout(p=0.5, inplace=False)
      (11): BatchNorm1d(992, eps=1e-05, momentum=0.1, affine=True, track_running_stats=True)
      (12): Linear(in_features=992, out_features=496, bias=True)
      (13): ReLU()
      (14): Dropout(p=0.5, inplace=False)
      (15): BatchNorm1d(496, eps=1e-05, momentum=0.1, affine=True, track_running_stats=True)
      (16): Linear(in_features=496, out_features=34, bias=True)
    )
  )
  (quantizer_layer): QuantizerLayer()
  (decoder_layer): DecoderLayer(
    (linear_decoder): Sequential(
      (0): Linear(in_features=10, out_features=100, bias=True)
      (1): ReLU()
      (2): Linear(in_features=100, out_features=100, bias=True)
      (3): ReLU()
    )
    (out_layer): Sequential(
      (0): Linear(in_features=100, out_features=100, bias=True)
    )
  )
)
  0%|          | 0/1000 [00:00<?, ?it/s]0.001 -> 0.001
Epoch: 0 	Training Loss: -0.0019406723 	Validation Loss: -0.0083169750 	Best Validation Loss: inf
### Validation loss same/decreased (inf --> -0.0083169750)... saving model. ###
  0%|          | 1/1000 [00:09<2:45:05,  9.92s/it]0.001 -> 0.001
Epoch: 1 	Training Loss: -0.0026078944 	Validation Loss: -0.0105525366 	Best Validation Loss: -0.0083169750
…
 'epoch_patience': 20,
 'epoch_val': 50,
 'epochs': 1000,
 'lr': 0.001,
 'mc_runs': 100000,
 'overall_bits': 10,
 'snr_dB': 45.6,
 'train_test_split': 0.8,
 'train_val_split': 0.8}
Achievable Rate (bps/Hz) using RIS phase shifts with Transmit power SNR 45.60 dB:
optimum:    4.287445545196533
AQEnoW net:    1.5105342864990234
AQEnoW rand:   0.5467674732208252
-------------------------------------------------------------------------------------------------------


AQEnoW Number of parameters: 16541627
AutoQEncoderNoWupdate(
  (encoder_layer): EncoderLayer(
    (linear_encoder): Sequential(
      (0): Linear(in_features=1548, out_features=3968, bias=True)
      (1): ReLU()
      (2): Dropout(p=0.5, inplace=False)
      (3): BatchNorm1d(3968, eps=1e-05, momentum=0.1, affine=True, track_running_stats=True)
      (4): Linear(in_features=3968, out_features=1984, bias=True)
      (5): ReLU()
      (6): Dropout(p=0.5, inplace=False)
      (7): BatchNorm1d(1984, eps=1e-05, momentum=0.1, affine=True, track_running_stats=True)
      (8): Linear(in_features=1984, out_features=992, bias=True)
      (9): ReLU()
      (10): Dropout(p=0.5, inplace=False)
      (11): BatchNorm1d(992, eps=1e-05, momentum=0.1, affine=True, track_running_stats=True)
      (12): Linear(in_features=992, out_features=496, bias=True)
      (13): ReLU()
      (14): Dropout(p=0.5, inplace=False)
      (15): BatchNorm1d(496, eps=1e-05, momentum=0.1, affine=True, track_running_stats=True)
      (16): Linear(in_features=496, out_features=44, bias=True)
    )
  )
  (quantizer_layer): QuantizerLayer()
  (decoder_layer): DecoderLayer(
    (linear_decoder): Sequential(
      (0): Linear(in_features=20, out_features=100, bias=True)
      (1): ReLU()
      (2): Linear(in_features=100, out_features=100, bias=True)
      (3): ReLU()
    )
    (out_layer): Sequential(
      (0): Linear(in_features=100, out_features=100, bias=True)
    )
  )
)
  0%|          | 0/1000 [00:00<?, ?it/s]0.001 -> 0.001
Epoch: 0 	Training Loss: -0.0019428337 	Validation Loss: -0.0089534378 	Best Validation Loss: inf
### Validation loss same/decreased (inf --> -0.0089534378)... saving model. ###
  0%|          | 1/1000 [00:09<2:35:17,  9.33s/it]0.001 -> 0.001
Epoch: 1 	Training Loss: -0.0025009928 	Validation Loss: -0.0108273250 	Best Validation Loss: -0.0089534378
…
 'epoch_patience': 20,
 'epoch_val': 50,
 'epochs': 1000,
 'lr': 0.001,
 'mc_runs': 100000,
 'overall_bits': 20,
 'snr_dB': 45.6,
 'train_test_split': 0.8,
 'train_val_split': 0.8}
Achievable Rate (bps/Hz) using RIS phase shifts with Transmit power SNR 45.60 dB:
optimum:    4.287445545196533
AQEnoW net:    1.8679509162902832
AQEnoW rand:   0.5533384084701538
-------------------------------------------------------------------------------------------------------


AQEnoW Number of parameters: 16547597
AutoQEncoderNoWupdate(
  (encoder_layer): EncoderLayer(
    (linear_encoder): Sequential(
      (0): Linear(in_features=1548, out_features=3968, bias=True)
      (1): ReLU()
      (2): Dropout(p=0.5, inplace=False)
      (3): BatchNorm1d(3968, eps=1e-05, momentum=0.1, affine=True, track_running_stats=True)
      (4): Linear(in_features=3968, out_features=1984, bias=True)
      (5): ReLU()
      (6): Dropout(p=0.5, inplace=False)
      (7): BatchNorm1d(1984, eps=1e-05, momentum=0.1, affine=True, track_running_stats=True)
      (8): Linear(in_features=1984, out_features=992, bias=True)
      (9): ReLU()
      (10): Dropout(p=0.5, inplace=False)
      (11): BatchNorm1d(992, eps=1e-05, momentum=0.1, affine=True, track_running_stats=True)
      (12): Linear(in_features=992, out_features=496, bias=True)
      (13): ReLU()
      (14): Dropout(p=0.5, inplace=False)
      (15): BatchNorm1d(496, eps=1e-05, momentum=0.1, affine=True, track_running_stats=True)
      (16): Linear(in_features=496, out_features=54, bias=True)
    )
  )
  (quantizer_layer): QuantizerLayer()
  (decoder_layer): DecoderLayer(
    (linear_decoder): Sequential(
      (0): Linear(in_features=30, out_features=100, bias=True)
      (1): ReLU()
      (2): Linear(in_features=100, out_features=100, bias=True)
      (3): ReLU()
    )
    (out_layer): Sequential(
      (0): Linear(in_features=100, out_features=100, bias=True)
    )
  )
)
  0%|          | 0/1000 [00:00<?, ?it/s]0.001 -> 0.001
Epoch: 0 	Training Loss: -0.0019574506 	Validation Loss: -0.0088085392 	Best Validation Loss: inf
### Validation loss same/decreased (inf --> -0.0088085392)... saving model. ###
  0%|          | 1/1000 [00:09<2:32:16,  9.15s/it]0.001 -> 0.001
Epoch: 1 	Training Loss: -0.0025309027 	Validation Loss: -0.0114802923 	Best Validation Loss: -0.0088085392
…
 'epoch_patience': 20,
 'epoch_val': 50,
 'epochs': 1000,
 'lr': 0.001,
 'mc_runs': 100000,
 'overall_bits': 30,
 'snr_dB': 45.6,
 'train_test_split': 0.8,
 'train_val_split': 0.8}
Achievable Rate (bps/Hz) using RIS phase shifts with Transmit power SNR 45.60 dB:
optimum:    4.287445545196533
AQEnoW net:    1.9725403785705566
AQEnoW rand:   0.5244433283805847
-------------------------------------------------------------------------------------------------------


AQEnoW Number of parameters: 16553567
AutoQEncoderNoWupdate(
  (encoder_layer): EncoderLayer(
    (linear_encoder): Sequential(
      (0): Linear(in_features=1548, out_features=3968, bias=True)
      (1): ReLU()
      (2): Dropout(p=0.5, inplace=False)
      (3): BatchNorm1d(3968, eps=1e-05, momentum=0.1, affine=True, track_running_stats=True)
      (4): Linear(in_features=3968, out_features=1984, bias=True)
      (5): ReLU()
      (6): Dropout(p=0.5, inplace=False)
      (7): BatchNorm1d(1984, eps=1e-05, momentum=0.1, affine=True, track_running_stats=True)
      (8): Linear(in_features=1984, out_features=992, bias=True)
      (9): ReLU()
      (10): Dropout(p=0.5, inplace=False)
      (11): BatchNorm1d(992, eps=1e-05, momentum=0.1, affine=True, track_running_stats=True)
      (12): Linear(in_features=992, out_features=496, bias=True)
      (13): ReLU()
      (14): Dropout(p=0.5, inplace=False)
      (15): BatchNorm1d(496, eps=1e-05, momentum=0.1, affine=True, track_running_stats=True)
      (16): Linear(in_features=496, out_features=64, bias=True)
    )
  )
  (quantizer_layer): QuantizerLayer()
  (decoder_layer): DecoderLayer(
    (linear_decoder): Sequential(
      (0): Linear(in_features=40, out_features=100, bias=True)
      (1): ReLU()
      (2): Linear(in_features=100, out_features=100, bias=True)
      (3): ReLU()
    )
    (out_layer): Sequential(
      (0): Linear(in_features=100, out_features=100, bias=True)
    )
  )
)
  0%|          | 0/1000 [00:00<?, ?it/s]0.001 -> 0.001
Epoch: 0 	Training Loss: -0.0020533333 	Validation Loss: -0.0091996173 	Best Validation Loss: inf
### Validation loss same/decreased (inf --> -0.0091996173)... saving model. ###
  0%|          | 1/1000 [00:09<2:34:58,  9.31s/it]0.001 -> 0.001
Epoch: 1 	Training Loss: -0.0027017683 	Validation Loss: -0.0118621710 	Best Validation Loss: -0.0091996173
…
 'epoch_patience': 20,
 'epoch_val': 50,
 'epochs': 1000,
 'lr': 0.001,
 'mc_runs': 100000,
 'overall_bits': 40,
 'snr_dB': 45.6,
 'train_test_split': 0.8,
 'train_val_split': 0.8}
Achievable Rate (bps/Hz) using RIS phase shifts with Transmit power SNR 45.60 dB:
optimum:    4.287445545196533
AQEnoW net:    2.1480445861816406
AQEnoW rand:   0.5382421612739563
-------------------------------------------------------------------------------------------------------


AQEnoW Number of parameters: 16559537
AutoQEncoderNoWupdate(
  (encoder_layer): EncoderLayer(
    (linear_encoder): Sequential(
      (0): Linear(in_features=1548, out_features=3968, bias=True)
      (1): ReLU()
      (2): Dropout(p=0.5, inplace=False)
      (3): BatchNorm1d(3968, eps=1e-05, momentum=0.1, affine=True, track_running_stats=True)
      (4): Linear(in_features=3968, out_features=1984, bias=True)
      (5): ReLU()
      (6): Dropout(p=0.5, inplace=False)
      (7): BatchNorm1d(1984, eps=1e-05, momentum=0.1, affine=True, track_running_stats=True)
      (8): Linear(in_features=1984, out_features=992, bias=True)
      (9): ReLU()
      (10): Dropout(p=0.5, inplace=False)
      (11): BatchNorm1d(992, eps=1e-05, momentum=0.1, affine=True, track_running_stats=True)
      (12): Linear(in_features=992, out_features=496, bias=True)
      (13): ReLU()
      (14): Dropout(p=0.5, inplace=False)
      (15): BatchNorm1d(496, eps=1e-05, momentum=0.1, affine=True, track_running_stats=True)
      (16): Linear(in_features=496, out_features=74, bias=True)
    )
  )
  (quantizer_layer): QuantizerLayer()
  (decoder_layer): DecoderLayer(
    (linear_decoder): Sequential(
      (0): Linear(in_features=50, out_features=100, bias=True)
      (1): ReLU()
      (2): Linear(in_features=100, out_features=100, bias=True)
      (3): ReLU()
    )
    (out_layer): Sequential(
      (0): Linear(in_features=100, out_features=100, bias=True)
    )
  )
)
  0%|          | 0/1000 [00:00<?, ?it/s]0.001 -> 0.001
Epoch: 0 	Training Loss: -0.0021319346 	Validation Loss: -0.0091983805 	Best Validation Loss: inf
### Validation loss same/decreased (inf --> -0.0091983805)... saving model. ###
  0%|          | 1/1000 [00:09<2:31:56,  9.13s/it]0.001 -> 0.001
Epoch: 1 	Training Loss: -0.0025617916 	Validation Loss: -0.0112629296 	Best Validation Loss: -0.0091983805
…
 'epoch_patience': 20,
 'epoch_val': 50,
 'epochs': 1000,
 'lr': 0.001,
 'mc_runs': 100000,
 'overall_bits': 50,
 'snr_dB': 45.6,
 'train_test_split': 0.8,
 'train_val_split': 0.8}
Achievable Rate (bps/Hz) using RIS phase shifts with Transmit power SNR 45.60 dB:
optimum:    4.287445545196533
AQEnoW net:    2.203364849090576
AQEnoW rand:   0.54301518201828
-------------------------------------------------------------------------------------------------------


AQEnoW Number of parameters: 16565507
AutoQEncoderNoWupdate(
  (encoder_layer): EncoderLayer(
    (linear_encoder): Sequential(
      (0): Linear(in_features=1548, out_features=3968, bias=True)
      (1): ReLU()
      (2): Dropout(p=0.5, inplace=False)
      (3): BatchNorm1d(3968, eps=1e-05, momentum=0.1, affine=True, track_running_stats=True)
      (4): Linear(in_features=3968, out_features=1984, bias=True)
      (5): ReLU()
      (6): Dropout(p=0.5, inplace=False)
      (7): BatchNorm1d(1984, eps=1e-05, momentum=0.1, affine=True, track_running_stats=True)
      (8): Linear(in_features=1984, out_features=992, bias=True)
      (9): ReLU()
      (10): Dropout(p=0.5, inplace=False)
      (11): BatchNorm1d(992, eps=1e-05, momentum=0.1, affine=True, track_running_stats=True)
      (12): Linear(in_features=992, out_features=496, bias=True)
      (13): ReLU()
      (14): Dropout(p=0.5, inplace=False)
      (15): BatchNorm1d(496, eps=1e-05, momentum=0.1, affine=True, track_running_stats=True)
      (16): Linear(in_features=496, out_features=84, bias=True)
    )
  )
  (quantizer_layer): QuantizerLayer()
  (decoder_layer): DecoderLayer(
    (linear_decoder): Sequential(
      (0): Linear(in_features=60, out_features=100, bias=True)
      (1): ReLU()
      (2): Linear(in_features=100, out_features=100, bias=True)
      (3): ReLU()
    )
    (out_layer): Sequential(
      (0): Linear(in_features=100, out_features=100, bias=True)
    )
  )
)
  0%|          | 0/1000 [00:00<?, ?it/s]0.001 -> 0.001
Epoch: 0 	Training Loss: -0.0019118116 	Validation Loss: -0.0088308784 	Best Validation Loss: inf
### Validation loss same/decreased (inf --> -0.0088308784)... saving model. ###
  0%|          | 1/1000 [00:09<2:31:57,  9.13s/it]0.001 -> 0.001
Epoch: 1 	Training Loss: -0.0025710755 	Validation Loss: -0.0117629011 	Best Validation Loss: -0.0088308784
…
 'epoch_patience': 20,
 'epoch_val': 50,
 'epochs': 1000,
 'lr': 0.001,
 'mc_runs': 100000,
 'overall_bits': 60,
 'snr_dB': 45.6,
 'train_test_split': 0.8,
 'train_val_split': 0.8}
Achievable Rate (bps/Hz) using RIS phase shifts with Transmit power SNR 45.60 dB:
optimum:    4.287445545196533
AQEnoW net:    2.3444786071777344
AQEnoW rand:   0.5476670861244202
-------------------------------------------------------------------------------------------------------


AQEnoW Number of parameters: 16571477
AutoQEncoderNoWupdate(
  (encoder_layer): EncoderLayer(
    (linear_encoder): Sequential(
      (0): Linear(in_features=1548, out_features=3968, bias=True)
      (1): ReLU()
      (2): Dropout(p=0.5, inplace=False)
      (3): BatchNorm1d(3968, eps=1e-05, momentum=0.1, affine=True, track_running_stats=True)
      (4): Linear(in_features=3968, out_features=1984, bias=True)
      (5): ReLU()
      (6): Dropout(p=0.5, inplace=False)
      (7): BatchNorm1d(1984, eps=1e-05, momentum=0.1, affine=True, track_running_stats=True)
      (8): Linear(in_features=1984, out_features=992, bias=True)
      (9): ReLU()
      (10): Dropout(p=0.5, inplace=False)
      (11): BatchNorm1d(992, eps=1e-05, momentum=0.1, affine=True, track_running_stats=True)
      (12): Linear(in_features=992, out_features=496, bias=True)
      (13): ReLU()
      (14): Dropout(p=0.5, inplace=False)
      (15): BatchNorm1d(496, eps=1e-05, momentum=0.1, affine=True, track_running_stats=True)
      (16): Linear(in_features=496, out_features=94, bias=True)
    )
  )
  (quantizer_layer): QuantizerLayer()
  (decoder_layer): DecoderLayer(
    (linear_decoder): Sequential(
      (0): Linear(in_features=70, out_features=100, bias=True)
      (1): ReLU()
      (2): Linear(in_features=100, out_features=100, bias=True)
      (3): ReLU()
    )
    (out_layer): Sequential(
      (0): Linear(in_features=100, out_features=100, bias=True)
    )
  )
)
  0%|          | 0/1000 [00:00<?, ?it/s]0.001 -> 0.001
Epoch: 0 	Training Loss: -0.0019548855 	Validation Loss: -0.0087089306 	Best Validation Loss: inf
### Validation loss same/decreased (inf --> -0.0087089306)... saving model. ###
  0%|          | 1/1000 [00:09<2:31:45,  9.11s/it]0.001 -> 0.001
Epoch: 1 	Training Loss: -0.0025360130 	Validation Loss: -0.0112397055 	Best Validation Loss: -0.0087089306
…
 'epoch_patience': 20,
 'epoch_val': 50,
 'epochs': 1000,
 'lr': 0.001,
 'mc_runs': 100000,
 'overall_bits': 70,
 'snr_dB': 45.6,
 'train_test_split': 0.8,
 'train_val_split': 0.8}
Achievable Rate (bps/Hz) using RIS phase shifts with Transmit power SNR 45.60 dB:
optimum:    4.287445545196533
AQEnoW net:    2.371525764465332
AQEnoW rand:   0.5290879607200623
-------------------------------------------------------------------------------------------------------


AQEnoW Number of parameters: 16577447
AutoQEncoderNoWupdate(
  (encoder_layer): EncoderLayer(
    (linear_encoder): Sequential(
      (0): Linear(in_features=1548, out_features=3968, bias=True)
      (1): ReLU()
      (2): Dropout(p=0.5, inplace=False)
      (3): BatchNorm1d(3968, eps=1e-05, momentum=0.1, affine=True, track_running_stats=True)
      (4): Linear(in_features=3968, out_features=1984, bias=True)
      (5): ReLU()
      (6): Dropout(p=0.5, inplace=False)
      (7): BatchNorm1d(1984, eps=1e-05, momentum=0.1, affine=True, track_running_stats=True)
      (8): Linear(in_features=1984, out_features=992, bias=True)
      (9): ReLU()
      (10): Dropout(p=0.5, inplace=False)
      (11): BatchNorm1d(992, eps=1e-05, momentum=0.1, affine=True, track_running_stats=True)
      (12): Linear(in_features=992, out_features=496, bias=True)
      (13): ReLU()
      (14): Dropout(p=0.5, inplace=False)
      (15): BatchNorm1d(496, eps=1e-05, momentum=0.1, affine=True, track_running_stats=True)
      (16): Linear(in_features=496, out_features=104, bias=True)
    )
  )
  (quantizer_layer): QuantizerLayer()
  (decoder_layer): DecoderLayer(
    (linear_decoder): Sequential(
      (0): Linear(in_features=80, out_features=100, bias=True)
      (1): ReLU()
      (2): Linear(in_features=100, out_features=100, bias=True)
      (3): ReLU()
    )
    (out_layer): Sequential(
      (0): Linear(in_features=100, out_features=100, bias=True)
    )
  )
)
  0%|          | 0/1000 [00:00<?, ?it/s]0.001 -> 0.001
Epoch: 0 	Training Loss: -0.0019373154 	Validation Loss: -0.0084984715 	Best Validation Loss: inf
### Validation loss same/decreased (inf --> -0.0084984715)... saving model. ###
  0%|          | 1/1000 [00:09<2:31:36,  9.11s/it]0.001 -> 0.001
Epoch: 1 	Training Loss: -0.0025385003 	Validation Loss: -0.0114082082 	Best Validation Loss: -0.0084984715
…
 'epoch_patience': 20,
 'epoch_val': 50,
 'epochs': 1000,
 'lr': 0.001,
 'mc_runs': 100000,
 'overall_bits': 80,
 'snr_dB': 45.6,
 'train_test_split': 0.8,
 'train_val_split': 0.8}
Achievable Rate (bps/Hz) using RIS phase shifts with Transmit power SNR 45.60 dB:
optimum:    4.287445545196533
AQEnoW net:    2.3839242458343506
AQEnoW rand:   0.5362769365310669
-------------------------------------------------------------------------------------------------------


AQEnoW Number of parameters: 16583417
AutoQEncoderNoWupdate(
  (encoder_layer): EncoderLayer(
    (linear_encoder): Sequential(
      (0): Linear(in_features=1548, out_features=3968, bias=True)
      (1): ReLU()
      (2): Dropout(p=0.5, inplace=False)
      (3): BatchNorm1d(3968, eps=1e-05, momentum=0.1, affine=True, track_running_stats=True)
      (4): Linear(in_features=3968, out_features=1984, bias=True)
      (5): ReLU()
      (6): Dropout(p=0.5, inplace=False)
      (7): BatchNorm1d(1984, eps=1e-05, momentum=0.1, affine=True, track_running_stats=True)
      (8): Linear(in_features=1984, out_features=992, bias=True)
      (9): ReLU()
      (10): Dropout(p=0.5, inplace=False)
      (11): BatchNorm1d(992, eps=1e-05, momentum=0.1, affine=True, track_running_stats=True)
      (12): Linear(in_features=992, out_features=496, bias=True)
      (13): ReLU()
      (14): Dropout(p=0.5, inplace=False)
      (15): BatchNorm1d(496, eps=1e-05, momentum=0.1, affine=True, track_running_stats=True)
      (16): Linear(in_features=496, out_features=114, bias=True)
    )
  )
  (quantizer_layer): QuantizerLayer()
  (decoder_layer): DecoderLayer(
    (linear_decoder): Sequential(
      (0): Linear(in_features=90, out_features=100, bias=True)
      (1): ReLU()
      (2): Linear(in_features=100, out_features=100, bias=True)
      (3): ReLU()
    )
    (out_layer): Sequential(
      (0): Linear(in_features=100, out_features=100, bias=True)
    )
  )
)
  0%|          | 0/1000 [00:00<?, ?it/s]0.001 -> 0.001
Epoch: 0 	Training Loss: -0.0019939330 	Validation Loss: -0.0091145731 	Best Validation Loss: inf
### Validation loss same/decreased (inf --> -0.0091145731)... saving model. ###
  0%|          | 1/1000 [00:09<2:31:55,  9.12s/it]0.001 -> 0.001
Epoch: 1 	Training Loss: -0.0025206187 	Validation Loss: -0.0115084430 	Best Validation Loss: -0.0091145731
…
 'epoch_patience': 20,
 'epoch_val': 50,
 'epochs': 1000,
 'lr': 0.001,
 'mc_runs': 100000,
 'overall_bits': 90,
 'snr_dB': 45.6,
 'train_test_split': 0.8,
 'train_val_split': 0.8}
Achievable Rate (bps/Hz) using RIS phase shifts with Transmit power SNR 45.60 dB:
optimum:    4.287445545196533
AQEnoW net:    2.38189697265625
AQEnoW rand:   0.5366945266723633
-------------------------------------------------------------------------------------------------------


AQEnoW Number of parameters: 16589387
AutoQEncoderNoWupdate(
  (encoder_layer): EncoderLayer(
    (linear_encoder): Sequential(
      (0): Linear(in_features=1548, out_features=3968, bias=True)
      (1): ReLU()
      (2): Dropout(p=0.5, inplace=False)
      (3): BatchNorm1d(3968, eps=1e-05, momentum=0.1, affine=True, track_running_stats=True)
      (4): Linear(in_features=3968, out_features=1984, bias=True)
      (5): ReLU()
      (6): Dropout(p=0.5, inplace=False)
      (7): BatchNorm1d(1984, eps=1e-05, momentum=0.1, affine=True, track_running_stats=True)
      (8): Linear(in_features=1984, out_features=992, bias=True)
      (9): ReLU()
      (10): Dropout(p=0.5, inplace=False)
      (11): BatchNorm1d(992, eps=1e-05, momentum=0.1, affine=True, track_running_stats=True)
      (12): Linear(in_features=992, out_features=496, bias=True)
      (13): ReLU()
      (14): Dropout(p=0.5, inplace=False)
      (15): BatchNorm1d(496, eps=1e-05, momentum=0.1, affine=True, track_running_stats=True)
      (16): Linear(in_features=496, out_features=124, bias=True)
    )
  )
  (quantizer_layer): QuantizerLayer()
  (decoder_layer): DecoderLayer(
    (linear_decoder): Sequential(
      (0): Linear(in_features=100, out_features=100, bias=True)
      (1): ReLU()
      (2): Linear(in_features=100, out_features=100, bias=True)
      (3): ReLU()
    )
    (out_layer): Sequential(
      (0): Linear(in_features=100, out_features=100, bias=True)
    )
  )
)
  0%|          | 0/1000 [00:00<?, ?it/s]0.001 -> 0.001
Epoch: 0 	Training Loss: -0.0019354551 	Validation Loss: -0.0090965892 	Best Validation Loss: inf
### Validation loss same/decreased (inf --> -0.0090965892)... saving model. ###
  0%|          | 1/1000 [00:09<2:31:03,  9.07s/it]0.001 -> 0.001
Epoch: 1 	Training Loss: -0.0025947664 	Validation Loss: -0.0117951893 	Best Validation Loss: -0.0090965892
…
