…
M                1
N              100
Nw              10
Nh              10
mc_runs    1000000
Name: 0, dtype: int64
Training Model parameters:
{'N_RIS': 100,
 'Nc_RIS': 100,
 'Nh_RIS': 10,
 'Nw_RIS': 10,
 'Q_bits': 3,
 'batch_size': 256,
 'epoch_echo': True,
 'epoch_val': 100,
 'epochs': 500,
 'lr': 0.0001,
 'mc_runs': 1000000,
 'momentum': 0.9,
 'snr_dB': -5,
 'step_size': 10,
 'train_test_split': 0.8,
 'train_val_split': 0.8}
--------------
Create Dataset
--------------
------------
Train & Test
------------
AutoQEncoder(
  (encoder_layer): EncoderLayer(
    (cnn_layer): Sequential(
      (0): Conv2d(5, 32, kernel_size=(5, 5), stride=(1, 1), padding=(1, 1), padding_mode=circular)
      (1): BatchNorm2d(32, eps=1e-05, momentum=0.1, affine=True, track_running_stats=True)
      (2): ReLU()
      (3): Conv2d(32, 64, kernel_size=(5, 5), stride=(1, 1))
      (4): BatchNorm2d(64, eps=1e-05, momentum=0.1, affine=True, track_running_stats=True)
      (5): ReLU()
      (6): Conv2d(64, 128, kernel_size=(3, 3), stride=(1, 1))
      (7): BatchNorm2d(128, eps=1e-05, momentum=0.1, affine=True, track_running_stats=True)
      (8): ReLU()
      (9): MaxPool2d(kernel_size=2, stride=2, padding=0, dilation=1, ceil_mode=False)
    )
    (linear_encoder): Sequential(
      (0): Dropout(p=0.5, inplace=False)
      (1): Linear(in_features=128, out_features=100, bias=True)
      (2): LeakyReLU(negative_slope=0.01)
      (3): Linear(in_features=100, out_features=100, bias=True)
      (4): LeakyReLU(negative_slope=0.01)
      (5): Linear(in_features=100, out_features=2, bias=True)
      (6): LeakyReLU(negative_slope=0.01)
    )
  )
  (quantizer_layer): QuantizerLayer()
  (decoder_layer): DecoderLayer(
    (linear_decoder): Sequential(
      (0): Linear(in_features=2, out_features=100, bias=True)
      (1): LeakyReLU(negative_slope=0.01)
      (2): Linear(in_features=100, out_features=100, bias=True)
      (3): LeakyReLU(negative_slope=0.01)
      (4): Linear(in_features=100, out_features=128, bias=True)
      (5): LeakyReLU(negative_slope=0.01)
    )
    (cnn_layer): Sequential(
      (0): Upsample(scale_factor=2.0, mode='nearest')
      (1): ConvTranspose2d(128, 64, kernel_size=(3, 3), stride=(1, 1))
      (2): ReLU()
      (3): BatchNorm2d(64, eps=1e-05, momentum=0.1, affine=True, track_running_stats=True)
      (4): ConvTranspose2d(64, 32, kernel_size=(5, 5), stride=(1, 1))
      (5): ReLU()
      (6): BatchNorm2d(32, eps=1e-05, momentum=0.1, affine=True, track_running_stats=True)
      (7): ConvTranspose2d(32, 1, kernel_size=(5, 5), stride=(1, 1), padding=(1, 1))
      (8): ReLU()
      (9): BatchNorm2d(1, eps=1e-05, momentum=0.1, affine=True, track_running_stats=True)
    )
    (out_layer): Sequential(
      (0): Linear(in_features=100, out_features=100, bias=True)
      (1): Tanh()
    )
  )
)
Number of parameters: 312270
LinearQuantizer(
  (encoder_layer): Linear(in_features=100, out_features=2, bias=True)
  (quantizer_layer): QuantizerLayer()
  (decoder_layer): Linear(in_features=2, out_features=100, bias=True)
)
Number of parameters: 523
  0%|          | 1/500 [00:44<6:07:10, 44.15s/it]
 0.0001 -> 0.0001
Epoch: 0 	Training Loss: -0.0015842001 	Validation Loss: -0.0066490763
Validation loss same/decreased (inf --> -0.0066490763)... saving model.
 0.0001 -> 0.0001
Epoch: 1 	Training Loss: -0.0015850821 	Validation Loss: -0.0066581581
Validation loss same/decreased (-0.0066490763 --> -0.0066581581)... saving model.
…
 99%|█████████▉| 497/500 [4:12:50<01:30, 30.16s/it]
 0.0001 -> 0.0001
Epoch: 496 	Training Loss: -0.0018050277 	Validation Loss: -0.0073353584
 0.0001 -> 0.0001
Epoch: 497 	Training Loss: -0.0018039445 	Validation Loss: -0.0073349720
100%|█████████▉| 499/500 [4:13:51<00:30, 30.23s/it]
 0.0001 -> 0.0001
Epoch: 498 	Training Loss: -0.0018044617 	Validation Loss: -0.0073335584
 0.0001 -> 0.0001
Epoch: 499 	Training Loss: -0.0018064340 	Validation Loss: -0.0073344071
Validation early stop running loss decreased (-0.7330908514 --> -0.7333292622).
AutoQEncoder(
  (encoder_layer): EncoderLayer(
    (cnn_layer): Sequential(
      (0): Conv2d(5, 32, kernel_size=(5, 5), stride=(1, 1), padding=(1, 1), padding_mode=circular)
      (1): BatchNorm2d(32, eps=1e-05, momentum=0.1, affine=True, track_running_stats=True)
      (2): ReLU()
      (3): Conv2d(32, 64, kernel_size=(5, 5), stride=(1, 1))
      (4): BatchNorm2d(64, eps=1e-05, momentum=0.1, affine=True, track_running_stats=True)
      (5): ReLU()
      (6): Conv2d(64, 128, kernel_size=(3, 3), stride=(1, 1))
      (7): BatchNorm2d(128, eps=1e-05, momentum=0.1, affine=True, track_running_stats=True)
      (8): ReLU()
      (9): MaxPool2d(kernel_size=2, stride=2, padding=0, dilation=1, ceil_mode=False)
    )
    (linear_encoder): Sequential(
      (0): Dropout(p=0.5, inplace=False)
      (1): Linear(in_features=128, out_features=100, bias=True)
      (2): LeakyReLU(negative_slope=0.01)
      (3): Linear(in_features=100, out_features=100, bias=True)
      (4): LeakyReLU(negative_slope=0.01)
      (5): Linear(in_features=100, out_features=2, bias=True)
      (6): LeakyReLU(negative_slope=0.01)
    )
  )
  (quantizer_layer): QuantizerLayer()
  (decoder_layer): DecoderLayer(
    (linear_decoder): Sequential(
      (0): Linear(in_features=2, out_features=100, bias=True)
      (1): LeakyReLU(negative_slope=0.01)
      (2): Linear(in_features=100, out_features=100, bias=True)
      (3): LeakyReLU(negative_slope=0.01)
      (4): Linear(in_features=100, out_features=128, bias=True)
      (5): LeakyReLU(negative_slope=0.01)
    )
    (cnn_layer): Sequential(
      (0): Upsample(scale_factor=2.0, mode='nearest')
      (1): ConvTranspose2d(128, 64, kernel_size=(3, 3), stride=(1, 1))
      (2): ReLU()
      (3): BatchNorm2d(64, eps=1e-05, momentum=0.1, affine=True, track_running_stats=True)
      (4): ConvTranspose2d(64, 32, kernel_size=(5, 5), stride=(1, 1))
      (5): ReLU()
      (6): BatchNorm2d(32, eps=1e-05, momentum=0.1, affine=True, track_running_stats=True)
      (7): ConvTranspose2d(32, 1, kernel_size=(5, 5), stride=(1, 1), padding=(1, 1))
      (8): ReLU()
      (9): BatchNorm2d(1, eps=1e-05, momentum=0.1, affine=True, track_running_stats=True)
    )
    (out_layer): Sequential(
      (0): Linear(in_features=100, out_features=100, bias=True)
      (1): Tanh()
    )
  )
)
Number of parameters: 312270
100%|██████████| 500/500 [4:14:21<00:00, 30.52s/it]
Training Model parameters:
{'C_code_words': 8,
 'N_RIS': 100,
 'Nc_RIS': 2,
 'Nc_RIS_compressed_ratio': 0.02,
 'Nh_RIS': 10,
 'Nw_RIS': 10,
 'Q_bits': 3,
 'batch_size': 256,
 'epoch_echo': True,
 'epoch_val': 100,
 'epochs': 500,
 'lr': 0.0001,
 'mc_runs': 1000000,
 'momentum': 0.9,
 'overall_bits': 6,
 'snr_dB': -5,
 'step_size': 10,
 'train_test_split': 0.8,
 'train_val_split': 0.8}
Achievable Rate (bps/Hz) using RIS phase shifts with Transmit power SNR -5 dB:
optimum:  12.526344299316406
AQE net:  5.963202476501465
lin Q:    6.035859107971191
random:   5.527985095977783
AutoQEncoder(
  (encoder_layer): EncoderLayer(
    (cnn_layer): Sequential(
      (0): Conv2d(5, 32, kernel_size=(5, 5), stride=(1, 1), padding=(1, 1), padding_mode=circular)
      (1): BatchNorm2d(32, eps=1e-05, momentum=0.1, affine=True, track_running_stats=True)
      (2): ReLU()
      (3): Conv2d(32, 64, kernel_size=(5, 5), stride=(1, 1))
      (4): BatchNorm2d(64, eps=1e-05, momentum=0.1, affine=True, track_running_stats=True)
      (5): ReLU()
      (6): Conv2d(64, 128, kernel_size=(3, 3), stride=(1, 1))
      (7): BatchNorm2d(128, eps=1e-05, momentum=0.1, affine=True, track_running_stats=True)
      (8): ReLU()
      (9): MaxPool2d(kernel_size=2, stride=2, padding=0, dilation=1, ceil_mode=False)
    )
    (linear_encoder): Sequential(
      (0): Dropout(p=0.5, inplace=False)
      (1): Linear(in_features=128, out_features=100, bias=True)
      (2): LeakyReLU(negative_slope=0.01)
      (3): Linear(in_features=100, out_features=100, bias=True)
      (4): LeakyReLU(negative_slope=0.01)
      (5): Linear(in_features=100, out_features=4, bias=True)
      (6): LeakyReLU(negative_slope=0.01)
    )
  )
  (quantizer_layer): QuantizerLayer()
  (decoder_layer): DecoderLayer(
    (linear_decoder): Sequential(
      (0): Linear(in_features=4, out_features=100, bias=True)
      (1): LeakyReLU(negative_slope=0.01)
      (2): Linear(in_features=100, out_features=100, bias=True)
      (3): LeakyReLU(negative_slope=0.01)
      (4): Linear(in_features=100, out_features=128, bias=True)
      (5): LeakyReLU(negative_slope=0.01)
    )
    (cnn_layer): Sequential(
      (0): Upsample(scale_factor=2.0, mode='nearest')
      (1): ConvTranspose2d(128, 64, kernel_size=(3, 3), stride=(1, 1))
      (2): ReLU()
      (3): BatchNorm2d(64, eps=1e-05, momentum=0.1, affine=True, track_running_stats=True)
      (4): ConvTranspose2d(64, 32, kernel_size=(5, 5), stride=(1, 1))
      (5): ReLU()
      (6): BatchNorm2d(32, eps=1e-05, momentum=0.1, affine=True, track_running_stats=True)
      (7): ConvTranspose2d(32, 1, kernel_size=(5, 5), stride=(1, 1), padding=(1, 1))
      (8): ReLU()
      (9): BatchNorm2d(1, eps=1e-05, momentum=0.1, affine=True, track_running_stats=True)
    )
    (out_layer): Sequential(
      (0): Linear(in_features=100, out_features=100, bias=True)
      (1): Tanh()
    )
  )
)
Number of parameters: 312672
LinearQuantizer(
  (encoder_layer): Linear(in_features=100, out_features=4, bias=True)
  (quantizer_layer): QuantizerLayer()
  (decoder_layer): Linear(in_features=4, out_features=100, bias=True)
)
Number of parameters: 925
  0%|          | 1/500 [00:43<6:01:40, 43.49s/it]
 0.0001 -> 0.0001
Epoch: 0 	Training Loss: -0.0016018515 	Validation Loss: -0.0064542796
Validation loss same/decreased (inf --> -0.0064542796)... saving model.
 0.0001 -> 0.0001
Epoch: 1 	Training Loss: -0.0015988067 	Validation Loss: -0.0064540017
  1%|          | 3/500 [02:09<5:58:01, 43.22s/it]
…
Epoch: 296 	Training Loss: -0.0019003857 	Validation Loss: -0.0073669970
 1.0000000000000002e-06 -> 1.0000000000000002e-06
Epoch: 297 	Training Loss: -0.0019003863 	Validation Loss: -0.0073666056
 60%|█████▉    | 299/500 [2:26:05<1:36:43, 28.87s/it]
 1.0000000000000002e-06 -> 1.0000000000000002e-06
Epoch: 298 	Training Loss: -0.0019003869 	Validation Loss: -0.0073665780
 1.0000000000000002e-06 -> 1.0000000000000002e-07
Epoch: 299 	Training Loss: -0.0019003875 	Validation Loss: -0.0073665503
No Validation early stop loss decrease (-0.7393251219 --> -0.7372278831). Early Stopping
AutoQEncoder(
  (encoder_layer): EncoderLayer(
    (cnn_layer): Sequential(
      (0): Conv2d(5, 32, kernel_size=(5, 5), stride=(1, 1), padding=(1, 1), padding_mode=circular)
      (1): BatchNorm2d(32, eps=1e-05, momentum=0.1, affine=True, track_running_stats=True)
      (2): ReLU()
      (3): Conv2d(32, 64, kernel_size=(5, 5), stride=(1, 1))
      (4): BatchNorm2d(64, eps=1e-05, momentum=0.1, affine=True, track_running_stats=True)
      (5): ReLU()
      (6): Conv2d(64, 128, kernel_size=(3, 3), stride=(1, 1))
      (7): BatchNorm2d(128, eps=1e-05, momentum=0.1, affine=True, track_running_stats=True)
      (8): ReLU()
      (9): MaxPool2d(kernel_size=2, stride=2, padding=0, dilation=1, ceil_mode=False)
    )
    (linear_encoder): Sequential(
      (0): Dropout(p=0.5, inplace=False)
      (1): Linear(in_features=128, out_features=100, bias=True)
      (2): LeakyReLU(negative_slope=0.01)
      (3): Linear(in_features=100, out_features=100, bias=True)
      (4): LeakyReLU(negative_slope=0.01)
      (5): Linear(in_features=100, out_features=4, bias=True)
      (6): LeakyReLU(negative_slope=0.01)
    )
  )
  (quantizer_layer): QuantizerLayer()
  (decoder_layer): DecoderLayer(
    (linear_decoder): Sequential(
      (0): Linear(in_features=4, out_features=100, bias=True)
      (1): LeakyReLU(negative_slope=0.01)
      (2): Linear(in_features=100, out_features=100, bias=True)
      (3): LeakyReLU(negative_slope=0.01)
      (4): Linear(in_features=100, out_features=128, bias=True)
      (5): LeakyReLU(negative_slope=0.01)
    )
    (cnn_layer): Sequential(
      (0): Upsample(scale_factor=2.0, mode='nearest')
      (1): ConvTranspose2d(128, 64, kernel_size=(3, 3), stride=(1, 1))
      (2): ReLU()
      (3): BatchNorm2d(64, eps=1e-05, momentum=0.1, affine=True, track_running_stats=True)
      (4): ConvTranspose2d(64, 32, kernel_size=(5, 5), stride=(1, 1))
      (5): ReLU()
      (6): BatchNorm2d(32, eps=1e-05, momentum=0.1, affine=True, track_running_stats=True)
      (7): ConvTranspose2d(32, 1, kernel_size=(5, 5), stride=(1, 1), padding=(1, 1))
      (8): ReLU()
      (9): BatchNorm2d(1, eps=1e-05, momentum=0.1, affine=True, track_running_stats=True)
    )
    (out_layer): Sequential(
      (0): Linear(in_features=100, out_features=100, bias=True)
      (1): Tanh()
    )
  )
)
Number of parameters: 312672
 60%|█████▉    | 299/500 [2:26:34<1:38:32, 29.41s/it]
Training Model parameters:
{'C_code_words': 8,
 'N_RIS': 100,
 'Nc_RIS': 4,
 'Nc_RIS_compressed_ratio': 0.04,
 'Nh_RIS': 10,
 'Nw_RIS': 10,
 'Q_bits': 3,
 'batch_size': 256,
 'epoch_echo': True,
 'epoch_val': 100,
 'epochs': 500,
 'lr': 0.0001,
 'mc_runs': 1000000,
 'momentum': 0.9,
 'overall_bits': 12,
 'snr_dB': -5,
 'step_size': 10,
 'train_test_split': 0.8,
 'train_val_split': 0.8}
Achievable Rate (bps/Hz) using RIS phase shifts with Transmit power SNR -5 dB:
optimum:  12.526344299316406
AQE net:  5.980004787445068
lin Q:    6.346359729766846
random:   5.520828723907471
AutoQEncoder(
  (encoder_layer): EncoderLayer(
    (cnn_layer): Sequential(
      (0): Conv2d(5, 32, kernel_size=(5, 5), stride=(1, 1), padding=(1, 1), padding_mode=circular)
      (1): BatchNorm2d(32, eps=1e-05, momentum=0.1, affine=True, track_running_stats=True)
      (2): ReLU()
      (3): Conv2d(32, 64, kernel_size=(5, 5), stride=(1, 1))
      (4): BatchNorm2d(64, eps=1e-05, momentum=0.1, affine=True, track_running_stats=True)
      (5): ReLU()
      (6): Conv2d(64, 128, kernel_size=(3, 3), stride=(1, 1))
      (7): BatchNorm2d(128, eps=1e-05, momentum=0.1, affine=True, track_running_stats=True)
      (8): ReLU()
      (9): MaxPool2d(kernel_size=2, stride=2, padding=0, dilation=1, ceil_mode=False)
    )
    (linear_encoder): Sequential(
      (0): Dropout(p=0.5, inplace=False)
      (1): Linear(in_features=128, out_features=100, bias=True)
      (2): LeakyReLU(negative_slope=0.01)
      (3): Linear(in_features=100, out_features=100, bias=True)
      (4): LeakyReLU(negative_slope=0.01)
      (5): Linear(in_features=100, out_features=8, bias=True)
      (6): LeakyReLU(negative_slope=0.01)
    )
  )
  (quantizer_layer): QuantizerLayer()
  (decoder_layer): DecoderLayer(
    (linear_decoder): Sequential(
      (0): Linear(in_features=8, out_features=100, bias=True)
      (1): LeakyReLU(negative_slope=0.01)
      (2): Linear(in_features=100, out_features=100, bias=True)
      (3): LeakyReLU(negative_slope=0.01)
      (4): Linear(in_features=100, out_features=128, bias=True)
      (5): LeakyReLU(negative_slope=0.01)
    )
    (cnn_layer): Sequential(
      (0): Upsample(scale_factor=2.0, mode='nearest')
      (1): ConvTranspose2d(128, 64, kernel_size=(3, 3), stride=(1, 1))
      (2): ReLU()
      (3): BatchNorm2d(64, eps=1e-05, momentum=0.1, affine=True, track_running_stats=True)
      (4): ConvTranspose2d(64, 32, kernel_size=(5, 5), stride=(1, 1))
      (5): ReLU()
      (6): BatchNorm2d(32, eps=1e-05, momentum=0.1, affine=True, track_running_stats=True)
      (7): ConvTranspose2d(32, 1, kernel_size=(5, 5), stride=(1, 1), padding=(1, 1))
      (8): ReLU()
      (9): BatchNorm2d(1, eps=1e-05, momentum=0.1, affine=True, track_running_stats=True)
    )
    (out_layer): Sequential(
      (0): Linear(in_features=100, out_features=100, bias=True)
      (1): Tanh()
    )
  )
)
Number of parameters: 313476
LinearQuantizer(
  (encoder_layer): Linear(in_features=100, out_features=8, bias=True)
  (quantizer_layer): QuantizerLayer()
  (decoder_layer): Linear(in_features=8, out_features=100, bias=True)
)
Number of parameters: 1729
  0%|          | 1/500 [00:38<5:23:14, 38.87s/it]
 0.0001 -> 0.0001
Epoch: 0 	Training Loss: -0.0016192482 	Validation Loss: -0.0062496013
Validation loss same/decreased (inf --> -0.0062496013)... saving model.
 0.0001 -> 0.0001
Epoch: 1 	Training Loss: -0.0016528130 	Validation Loss: -0.0063412944
Validation loss same/decreased (-0.0062496013 --> -0.0063412944)... saving model.
…
Epoch: 296 	Training Loss: -0.0019496141 	Validation Loss: -0.0075882560
 1.0000000000000004e-08 -> 1.0000000000000004e-08
Epoch: 297 	Training Loss: -0.0019496141 	Validation Loss: -0.0075882560
 60%|█████▉    | 299/500 [2:24:26<1:36:54, 28.93s/it]
 1.0000000000000004e-08 -> 1.0000000000000004e-08
Epoch: 298 	Training Loss: -0.0019496141 	Validation Loss: -0.0075882559
 1.0000000000000004e-08 -> 1.0000000000000004e-08
Epoch: 299 	Training Loss: -0.0019496141 	Validation Loss: -0.0075882559
No Validation early stop loss decrease (-0.7588250363 --> -0.7588148421). Early Stopping
AutoQEncoder(
  (encoder_layer): EncoderLayer(
    (cnn_layer): Sequential(
      (0): Conv2d(5, 32, kernel_size=(5, 5), stride=(1, 1), padding=(1, 1), padding_mode=circular)
      (1): BatchNorm2d(32, eps=1e-05, momentum=0.1, affine=True, track_running_stats=True)
      (2): ReLU()
      (3): Conv2d(32, 64, kernel_size=(5, 5), stride=(1, 1))
      (4): BatchNorm2d(64, eps=1e-05, momentum=0.1, affine=True, track_running_stats=True)
      (5): ReLU()
      (6): Conv2d(64, 128, kernel_size=(3, 3), stride=(1, 1))
      (7): BatchNorm2d(128, eps=1e-05, momentum=0.1, affine=True, track_running_stats=True)
      (8): ReLU()
      (9): MaxPool2d(kernel_size=2, stride=2, padding=0, dilation=1, ceil_mode=False)
    )
    (linear_encoder): Sequential(
      (0): Dropout(p=0.5, inplace=False)
      (1): Linear(in_features=128, out_features=100, bias=True)
      (2): LeakyReLU(negative_slope=0.01)
      (3): Linear(in_features=100, out_features=100, bias=True)
      (4): LeakyReLU(negative_slope=0.01)
      (5): Linear(in_features=100, out_features=8, bias=True)
      (6): LeakyReLU(negative_slope=0.01)
    )
  )
  (quantizer_layer): QuantizerLayer()
  (decoder_layer): DecoderLayer(
    (linear_decoder): Sequential(
      (0): Linear(in_features=8, out_features=100, bias=True)
      (1): LeakyReLU(negative_slope=0.01)
      (2): Linear(in_features=100, out_features=100, bias=True)
      (3): LeakyReLU(negative_slope=0.01)
      (4): Linear(in_features=100, out_features=128, bias=True)
      (5): LeakyReLU(negative_slope=0.01)
    )
    (cnn_layer): Sequential(
      (0): Upsample(scale_factor=2.0, mode='nearest')
      (1): ConvTranspose2d(128, 64, kernel_size=(3, 3), stride=(1, 1))
      (2): ReLU()
      (3): BatchNorm2d(64, eps=1e-05, momentum=0.1, affine=True, track_running_stats=True)
      (4): ConvTranspose2d(64, 32, kernel_size=(5, 5), stride=(1, 1))
      (5): ReLU()
      (6): BatchNorm2d(32, eps=1e-05, momentum=0.1, affine=True, track_running_stats=True)
      (7): ConvTranspose2d(32, 1, kernel_size=(5, 5), stride=(1, 1), padding=(1, 1))
      (8): ReLU()
      (9): BatchNorm2d(1, eps=1e-05, momentum=0.1, affine=True, track_running_stats=True)
    )
    (out_layer): Sequential(
      (0): Linear(in_features=100, out_features=100, bias=True)
      (1): Tanh()
    )
  )
)
Number of parameters: 313476
 60%|█████▉    | 299/500 [2:24:54<1:37:25, 29.08s/it]
Training Model parameters:
{'C_code_words': 8,
 'N_RIS': 100,
 'Nc_RIS': 8,
 'Nc_RIS_compressed_ratio': 0.08,
 'Nh_RIS': 10,
 'Nw_RIS': 10,
 'Q_bits': 3,
 'batch_size': 256,
 'epoch_echo': True,
 'epoch_val': 100,
 'epochs': 500,
 'lr': 0.0001,
 'mc_runs': 1000000,
 'momentum': 0.9,
 'overall_bits': 24,
 'snr_dB': -5,
 'step_size': 10,
 'train_test_split': 0.8,
 'train_val_split': 0.8}
Achievable Rate (bps/Hz) using RIS phase shifts with Transmit power SNR -5 dB:
optimum:  12.526344299316406
AQE net:  5.961694717407227
lin Q:    6.7837371826171875
random:   5.5213775634765625
AutoQEncoder(
  (encoder_layer): EncoderLayer(
    (cnn_layer): Sequential(
      (0): Conv2d(5, 32, kernel_size=(5, 5), stride=(1, 1), padding=(1, 1), padding_mode=circular)
      (1): BatchNorm2d(32, eps=1e-05, momentum=0.1, affine=True, track_running_stats=True)
      (2): ReLU()
      (3): Conv2d(32, 64, kernel_size=(5, 5), stride=(1, 1))
      (4): BatchNorm2d(64, eps=1e-05, momentum=0.1, affine=True, track_running_stats=True)
      (5): ReLU()
      (6): Conv2d(64, 128, kernel_size=(3, 3), stride=(1, 1))
      (7): BatchNorm2d(128, eps=1e-05, momentum=0.1, affine=True, track_running_stats=True)
      (8): ReLU()
      (9): MaxPool2d(kernel_size=2, stride=2, padding=0, dilation=1, ceil_mode=False)
    )
    (linear_encoder): Sequential(
      (0): Dropout(p=0.5, inplace=False)
      (1): Linear(in_features=128, out_features=100, bias=True)
      (2): LeakyReLU(negative_slope=0.01)
      (3): Linear(in_features=100, out_features=100, bias=True)
      (4): LeakyReLU(negative_slope=0.01)
      (5): Linear(in_features=100, out_features=16, bias=True)
      (6): LeakyReLU(negative_slope=0.01)
    )
  )
  (quantizer_layer): QuantizerLayer()
  (decoder_layer): DecoderLayer(
    (linear_decoder): Sequential(
      (0): Linear(in_features=16, out_features=100, bias=True)
      (1): LeakyReLU(negative_slope=0.01)
      (2): Linear(in_features=100, out_features=100, bias=True)
      (3): LeakyReLU(negative_slope=0.01)
      (4): Linear(in_features=100, out_features=128, bias=True)
      (5): LeakyReLU(negative_slope=0.01)
    )
    (cnn_layer): Sequential(
      (0): Upsample(scale_factor=2.0, mode='nearest')
      (1): ConvTranspose2d(128, 64, kernel_size=(3, 3), stride=(1, 1))
      (2): ReLU()
      (3): BatchNorm2d(64, eps=1e-05, momentum=0.1, affine=True, track_running_stats=True)
      (4): ConvTranspose2d(64, 32, kernel_size=(5, 5), stride=(1, 1))
      (5): ReLU()
      (6): BatchNorm2d(32, eps=1e-05, momentum=0.1, affine=True, track_running_stats=True)
      (7): ConvTranspose2d(32, 1, kernel_size=(5, 5), stride=(1, 1), padding=(1, 1))
      (8): ReLU()
      (9): BatchNorm2d(1, eps=1e-05, momentum=0.1, affine=True, track_running_stats=True)
    )
    (out_layer): Sequential(
      (0): Linear(in_features=100, out_features=100, bias=True)
      (1): Tanh()
    )
  )
)
Number of parameters: 315084
LinearQuantizer(
  (encoder_layer): Linear(in_features=100, out_features=16, bias=True)
  (quantizer_layer): QuantizerLayer()
  (decoder_layer): Linear(in_features=16, out_features=100, bias=True)
)
Number of parameters: 3337
  0%|          | 1/500 [00:39<5:29:02, 39.56s/it]
 0.0001 -> 0.0001
Epoch: 0 	Training Loss: -0.0016407022 	Validation Loss: -0.0066584210
Validation loss same/decreased (inf --> -0.0066584210)... saving model.
 0.0001 -> 0.0001
Epoch: 1 	Training Loss: -0.0016547598 	Validation Loss: -0.0066887015
Validation loss same/decreased (-0.0066584210 --> -0.0066887015)... saving model.
…
Epoch: 296 	Training Loss: -0.0020060395 	Validation Loss: -0.0079258490
 1.0000000000000002e-07 -> 1.0000000000000002e-07
Epoch: 297 	Training Loss: -0.0020060396 	Validation Loss: -0.0079258490
 60%|█████▉    | 299/500 [2:25:02<1:37:00, 28.96s/it]
 1.0000000000000002e-07 -> 1.0000000000000002e-07
Epoch: 298 	Training Loss: -0.0020060397 	Validation Loss: -0.0079258490
 1.0000000000000002e-07 -> 1.0000000000000002e-07
Epoch: 299 	Training Loss: -0.0020060398 	Validation Loss: -0.0079258490
No Validation early stop loss decrease (-0.7925737646 --> -0.7924964887). Early Stopping
AutoQEncoder(
  (encoder_layer): EncoderLayer(
    (cnn_layer): Sequential(
      (0): Conv2d(5, 32, kernel_size=(5, 5), stride=(1, 1), padding=(1, 1), padding_mode=circular)
      (1): BatchNorm2d(32, eps=1e-05, momentum=0.1, affine=True, track_running_stats=True)
      (2): ReLU()
      (3): Conv2d(32, 64, kernel_size=(5, 5), stride=(1, 1))
      (4): BatchNorm2d(64, eps=1e-05, momentum=0.1, affine=True, track_running_stats=True)
      (5): ReLU()
      (6): Conv2d(64, 128, kernel_size=(3, 3), stride=(1, 1))
      (7): BatchNorm2d(128, eps=1e-05, momentum=0.1, affine=True, track_running_stats=True)
      (8): ReLU()
      (9): MaxPool2d(kernel_size=2, stride=2, padding=0, dilation=1, ceil_mode=False)
    )
    (linear_encoder): Sequential(
      (0): Dropout(p=0.5, inplace=False)
      (1): Linear(in_features=128, out_features=100, bias=True)
      (2): LeakyReLU(negative_slope=0.01)
      (3): Linear(in_features=100, out_features=100, bias=True)
      (4): LeakyReLU(negative_slope=0.01)
      (5): Linear(in_features=100, out_features=16, bias=True)
      (6): LeakyReLU(negative_slope=0.01)
    )
  )
  (quantizer_layer): QuantizerLayer()
  (decoder_layer): DecoderLayer(
    (linear_decoder): Sequential(
      (0): Linear(in_features=16, out_features=100, bias=True)
      (1): LeakyReLU(negative_slope=0.01)
      (2): Linear(in_features=100, out_features=100, bias=True)
      (3): LeakyReLU(negative_slope=0.01)
      (4): Linear(in_features=100, out_features=128, bias=True)
      (5): LeakyReLU(negative_slope=0.01)
    )
    (cnn_layer): Sequential(
      (0): Upsample(scale_factor=2.0, mode='nearest')
      (1): ConvTranspose2d(128, 64, kernel_size=(3, 3), stride=(1, 1))
      (2): ReLU()
      (3): BatchNorm2d(64, eps=1e-05, momentum=0.1, affine=True, track_running_stats=True)
      (4): ConvTranspose2d(64, 32, kernel_size=(5, 5), stride=(1, 1))
      (5): ReLU()
      (6): BatchNorm2d(32, eps=1e-05, momentum=0.1, affine=True, track_running_stats=True)
      (7): ConvTranspose2d(32, 1, kernel_size=(5, 5), stride=(1, 1), padding=(1, 1))
      (8): ReLU()
      (9): BatchNorm2d(1, eps=1e-05, momentum=0.1, affine=True, track_running_stats=True)
    )
    (out_layer): Sequential(
      (0): Linear(in_features=100, out_features=100, bias=True)
      (1): Tanh()
    )
  )
)
Number of parameters: 315084
 60%|█████▉    | 299/500 [2:25:31<1:37:49, 29.20s/it]
Training Model parameters:
{'C_code_words': 8,
 'N_RIS': 100,
 'Nc_RIS': 16,
 'Nc_RIS_compressed_ratio': 0.16,
 'Nh_RIS': 10,
 'Nw_RIS': 10,
 'Q_bits': 3,
 'batch_size': 256,
 'epoch_echo': True,
 'epoch_val': 100,
 'epochs': 500,
 'lr': 0.0001,
 'mc_runs': 1000000,
 'momentum': 0.9,
 'overall_bits': 48,
 'snr_dB': -5,
 'step_size': 10,
 'train_test_split': 0.8,
 'train_val_split': 0.8}
Achievable Rate (bps/Hz) using RIS phase shifts with Transmit power SNR -5 dB:
optimum:  12.526344299316406
AQE net:  5.975100994110107
lin Q:    7.526488780975342
random:   5.527346611022949
AutoQEncoder(
  (encoder_layer): EncoderLayer(
    (cnn_layer): Sequential(
      (0): Conv2d(5, 32, kernel_size=(5, 5), stride=(1, 1), padding=(1, 1), padding_mode=circular)
      (1): BatchNorm2d(32, eps=1e-05, momentum=0.1, affine=True, track_running_stats=True)
      (2): ReLU()
      (3): Conv2d(32, 64, kernel_size=(5, 5), stride=(1, 1))
      (4): BatchNorm2d(64, eps=1e-05, momentum=0.1, affine=True, track_running_stats=True)
      (5): ReLU()
      (6): Conv2d(64, 128, kernel_size=(3, 3), stride=(1, 1))
      (7): BatchNorm2d(128, eps=1e-05, momentum=0.1, affine=True, track_running_stats=True)
      (8): ReLU()
      (9): MaxPool2d(kernel_size=2, stride=2, padding=0, dilation=1, ceil_mode=False)
    )
    (linear_encoder): Sequential(
      (0): Dropout(p=0.5, inplace=False)
      (1): Linear(in_features=128, out_features=100, bias=True)
      (2): LeakyReLU(negative_slope=0.01)
      (3): Linear(in_features=100, out_features=100, bias=True)
      (4): LeakyReLU(negative_slope=0.01)
      (5): Linear(in_features=100, out_features=32, bias=True)
      (6): LeakyReLU(negative_slope=0.01)
    )
  )
  (quantizer_layer): QuantizerLayer()
  (decoder_layer): DecoderLayer(
    (linear_decoder): Sequential(
      (0): Linear(in_features=32, out_features=100, bias=True)
      (1): LeakyReLU(negative_slope=0.01)
      (2): Linear(in_features=100, out_features=100, bias=True)
      (3): LeakyReLU(negative_slope=0.01)
      (4): Linear(in_features=100, out_features=128, bias=True)
      (5): LeakyReLU(negative_slope=0.01)
    )
    (cnn_layer): Sequential(
      (0): Upsample(scale_factor=2.0, mode='nearest')
      (1): ConvTranspose2d(128, 64, kernel_size=(3, 3), stride=(1, 1))
      (2): ReLU()
      (3): BatchNorm2d(64, eps=1e-05, momentum=0.1, affine=True, track_running_stats=True)
      (4): ConvTranspose2d(64, 32, kernel_size=(5, 5), stride=(1, 1))
      (5): ReLU()
      (6): BatchNorm2d(32, eps=1e-05, momentum=0.1, affine=True, track_running_stats=True)
      (7): ConvTranspose2d(32, 1, kernel_size=(5, 5), stride=(1, 1), padding=(1, 1))
      (8): ReLU()
      (9): BatchNorm2d(1, eps=1e-05, momentum=0.1, affine=True, track_running_stats=True)
    )
    (out_layer): Sequential(
      (0): Linear(in_features=100, out_features=100, bias=True)
      (1): Tanh()
    )
  )
)
Number of parameters: 318300
LinearQuantizer(
  (encoder_layer): Linear(in_features=100, out_features=32, bias=True)
  (quantizer_layer): QuantizerLayer()
  (decoder_layer): Linear(in_features=32, out_features=100, bias=True)
)
Number of parameters: 6553
  0%|          | 1/500 [00:39<5:30:10, 39.70s/it]
 0.0001 -> 0.0001
Epoch: 0 	Training Loss: -0.0015735410 	Validation Loss: -0.0065680016
Validation loss same/decreased (inf --> -0.0065680016)... saving model.
 0.0001 -> 0.0001
Epoch: 1 	Training Loss: -0.0015653483 	Validation Loss: -0.0066467708
Validation loss same/decreased (-0.0065680016 --> -0.0066467708)... saving model.
…
Epoch: 296 	Training Loss: -0.0021343730 	Validation Loss: -0.0087379624
 1.0000000000000004e-08 -> 1.0000000000000004e-08
Epoch: 297 	Training Loss: -0.0021343730 	Validation Loss: -0.0087379624
 60%|█████▉    | 299/500 [2:23:05<1:36:04, 28.68s/it]
 1.0000000000000004e-08 -> 1.0000000000000004e-08
Epoch: 298 	Training Loss: -0.0021343730 	Validation Loss: -0.0087379624
 1.0000000000000004e-08 -> 1.0000000000000004e-08
Epoch: 299 	Training Loss: -0.0021343730 	Validation Loss: -0.0087379624
No Validation early stop loss decrease (-0.8738191305 --> -0.8737899649). Early Stopping
AutoQEncoder(
  (encoder_layer): EncoderLayer(
    (cnn_layer): Sequential(
      (0): Conv2d(5, 32, kernel_size=(5, 5), stride=(1, 1), padding=(1, 1), padding_mode=circular)
      (1): BatchNorm2d(32, eps=1e-05, momentum=0.1, affine=True, track_running_stats=True)
      (2): ReLU()
      (3): Conv2d(32, 64, kernel_size=(5, 5), stride=(1, 1))
      (4): BatchNorm2d(64, eps=1e-05, momentum=0.1, affine=True, track_running_stats=True)
      (5): ReLU()
      (6): Conv2d(64, 128, kernel_size=(3, 3), stride=(1, 1))
      (7): BatchNorm2d(128, eps=1e-05, momentum=0.1, affine=True, track_running_stats=True)
      (8): ReLU()
      (9): MaxPool2d(kernel_size=2, stride=2, padding=0, dilation=1, ceil_mode=False)
    )
    (linear_encoder): Sequential(
      (0): Dropout(p=0.5, inplace=False)
      (1): Linear(in_features=128, out_features=100, bias=True)
      (2): LeakyReLU(negative_slope=0.01)
      (3): Linear(in_features=100, out_features=100, bias=True)
      (4): LeakyReLU(negative_slope=0.01)
      (5): Linear(in_features=100, out_features=32, bias=True)
      (6): LeakyReLU(negative_slope=0.01)
    )
  )
  (quantizer_layer): QuantizerLayer()
  (decoder_layer): DecoderLayer(
    (linear_decoder): Sequential(
      (0): Linear(in_features=32, out_features=100, bias=True)
      (1): LeakyReLU(negative_slope=0.01)
      (2): Linear(in_features=100, out_features=100, bias=True)
      (3): LeakyReLU(negative_slope=0.01)
      (4): Linear(in_features=100, out_features=128, bias=True)
      (5): LeakyReLU(negative_slope=0.01)
    )
    (cnn_layer): Sequential(
      (0): Upsample(scale_factor=2.0, mode='nearest')
      (1): ConvTranspose2d(128, 64, kernel_size=(3, 3), stride=(1, 1))
      (2): ReLU()
      (3): BatchNorm2d(64, eps=1e-05, momentum=0.1, affine=True, track_running_stats=True)
      (4): ConvTranspose2d(64, 32, kernel_size=(5, 5), stride=(1, 1))
      (5): ReLU()
      (6): BatchNorm2d(32, eps=1e-05, momentum=0.1, affine=True, track_running_stats=True)
      (7): ConvTranspose2d(32, 1, kernel_size=(5, 5), stride=(1, 1), padding=(1, 1))
      (8): ReLU()
      (9): BatchNorm2d(1, eps=1e-05, momentum=0.1, affine=True, track_running_stats=True)
    )
    (out_layer): Sequential(
      (0): Linear(in_features=100, out_features=100, bias=True)
      (1): Tanh()
    )
  )
)
Number of parameters: 318300
 60%|█████▉    | 299/500 [2:23:34<1:36:31, 28.81s/it]
Training Model parameters:
{'C_code_words': 8,
 'N_RIS': 100,
 'Nc_RIS': 32,
 'Nc_RIS_compressed_ratio': 0.32,
 'Nh_RIS': 10,
 'Nw_RIS': 10,
 'Q_bits': 3,
 'batch_size': 256,
 'epoch_echo': True,
 'epoch_val': 100,
 'epochs': 500,
 'lr': 0.0001,
 'mc_runs': 1000000,
 'momentum': 0.9,
 'overall_bits': 96,
 'snr_dB': -5,
 'step_size': 10,
 'train_test_split': 0.8,
 'train_val_split': 0.8}
Achievable Rate (bps/Hz) using RIS phase shifts with Transmit power SNR -5 dB:
optimum:  12.526344299316406
AQE net:  5.99941873550415
lin Q:    8.439040184020996
random:   5.526022434234619
AutoQEncoder(
  (encoder_layer): EncoderLayer(
    (cnn_layer): Sequential(
      (0): Conv2d(5, 32, kernel_size=(5, 5), stride=(1, 1), padding=(1, 1), padding_mode=circular)
      (1): BatchNorm2d(32, eps=1e-05, momentum=0.1, affine=True, track_running_stats=True)
      (2): ReLU()
      (3): Conv2d(32, 64, kernel_size=(5, 5), stride=(1, 1))
      (4): BatchNorm2d(64, eps=1e-05, momentum=0.1, affine=True, track_running_stats=True)
      (5): ReLU()
      (6): Conv2d(64, 128, kernel_size=(3, 3), stride=(1, 1))
      (7): BatchNorm2d(128, eps=1e-05, momentum=0.1, affine=True, track_running_stats=True)
      (8): ReLU()
      (9): MaxPool2d(kernel_size=2, stride=2, padding=0, dilation=1, ceil_mode=False)
    )
    (linear_encoder): Sequential(
      (0): Dropout(p=0.5, inplace=False)
      (1): Linear(in_features=128, out_features=100, bias=True)
      (2): LeakyReLU(negative_slope=0.01)
      (3): Linear(in_features=100, out_features=100, bias=True)
      (4): LeakyReLU(negative_slope=0.01)
      (5): Linear(in_features=100, out_features=64, bias=True)
      (6): LeakyReLU(negative_slope=0.01)
    )
  )
  (quantizer_layer): QuantizerLayer()
  (decoder_layer): DecoderLayer(
    (linear_decoder): Sequential(
      (0): Linear(in_features=64, out_features=100, bias=True)
      (1): LeakyReLU(negative_slope=0.01)
      (2): Linear(in_features=100, out_features=100, bias=True)
      (3): LeakyReLU(negative_slope=0.01)
      (4): Linear(in_features=100, out_features=128, bias=True)
      (5): LeakyReLU(negative_slope=0.01)
    )
    (cnn_layer): Sequential(
      (0): Upsample(scale_factor=2.0, mode='nearest')
      (1): ConvTranspose2d(128, 64, kernel_size=(3, 3), stride=(1, 1))
      (2): ReLU()
      (3): BatchNorm2d(64, eps=1e-05, momentum=0.1, affine=True, track_running_stats=True)
      (4): ConvTranspose2d(64, 32, kernel_size=(5, 5), stride=(1, 1))
      (5): ReLU()
      (6): BatchNorm2d(32, eps=1e-05, momentum=0.1, affine=True, track_running_stats=True)
      (7): ConvTranspose2d(32, 1, kernel_size=(5, 5), stride=(1, 1), padding=(1, 1))
      (8): ReLU()
      (9): BatchNorm2d(1, eps=1e-05, momentum=0.1, affine=True, track_running_stats=True)
    )
    (out_layer): Sequential(
      (0): Linear(in_features=100, out_features=100, bias=True)
      (1): Tanh()
    )
  )
)
Number of parameters: 324732
LinearQuantizer(
  (encoder_layer): Linear(in_features=100, out_features=64, bias=True)
  (quantizer_layer): QuantizerLayer()
  (decoder_layer): Linear(in_features=64, out_features=100, bias=True)
)
Number of parameters: 12985
  0%|          | 1/500 [00:39<5:28:24, 39.49s/it]
 0.0001 -> 0.0001
Epoch: 0 	Training Loss: -0.0016728136 	Validation Loss: -0.0066365131
Validation loss same/decreased (inf --> -0.0066365131)... saving model.
 0.0001 -> 0.0001
Epoch: 1 	Training Loss: -0.0016873623 	Validation Loss: -0.0067233139
Validation loss same/decreased (-0.0066365131 --> -0.0067233139)... saving model.
…
Epoch: 296 	Training Loss: -0.0024053838 	Validation Loss: -0.0096785704
 1.0000000000000004e-08 -> 1.0000000000000004e-08
Epoch: 297 	Training Loss: -0.0024053838 	Validation Loss: -0.0096785703
 60%|█████▉    | 299/500 [2:27:49<1:37:33, 29.12s/it]
 1.0000000000000004e-08 -> 1.0000000000000004e-08
Epoch: 298 	Training Loss: -0.0024053838 	Validation Loss: -0.0096785703
 1.0000000000000004e-08 -> 1.0000000000000004e-08
Epoch: 299 	Training Loss: -0.0024053839 	Validation Loss: -0.0096785702
No Validation early stop loss decrease (-0.9679198713 --> -0.9678637611). Early Stopping
AutoQEncoder(
  (encoder_layer): EncoderLayer(
    (cnn_layer): Sequential(
      (0): Conv2d(5, 32, kernel_size=(5, 5), stride=(1, 1), padding=(1, 1), padding_mode=circular)
      (1): BatchNorm2d(32, eps=1e-05, momentum=0.1, affine=True, track_running_stats=True)
      (2): ReLU()
      (3): Conv2d(32, 64, kernel_size=(5, 5), stride=(1, 1))
      (4): BatchNorm2d(64, eps=1e-05, momentum=0.1, affine=True, track_running_stats=True)
      (5): ReLU()
      (6): Conv2d(64, 128, kernel_size=(3, 3), stride=(1, 1))
      (7): BatchNorm2d(128, eps=1e-05, momentum=0.1, affine=True, track_running_stats=True)
      (8): ReLU()
      (9): MaxPool2d(kernel_size=2, stride=2, padding=0, dilation=1, ceil_mode=False)
    )
    (linear_encoder): Sequential(
      (0): Dropout(p=0.5, inplace=False)
      (1): Linear(in_features=128, out_features=100, bias=True)
      (2): LeakyReLU(negative_slope=0.01)
      (3): Linear(in_features=100, out_features=100, bias=True)
      (4): LeakyReLU(negative_slope=0.01)
      (5): Linear(in_features=100, out_features=64, bias=True)
      (6): LeakyReLU(negative_slope=0.01)
    )
  )
  (quantizer_layer): QuantizerLayer()
  (decoder_layer): DecoderLayer(
    (linear_decoder): Sequential(
      (0): Linear(in_features=64, out_features=100, bias=True)
      (1): LeakyReLU(negative_slope=0.01)
      (2): Linear(in_features=100, out_features=100, bias=True)
      (3): LeakyReLU(negative_slope=0.01)
      (4): Linear(in_features=100, out_features=128, bias=True)
      (5): LeakyReLU(negative_slope=0.01)
    )
    (cnn_layer): Sequential(
      (0): Upsample(scale_factor=2.0, mode='nearest')
      (1): ConvTranspose2d(128, 64, kernel_size=(3, 3), stride=(1, 1))
      (2): ReLU()
      (3): BatchNorm2d(64, eps=1e-05, momentum=0.1, affine=True, track_running_stats=True)
      (4): ConvTranspose2d(64, 32, kernel_size=(5, 5), stride=(1, 1))
      (5): ReLU()
      (6): BatchNorm2d(32, eps=1e-05, momentum=0.1, affine=True, track_running_stats=True)
      (7): ConvTranspose2d(32, 1, kernel_size=(5, 5), stride=(1, 1), padding=(1, 1))
      (8): ReLU()
      (9): BatchNorm2d(1, eps=1e-05, momentum=0.1, affine=True, track_running_stats=True)
    )
    (out_layer): Sequential(
      (0): Linear(in_features=100, out_features=100, bias=True)
      (1): Tanh()
    )
  )
)
Number of parameters: 324732
 60%|█████▉    | 299/500 [2:28:18<1:39:42, 29.76s/it]
Training Model parameters:
{'C_code_words': 8,
 'N_RIS': 100,
 'Nc_RIS': 64,
 'Nc_RIS_compressed_ratio': 0.64,
 'Nh_RIS': 10,
 'Nw_RIS': 10,
 'Q_bits': 3,
 'batch_size': 256,
 'epoch_echo': True,
 'epoch_val': 100,
 'epochs': 500,
 'lr': 0.0001,
 'mc_runs': 1000000,
 'momentum': 0.9,
 'overall_bits': 192,
 'snr_dB': -5,
 'step_size': 10,
 'train_test_split': 0.8,
 'train_val_split': 0.8}
Achievable Rate (bps/Hz) using RIS phase shifts with Transmit power SNR -5 dB:
optimum:  12.526344299316406
AQE net:  5.981543064117432
lin Q:    9.633892059326172
random:   5.5222249031066895
AutoQEncoder(
  (encoder_layer): EncoderLayer(
    (cnn_layer): Sequential(
      (0): Conv2d(5, 32, kernel_size=(5, 5), stride=(1, 1), padding=(1, 1), padding_mode=circular)
      (1): BatchNorm2d(32, eps=1e-05, momentum=0.1, affine=True, track_running_stats=True)
      (2): ReLU()
      (3): Conv2d(32, 64, kernel_size=(5, 5), stride=(1, 1))
      (4): BatchNorm2d(64, eps=1e-05, momentum=0.1, affine=True, track_running_stats=True)
      (5): ReLU()
      (6): Conv2d(64, 128, kernel_size=(3, 3), stride=(1, 1))
      (7): BatchNorm2d(128, eps=1e-05, momentum=0.1, affine=True, track_running_stats=True)
      (8): ReLU()
      (9): MaxPool2d(kernel_size=2, stride=2, padding=0, dilation=1, ceil_mode=False)
    )
    (linear_encoder): Sequential(
      (0): Dropout(p=0.5, inplace=False)
      (1): Linear(in_features=128, out_features=100, bias=True)
      (2): LeakyReLU(negative_slope=0.01)
      (3): Linear(in_features=100, out_features=100, bias=True)
      (4): LeakyReLU(negative_slope=0.01)
      (5): Linear(in_features=100, out_features=128, bias=True)
      (6): LeakyReLU(negative_slope=0.01)
    )
  )
  (quantizer_layer): QuantizerLayer()
  (decoder_layer): DecoderLayer(
    (linear_decoder): Sequential(
      (0): Linear(in_features=128, out_features=100, bias=True)
      (1): LeakyReLU(negative_slope=0.01)
      (2): Linear(in_features=100, out_features=100, bias=True)
      (3): LeakyReLU(negative_slope=0.01)
      (4): Linear(in_features=100, out_features=128, bias=True)
      (5): LeakyReLU(negative_slope=0.01)
    )
    (cnn_layer): Sequential(
      (0): Upsample(scale_factor=2.0, mode='nearest')
      (1): ConvTranspose2d(128, 64, kernel_size=(3, 3), stride=(1, 1))
      (2): ReLU()
      (3): BatchNorm2d(64, eps=1e-05, momentum=0.1, affine=True, track_running_stats=True)
      (4): ConvTranspose2d(64, 32, kernel_size=(5, 5), stride=(1, 1))
      (5): ReLU()
      (6): BatchNorm2d(32, eps=1e-05, momentum=0.1, affine=True, track_running_stats=True)
      (7): ConvTranspose2d(32, 1, kernel_size=(5, 5), stride=(1, 1), padding=(1, 1))
      (8): ReLU()
      (9): BatchNorm2d(1, eps=1e-05, momentum=0.1, affine=True, track_running_stats=True)
    )
    (out_layer): Sequential(
      (0): Linear(in_features=100, out_features=100, bias=True)
      (1): Tanh()
    )
  )
)
Number of parameters: 337596
LinearQuantizer(
  (encoder_layer): Linear(in_features=100, out_features=128, bias=True)
  (quantizer_layer): QuantizerLayer()
  (decoder_layer): Linear(in_features=128, out_features=100, bias=True)
)
Number of parameters: 25849
  0%|          | 1/500 [00:40<5:39:49, 40.86s/it]
 0.0001 -> 0.0001
Epoch: 0 	Training Loss: -0.0016102226 	Validation Loss: -0.0066417996
Validation loss same/decreased (inf --> -0.0066417996)... saving model.
 0.0001 -> 0.0001
Epoch: 1 	Training Loss: -0.0016181479 	Validation Loss: -0.0066276265
  1%|          | 3/500 [02:02<5:38:29, 40.86s/it]
…
Epoch: 496 	Training Loss: -0.0024978559 	Validation Loss: -0.0100492111
 1.0000000000000004e-08 -> 1.0000000000000004e-08
Epoch: 497 	Training Loss: -0.0024978559 	Validation Loss: -0.0100491821
100%|█████████▉| 499/500 [4:06:31<00:29, 29.17s/it]
 1.0000000000000004e-08 -> 1.0000000000000004e-08
Epoch: 498 	Training Loss: -0.0024978559 	Validation Loss: -0.0100491820
 1.0000000000000004e-08 -> 1.0000000000000004e-08
Epoch: 499 	Training Loss: -0.0024978559 	Validation Loss: -0.0100491819
Validation early stop running loss decreased (-1.0049192626 --> -1.0049208344).
AutoQEncoder(
  (encoder_layer): EncoderLayer(
    (cnn_layer): Sequential(
      (0): Conv2d(5, 32, kernel_size=(5, 5), stride=(1, 1), padding=(1, 1), padding_mode=circular)
      (1): BatchNorm2d(32, eps=1e-05, momentum=0.1, affine=True, track_running_stats=True)
      (2): ReLU()
      (3): Conv2d(32, 64, kernel_size=(5, 5), stride=(1, 1))
      (4): BatchNorm2d(64, eps=1e-05, momentum=0.1, affine=True, track_running_stats=True)
      (5): ReLU()
      (6): Conv2d(64, 128, kernel_size=(3, 3), stride=(1, 1))
      (7): BatchNorm2d(128, eps=1e-05, momentum=0.1, affine=True, track_running_stats=True)
      (8): ReLU()
      (9): MaxPool2d(kernel_size=2, stride=2, padding=0, dilation=1, ceil_mode=False)
    )
    (linear_encoder): Sequential(
      (0): Dropout(p=0.5, inplace=False)
      (1): Linear(in_features=128, out_features=100, bias=True)
      (2): LeakyReLU(negative_slope=0.01)
      (3): Linear(in_features=100, out_features=100, bias=True)
      (4): LeakyReLU(negative_slope=0.01)
      (5): Linear(in_features=100, out_features=128, bias=True)
      (6): LeakyReLU(negative_slope=0.01)
    )
  )
  (quantizer_layer): QuantizerLayer()
  (decoder_layer): DecoderLayer(
    (linear_decoder): Sequential(
      (0): Linear(in_features=128, out_features=100, bias=True)
      (1): LeakyReLU(negative_slope=0.01)
      (2): Linear(in_features=100, out_features=100, bias=True)
      (3): LeakyReLU(negative_slope=0.01)
      (4): Linear(in_features=100, out_features=128, bias=True)
      (5): LeakyReLU(negative_slope=0.01)
    )
    (cnn_layer): Sequential(
      (0): Upsample(scale_factor=2.0, mode='nearest')
      (1): ConvTranspose2d(128, 64, kernel_size=(3, 3), stride=(1, 1))
      (2): ReLU()
      (3): BatchNorm2d(64, eps=1e-05, momentum=0.1, affine=True, track_running_stats=True)
      (4): ConvTranspose2d(64, 32, kernel_size=(5, 5), stride=(1, 1))
      (5): ReLU()
      (6): BatchNorm2d(32, eps=1e-05, momentum=0.1, affine=True, track_running_stats=True)
      (7): ConvTranspose2d(32, 1, kernel_size=(5, 5), stride=(1, 1), padding=(1, 1))
      (8): ReLU()
      (9): BatchNorm2d(1, eps=1e-05, momentum=0.1, affine=True, track_running_stats=True)
    )
    (out_layer): Sequential(
      (0): Linear(in_features=100, out_features=100, bias=True)
      (1): Tanh()
    )
  )
)
Number of parameters: 337596
100%|██████████| 500/500 [4:07:00<00:00, 29.64s/it]
Training Model parameters:
{'C_code_words': 8,
 'N_RIS': 100,
 'Nc_RIS': 128,
 'Nc_RIS_compressed_ratio': 1.28,
 'Nh_RIS': 10,
 'Nw_RIS': 10,
 'Q_bits': 3,
 'batch_size': 256,
 'epoch_echo': True,
 'epoch_val': 100,
 'epochs': 500,
 'lr': 0.0001,
…
