…
T              101
K                1
M                1
N              100
Nw              10
Nh              10
mc_runs    1000000
Name: 0, dtype: int64
Training Model parameters:
{'N_RIS': 100,
 'Nh_RIS': 10,
 'Nw_RIS': 10,
 'Q_bits': 1,
 'batch_size': 512,
 'epoch_echo': True,
 'epoch_val': 100,
 'epochs': 500,
 'lr': 0.001,
 'mc_runs': 1000000,
 'momentum': 0.9,
 'snr_dB': -5,
 'train_test_split': 0.8,
 'train_val_split': 0.8}
--------------
Create Dataset
--------------
------------
Train & Test
------------
AutoQEncoder(
  (encoder_layer): EncoderLayer(
    (cnn_theta): Sequential(
      (0): Conv2d(1, 32, kernel_size=(5, 5), stride=(1, 1), padding=(1, 1), padding_mode=circular)
      (1): BatchNorm2d(32, eps=1e-05, momentum=0.1, affine=True, track_running_stats=True)
      (2): ReLU()
      (3): Conv2d(32, 64, kernel_size=(3, 3), stride=(1, 1))
      (4): BatchNorm2d(64, eps=1e-05, momentum=0.1, affine=True, track_running_stats=True)
      (5): ReLU()
      (6): Conv2d(64, 64, kernel_size=(3, 3), stride=(1, 1))
      (7): BatchNorm2d(64, eps=1e-05, momentum=0.1, affine=True, track_running_stats=True)
      (8): ReLU()
      (9): MaxPool2d(kernel_size=2, stride=2, padding=0, dilation=1, ceil_mode=False)
    )
    (cnn_hra): Sequential(
      (0): Conv2d(2, 32, kernel_size=(5, 5), stride=(1, 1), padding=(1, 1), padding_mode=circular)
      (1): BatchNorm2d(32, eps=1e-05, momentum=0.1, affine=True, track_running_stats=True)
      (2): ReLU()
      (3): Conv2d(32, 64, kernel_size=(3, 3), stride=(1, 1))
      (4): BatchNorm2d(64, eps=1e-05, momentum=0.1, affine=True, track_running_stats=True)
      (5): ReLU()
      (6): Conv2d(64, 64, kernel_size=(3, 3), stride=(1, 1))
      (7): BatchNorm2d(64, eps=1e-05, momentum=0.1, affine=True, track_running_stats=True)
      (8): ReLU()
      (9): MaxPool2d(kernel_size=2, stride=2, padding=0, dilation=1, ceil_mode=False)
    )
    (cnn_hur): Sequential(
      (0): Conv2d(2, 32, kernel_size=(5, 5), stride=(1, 1), padding=(1, 1), padding_mode=circular)
      (1): BatchNorm2d(32, eps=1e-05, momentum=0.1, affine=True, track_running_stats=True)
      (2): ReLU()
      (3): Conv2d(32, 64, kernel_size=(3, 3), stride=(1, 1))
      (4): BatchNorm2d(64, eps=1e-05, momentum=0.1, affine=True, track_running_stats=True)
      (5): ReLU()
      (6): Conv2d(64, 64, kernel_size=(3, 3), stride=(1, 1))
      (7): BatchNorm2d(64, eps=1e-05, momentum=0.1, affine=True, track_running_stats=True)
      (8): ReLU()
      (9): MaxPool2d(kernel_size=2, stride=2, padding=0, dilation=1, ceil_mode=False)
    )
    (linear_encoder): Sequential(
      (0): Dropout(p=0.2, inplace=False)
      (1): Linear(in_features=768, out_features=1, bias=True)
      (2): LeakyReLU(negative_slope=0.01)
    )
  )
  (quantizer_layer): QuantizerLayer()
  (decoder_layer): DecoderLayer(
    (linear_decoder): Sequential(
      (0): Linear(in_features=1, out_features=100, bias=True)
      (1): LeakyReLU(negative_slope=0.01)
    )
    (out_layer): Sequential(
      (0): Linear(in_features=100, out_features=100, bias=True)
    )
  )
)
Number of parameters: 182400
LinearQuantizer(
  (encoder_layer): Linear(in_features=100, out_features=1, bias=True)
  (quantizer_layer): QuantizerLayer()
  (decoder_layer): Linear(in_features=1, out_features=100, bias=True)
)
Number of parameters: 304
  0%|          | 0/500 [00:00<?, ?it/s]
 0.001 -> 0.001

Epoch: 0 	Training Loss: 0.0003385838 	Validation Loss: 0.0014151745
Validation loss same/decreased (inf --> 0.0014151745)... saving model.
  0%|          | 1/500 [00:11<1:34:55, 11.41s/it]
 0.001 -> 0.001

Epoch: 1 	Training Loss: 0.0003380531 	Validation Loss: 0.0014128657
…
 'Q_bits': 1,
 'batch_size': 512,
 'epoch_echo': True,
 'epoch_val': 100,
 'epochs': 500,
 'lr': 0.001,
 'mc_runs': 1000000,
 'momentum': 0.9,
 'overall_bits': 1,
 'snr_dB': -5,
 'train_test_split': 0.8,
 'train_val_split': 0.8}
Achievable Rate (bps/Hz) using RIS phase shifts with Transmit power SNR -5 dB:
optimum:  12.528217315673828
AQE net:  6.215536117553711
lin Q:    5.928403377532959
random:   5.522480487823486
-------------------------------------------------------------------------------------------------------


AutoQEncoder(
  (encoder_layer): EncoderLayer(
    (cnn_theta): Sequential(
      (0): Conv2d(1, 32, kernel_size=(5, 5), stride=(1, 1), padding=(1, 1), padding_mode=circular)
      (1): BatchNorm2d(32, eps=1e-05, momentum=0.1, affine=True, track_running_stats=True)
      (2): ReLU()
      (3): Conv2d(32, 64, kernel_size=(3, 3), stride=(1, 1))
      (4): BatchNorm2d(64, eps=1e-05, momentum=0.1, affine=True, track_running_stats=True)
      (5): ReLU()
      (6): Conv2d(64, 64, kernel_size=(3, 3), stride=(1, 1))
      (7): BatchNorm2d(64, eps=1e-05, momentum=0.1, affine=True, track_running_stats=True)
      (8): ReLU()
      (9): MaxPool2d(kernel_size=2, stride=2, padding=0, dilation=1, ceil_mode=False)
    )
    (cnn_hra): Sequential(
      (0): Conv2d(2, 32, kernel_size=(5, 5), stride=(1, 1), padding=(1, 1), padding_mode=circular)
      (1): BatchNorm2d(32, eps=1e-05, momentum=0.1, affine=True, track_running_stats=True)
      (2): ReLU()
      (3): Conv2d(32, 64, kernel_size=(3, 3), stride=(1, 1))
      (4): BatchNorm2d(64, eps=1e-05, momentum=0.1, affine=True, track_running_stats=True)
      (5): ReLU()
      (6): Conv2d(64, 64, kernel_size=(3, 3), stride=(1, 1))
      (7): BatchNorm2d(64, eps=1e-05, momentum=0.1, affine=True, track_running_stats=True)
      (8): ReLU()
      (9): MaxPool2d(kernel_size=2, stride=2, padding=0, dilation=1, ceil_mode=False)
    )
    (cnn_hur): Sequential(
      (0): Conv2d(2, 32, kernel_size=(5, 5), stride=(1, 1), padding=(1, 1), padding_mode=circular)
      (1): BatchNorm2d(32, eps=1e-05, momentum=0.1, affine=True, track_running_stats=True)
      (2): ReLU()
      (3): Conv2d(32, 64, kernel_size=(3, 3), stride=(1, 1))
      (4): BatchNorm2d(64, eps=1e-05, momentum=0.1, affine=True, track_running_stats=True)
      (5): ReLU()
      (6): Conv2d(64, 64, kernel_size=(3, 3), stride=(1, 1))
      (7): BatchNorm2d(64, eps=1e-05, momentum=0.1, affine=True, track_running_stats=True)
      (8): ReLU()
      (9): MaxPool2d(kernel_size=2, stride=2, padding=0, dilation=1, ceil_mode=False)
    )
    (linear_encoder): Sequential(
      (0): Dropout(p=0.2, inplace=False)
      (1): Linear(in_features=768, out_features=2, bias=True)
      (2): LeakyReLU(negative_slope=0.01)
    )
  )
  (quantizer_layer): QuantizerLayer()
  (decoder_layer): DecoderLayer(
    (linear_decoder): Sequential(
      (0): Linear(in_features=2, out_features=100, bias=True)
      (1): LeakyReLU(negative_slope=0.01)
    )
    (out_layer): Sequential(
      (0): Linear(in_features=100, out_features=100, bias=True)
    )
  )
)
Number of parameters: 183269
LinearQuantizer(
  (encoder_layer): Linear(in_features=100, out_features=2, bias=True)
  (quantizer_layer): QuantizerLayer()
  (decoder_layer): Linear(in_features=2, out_features=100, bias=True)
)
Number of parameters: 505
  0%|          | 0/500 [00:00<?, ?it/s]
 0.001 -> 0.001

Epoch: 0 	Training Loss: 0.0003321208 	Validation Loss: 0.0013903264
Validation loss same/decreased (inf --> 0.0013903264)... saving model.
  0%|          | 1/500 [00:09<1:17:43,  9.35s/it]
 0.001 -> 0.001

Epoch: 1 	Training Loss: 0.0003300528 	Validation Loss: 0.0013878257
…
 'Q_bits': 1,
 'batch_size': 512,
 'epoch_echo': True,
 'epoch_val': 100,
 'epochs': 500,
 'lr': 0.001,
 'mc_runs': 1000000,
 'momentum': 0.9,
 'overall_bits': 2,
 'snr_dB': -5,
 'train_test_split': 0.8,
 'train_val_split': 0.8}
Achievable Rate (bps/Hz) using RIS phase shifts with Transmit power SNR -5 dB:
optimum:  12.528217315673828
AQE net:  6.8267340660095215
lin Q:    5.991662502288818
random:   5.525649070739746
-------------------------------------------------------------------------------------------------------


AutoQEncoder(
  (encoder_layer): EncoderLayer(
    (cnn_theta): Sequential(
      (0): Conv2d(1, 32, kernel_size=(5, 5), stride=(1, 1), padding=(1, 1), padding_mode=circular)
      (1): BatchNorm2d(32, eps=1e-05, momentum=0.1, affine=True, track_running_stats=True)
      (2): ReLU()
      (3): Conv2d(32, 64, kernel_size=(3, 3), stride=(1, 1))
      (4): BatchNorm2d(64, eps=1e-05, momentum=0.1, affine=True, track_running_stats=True)
      (5): ReLU()
      (6): Conv2d(64, 64, kernel_size=(3, 3), stride=(1, 1))
      (7): BatchNorm2d(64, eps=1e-05, momentum=0.1, affine=True, track_running_stats=True)
      (8): ReLU()
      (9): MaxPool2d(kernel_size=2, stride=2, padding=0, dilation=1, ceil_mode=False)
    )
    (cnn_hra): Sequential(
      (0): Conv2d(2, 32, kernel_size=(5, 5), stride=(1, 1), padding=(1, 1), padding_mode=circular)
      (1): BatchNorm2d(32, eps=1e-05, momentum=0.1, affine=True, track_running_stats=True)
      (2): ReLU()
      (3): Conv2d(32, 64, kernel_size=(3, 3), stride=(1, 1))
      (4): BatchNorm2d(64, eps=1e-05, momentum=0.1, affine=True, track_running_stats=True)
      (5): ReLU()
      (6): Conv2d(64, 64, kernel_size=(3, 3), stride=(1, 1))
      (7): BatchNorm2d(64, eps=1e-05, momentum=0.1, affine=True, track_running_stats=True)
      (8): ReLU()
      (9): MaxPool2d(kernel_size=2, stride=2, padding=0, dilation=1, ceil_mode=False)
    )
    (cnn_hur): Sequential(
      (0): Conv2d(2, 32, kernel_size=(5, 5), stride=(1, 1), padding=(1, 1), padding_mode=circular)
      (1): BatchNorm2d(32, eps=1e-05, momentum=0.1, affine=True, track_running_stats=True)
      (2): ReLU()
      (3): Conv2d(32, 64, kernel_size=(3, 3), stride=(1, 1))
      (4): BatchNorm2d(64, eps=1e-05, momentum=0.1, affine=True, track_running_stats=True)
      (5): ReLU()
      (6): Conv2d(64, 64, kernel_size=(3, 3), stride=(1, 1))
      (7): BatchNorm2d(64, eps=1e-05, momentum=0.1, affine=True, track_running_stats=True)
      (8): ReLU()
      (9): MaxPool2d(kernel_size=2, stride=2, padding=0, dilation=1, ceil_mode=False)
    )
    (linear_encoder): Sequential(
      (0): Dropout(p=0.2, inplace=False)
      (1): Linear(in_features=768, out_features=4, bias=True)
      (2): LeakyReLU(negative_slope=0.01)
    )
  )
  (quantizer_layer): QuantizerLayer()
  (decoder_layer): DecoderLayer(
    (linear_decoder): Sequential(
      (0): Linear(in_features=4, out_features=100, bias=True)
      (1): LeakyReLU(negative_slope=0.01)
    )
    (out_layer): Sequential(
      (0): Linear(in_features=100, out_features=100, bias=True)
    )
  )
)
Number of parameters: 185007
LinearQuantizer(
  (encoder_layer): Linear(in_features=100, out_features=4, bias=True)
  (quantizer_layer): QuantizerLayer()
  (decoder_layer): Linear(in_features=4, out_features=100, bias=True)
)
Number of parameters: 907
  0%|          | 0/500 [00:00<?, ?it/s]
 0.001 -> 0.001

Epoch: 0 	Training Loss: 0.0003228040 	Validation Loss: 0.0013572379
Validation loss same/decreased (inf --> 0.0013572379)... saving model.
  0%|          | 1/500 [00:09<1:17:10,  9.28s/it]
 0.001 -> 0.001

Epoch: 1 	Training Loss: 0.0003198126 	Validation Loss: 0.0013483176
…
 'Q_bits': 1,
 'batch_size': 512,
 'epoch_echo': True,
 'epoch_val': 100,
 'epochs': 500,
 'lr': 0.001,
 'mc_runs': 1000000,
 'momentum': 0.9,
 'overall_bits': 4,
 'snr_dB': -5,
 'train_test_split': 0.8,
 'train_val_split': 0.8}
Achievable Rate (bps/Hz) using RIS phase shifts with Transmit power SNR -5 dB:
optimum:  12.528217315673828
AQE net:  7.851078510284424
lin Q:    6.456993579864502
random:   5.518869876861572
-------------------------------------------------------------------------------------------------------


AutoQEncoder(
  (encoder_layer): EncoderLayer(
    (cnn_theta): Sequential(
      (0): Conv2d(1, 32, kernel_size=(5, 5), stride=(1, 1), padding=(1, 1), padding_mode=circular)
      (1): BatchNorm2d(32, eps=1e-05, momentum=0.1, affine=True, track_running_stats=True)
      (2): ReLU()
      (3): Conv2d(32, 64, kernel_size=(3, 3), stride=(1, 1))
      (4): BatchNorm2d(64, eps=1e-05, momentum=0.1, affine=True, track_running_stats=True)
      (5): ReLU()
      (6): Conv2d(64, 64, kernel_size=(3, 3), stride=(1, 1))
      (7): BatchNorm2d(64, eps=1e-05, momentum=0.1, affine=True, track_running_stats=True)
      (8): ReLU()
      (9): MaxPool2d(kernel_size=2, stride=2, padding=0, dilation=1, ceil_mode=False)
    )
    (cnn_hra): Sequential(
      (0): Conv2d(2, 32, kernel_size=(5, 5), stride=(1, 1), padding=(1, 1), padding_mode=circular)
      (1): BatchNorm2d(32, eps=1e-05, momentum=0.1, affine=True, track_running_stats=True)
      (2): ReLU()
      (3): Conv2d(32, 64, kernel_size=(3, 3), stride=(1, 1))
      (4): BatchNorm2d(64, eps=1e-05, momentum=0.1, affine=True, track_running_stats=True)
      (5): ReLU()
      (6): Conv2d(64, 64, kernel_size=(3, 3), stride=(1, 1))
      (7): BatchNorm2d(64, eps=1e-05, momentum=0.1, affine=True, track_running_stats=True)
      (8): ReLU()
      (9): MaxPool2d(kernel_size=2, stride=2, padding=0, dilation=1, ceil_mode=False)
    )
    (cnn_hur): Sequential(
      (0): Conv2d(2, 32, kernel_size=(5, 5), stride=(1, 1), padding=(1, 1), padding_mode=circular)
      (1): BatchNorm2d(32, eps=1e-05, momentum=0.1, affine=True, track_running_stats=True)
      (2): ReLU()
      (3): Conv2d(32, 64, kernel_size=(3, 3), stride=(1, 1))
      (4): BatchNorm2d(64, eps=1e-05, momentum=0.1, affine=True, track_running_stats=True)
      (5): ReLU()
      (6): Conv2d(64, 64, kernel_size=(3, 3), stride=(1, 1))
      (7): BatchNorm2d(64, eps=1e-05, momentum=0.1, affine=True, track_running_stats=True)
      (8): ReLU()
      (9): MaxPool2d(kernel_size=2, stride=2, padding=0, dilation=1, ceil_mode=False)
    )
    (linear_encoder): Sequential(
      (0): Dropout(p=0.2, inplace=False)
      (1): Linear(in_features=768, out_features=8, bias=True)
      (2): LeakyReLU(negative_slope=0.01)
    )
  )
  (quantizer_layer): QuantizerLayer()
  (decoder_layer): DecoderLayer(
    (linear_decoder): Sequential(
      (0): Linear(in_features=8, out_features=100, bias=True)
      (1): LeakyReLU(negative_slope=0.01)
    )
    (out_layer): Sequential(
      (0): Linear(in_features=100, out_features=100, bias=True)
    )
  )
)
Number of parameters: 188483
LinearQuantizer(
  (encoder_layer): Linear(in_features=100, out_features=8, bias=True)
  (quantizer_layer): QuantizerLayer()
  (decoder_layer): Linear(in_features=8, out_features=100, bias=True)
)
Number of parameters: 1711
  0%|          | 0/500 [00:00<?, ?it/s]
 0.001 -> 0.001

Epoch: 0 	Training Loss: 0.0003164268 	Validation Loss: 0.0013116265
Validation loss same/decreased (inf --> 0.0013116265)... saving model.
  0%|          | 1/500 [00:09<1:17:15,  9.29s/it]
 0.001 -> 0.001

Epoch: 1 	Training Loss: 0.0003118191 	Validation Loss: 0.0012943191
…
 'Q_bits': 1,
 'batch_size': 512,
 'epoch_echo': True,
 'epoch_val': 100,
 'epochs': 500,
 'lr': 0.001,
 'mc_runs': 1000000,
 'momentum': 0.9,
 'overall_bits': 8,
 'snr_dB': -5,
 'train_test_split': 0.8,
 'train_val_split': 0.8}
Achievable Rate (bps/Hz) using RIS phase shifts with Transmit power SNR -5 dB:
optimum:  12.528217315673828
AQE net:  8.25081729888916
lin Q:    6.976847171783447
random:   5.525946140289307
-------------------------------------------------------------------------------------------------------


AutoQEncoder(
  (encoder_layer): EncoderLayer(
    (cnn_theta): Sequential(
      (0): Conv2d(1, 32, kernel_size=(5, 5), stride=(1, 1), padding=(1, 1), padding_mode=circular)
      (1): BatchNorm2d(32, eps=1e-05, momentum=0.1, affine=True, track_running_stats=True)
      (2): ReLU()
      (3): Conv2d(32, 64, kernel_size=(3, 3), stride=(1, 1))
      (4): BatchNorm2d(64, eps=1e-05, momentum=0.1, affine=True, track_running_stats=True)
      (5): ReLU()
      (6): Conv2d(64, 64, kernel_size=(3, 3), stride=(1, 1))
      (7): BatchNorm2d(64, eps=1e-05, momentum=0.1, affine=True, track_running_stats=True)
      (8): ReLU()
      (9): MaxPool2d(kernel_size=2, stride=2, padding=0, dilation=1, ceil_mode=False)
    )
    (cnn_hra): Sequential(
      (0): Conv2d(2, 32, kernel_size=(5, 5), stride=(1, 1), padding=(1, 1), padding_mode=circular)
      (1): BatchNorm2d(32, eps=1e-05, momentum=0.1, affine=True, track_running_stats=True)
      (2): ReLU()
      (3): Conv2d(32, 64, kernel_size=(3, 3), stride=(1, 1))
      (4): BatchNorm2d(64, eps=1e-05, momentum=0.1, affine=True, track_running_stats=True)
      (5): ReLU()
      (6): Conv2d(64, 64, kernel_size=(3, 3), stride=(1, 1))
      (7): BatchNorm2d(64, eps=1e-05, momentum=0.1, affine=True, track_running_stats=True)
      (8): ReLU()
      (9): MaxPool2d(kernel_size=2, stride=2, padding=0, dilation=1, ceil_mode=False)
    )
    (cnn_hur): Sequential(
      (0): Conv2d(2, 32, kernel_size=(5, 5), stride=(1, 1), padding=(1, 1), padding_mode=circular)
      (1): BatchNorm2d(32, eps=1e-05, momentum=0.1, affine=True, track_running_stats=True)
      (2): ReLU()
      (3): Conv2d(32, 64, kernel_size=(3, 3), stride=(1, 1))
      (4): BatchNorm2d(64, eps=1e-05, momentum=0.1, affine=True, track_running_stats=True)
      (5): ReLU()
      (6): Conv2d(64, 64, kernel_size=(3, 3), stride=(1, 1))
      (7): BatchNorm2d(64, eps=1e-05, momentum=0.1, affine=True, track_running_stats=True)
      (8): ReLU()
      (9): MaxPool2d(kernel_size=2, stride=2, padding=0, dilation=1, ceil_mode=False)
    )
    (linear_encoder): Sequential(
      (0): Dropout(p=0.2, inplace=False)
      (1): Linear(in_features=768, out_features=16, bias=True)
      (2): LeakyReLU(negative_slope=0.01)
    )
  )
  (quantizer_layer): QuantizerLayer()
  (decoder_layer): DecoderLayer(
    (linear_decoder): Sequential(
      (0): Linear(in_features=16, out_features=100, bias=True)
      (1): LeakyReLU(negative_slope=0.01)
    )
    (out_layer): Sequential(
      (0): Linear(in_features=100, out_features=100, bias=True)
    )
  )
)
Number of parameters: 195435
LinearQuantizer(
  (encoder_layer): Linear(in_features=100, out_features=16, bias=True)
  (quantizer_layer): QuantizerLayer()
  (decoder_layer): Linear(in_features=16, out_features=100, bias=True)
)
Number of parameters: 3319
  0%|          | 0/500 [00:00<?, ?it/s]
 0.001 -> 0.001

Epoch: 0 	Training Loss: 0.0002923596 	Validation Loss: 0.0012191987
Validation loss same/decreased (inf --> 0.0012191987)... saving model.
  0%|          | 1/500 [00:09<1:17:21,  9.30s/it]
 0.001 -> 0.001

Epoch: 1 	Training Loss: 0.0002895971 	Validation Loss: 0.0012075352
…
 'Q_bits': 1,
 'batch_size': 512,
 'epoch_echo': True,
 'epoch_val': 100,
 'epochs': 500,
 'lr': 0.001,
 'mc_runs': 1000000,
 'momentum': 0.9,
 'overall_bits': 16,
 'snr_dB': -5,
 'train_test_split': 0.8,
 'train_val_split': 0.8}
Achievable Rate (bps/Hz) using RIS phase shifts with Transmit power SNR -5 dB:
optimum:  12.528217315673828
AQE net:  8.514384269714355
lin Q:    7.802167892456055
random:   5.520096302032471
-------------------------------------------------------------------------------------------------------


AutoQEncoder(
  (encoder_layer): EncoderLayer(
    (cnn_theta): Sequential(
      (0): Conv2d(1, 32, kernel_size=(5, 5), stride=(1, 1), padding=(1, 1), padding_mode=circular)
      (1): BatchNorm2d(32, eps=1e-05, momentum=0.1, affine=True, track_running_stats=True)
      (2): ReLU()
      (3): Conv2d(32, 64, kernel_size=(3, 3), stride=(1, 1))
      (4): BatchNorm2d(64, eps=1e-05, momentum=0.1, affine=True, track_running_stats=True)
      (5): ReLU()
      (6): Conv2d(64, 64, kernel_size=(3, 3), stride=(1, 1))
      (7): BatchNorm2d(64, eps=1e-05, momentum=0.1, affine=True, track_running_stats=True)
      (8): ReLU()
      (9): MaxPool2d(kernel_size=2, stride=2, padding=0, dilation=1, ceil_mode=False)
    )
    (cnn_hra): Sequential(
      (0): Conv2d(2, 32, kernel_size=(5, 5), stride=(1, 1), padding=(1, 1), padding_mode=circular)
      (1): BatchNorm2d(32, eps=1e-05, momentum=0.1, affine=True, track_running_stats=True)
      (2): ReLU()
      (3): Conv2d(32, 64, kernel_size=(3, 3), stride=(1, 1))
      (4): BatchNorm2d(64, eps=1e-05, momentum=0.1, affine=True, track_running_stats=True)
      (5): ReLU()
      (6): Conv2d(64, 64, kernel_size=(3, 3), stride=(1, 1))
      (7): BatchNorm2d(64, eps=1e-05, momentum=0.1, affine=True, track_running_stats=True)
      (8): ReLU()
      (9): MaxPool2d(kernel_size=2, stride=2, padding=0, dilation=1, ceil_mode=False)
    )
    (cnn_hur): Sequential(
      (0): Conv2d(2, 32, kernel_size=(5, 5), stride=(1, 1), padding=(1, 1), padding_mode=circular)
      (1): BatchNorm2d(32, eps=1e-05, momentum=0.1, affine=True, track_running_stats=True)
      (2): ReLU()
      (3): Conv2d(32, 64, kernel_size=(3, 3), stride=(1, 1))
      (4): BatchNorm2d(64, eps=1e-05, momentum=0.1, affine=True, track_running_stats=True)
      (5): ReLU()
      (6): Conv2d(64, 64, kernel_size=(3, 3), stride=(1, 1))
      (7): BatchNorm2d(64, eps=1e-05, momentum=0.1, affine=True, track_running_stats=True)
      (8): ReLU()
      (9): MaxPool2d(kernel_size=2, stride=2, padding=0, dilation=1, ceil_mode=False)
    )
    (linear_encoder): Sequential(
      (0): Dropout(p=0.2, inplace=False)
      (1): Linear(in_features=768, out_features=32, bias=True)
      (2): LeakyReLU(negative_slope=0.01)
    )
  )
  (quantizer_layer): QuantizerLayer()
  (decoder_layer): DecoderLayer(
    (linear_decoder): Sequential(
      (0): Linear(in_features=32, out_features=100, bias=True)
      (1): LeakyReLU(negative_slope=0.01)
    )
    (out_layer): Sequential(
      (0): Linear(in_features=100, out_features=100, bias=True)
    )
  )
)
Number of parameters: 209339
LinearQuantizer(
  (encoder_layer): Linear(in_features=100, out_features=32, bias=True)
  (quantizer_layer): QuantizerLayer()
  (decoder_layer): Linear(in_features=32, out_features=100, bias=True)
)
Number of parameters: 6535
  0%|          | 0/500 [00:00<?, ?it/s]
 0.001 -> 0.001

Epoch: 0 	Training Loss: 0.0002629297 	Validation Loss: 0.0011013667
Validation loss same/decreased (inf --> 0.0011013667)... saving model.
  0%|          | 1/500 [00:09<1:17:16,  9.29s/it]
 0.001 -> 0.001

Epoch: 1 	Training Loss: 0.0002563546 	Validation Loss: 0.0010772040
…
 'Q_bits': 1,
 'batch_size': 512,
 'epoch_echo': True,
 'epoch_val': 100,
 'epochs': 500,
 'lr': 0.001,
 'mc_runs': 1000000,
 'momentum': 0.9,
 'overall_bits': 32,
 'snr_dB': -5,
 'train_test_split': 0.8,
 'train_val_split': 0.8}
Achievable Rate (bps/Hz) using RIS phase shifts with Transmit power SNR -5 dB:
optimum:  12.528217315673828
AQE net:  9.213991165161133
lin Q:    8.780793190002441
random:   5.53269100189209
-------------------------------------------------------------------------------------------------------


AutoQEncoder(
  (encoder_layer): EncoderLayer(
    (cnn_theta): Sequential(
      (0): Conv2d(1, 32, kernel_size=(5, 5), stride=(1, 1), padding=(1, 1), padding_mode=circular)
      (1): BatchNorm2d(32, eps=1e-05, momentum=0.1, affine=True, track_running_stats=True)
      (2): ReLU()
      (3): Conv2d(32, 64, kernel_size=(3, 3), stride=(1, 1))
      (4): BatchNorm2d(64, eps=1e-05, momentum=0.1, affine=True, track_running_stats=True)
      (5): ReLU()
      (6): Conv2d(64, 64, kernel_size=(3, 3), stride=(1, 1))
      (7): BatchNorm2d(64, eps=1e-05, momentum=0.1, affine=True, track_running_stats=True)
      (8): ReLU()
      (9): MaxPool2d(kernel_size=2, stride=2, padding=0, dilation=1, ceil_mode=False)
    )
    (cnn_hra): Sequential(
      (0): Conv2d(2, 32, kernel_size=(5, 5), stride=(1, 1), padding=(1, 1), padding_mode=circular)
      (1): BatchNorm2d(32, eps=1e-05, momentum=0.1, affine=True, track_running_stats=True)
      (2): ReLU()
      (3): Conv2d(32, 64, kernel_size=(3, 3), stride=(1, 1))
      (4): BatchNorm2d(64, eps=1e-05, momentum=0.1, affine=True, track_running_stats=True)
      (5): ReLU()
      (6): Conv2d(64, 64, kernel_size=(3, 3), stride=(1, 1))
      (7): BatchNorm2d(64, eps=1e-05, momentum=0.1, affine=True, track_running_stats=True)
      (8): ReLU()
      (9): MaxPool2d(kernel_size=2, stride=2, padding=0, dilation=1, ceil_mode=False)
    )
    (cnn_hur): Sequential(
      (0): Conv2d(2, 32, kernel_size=(5, 5), stride=(1, 1), padding=(1, 1), padding_mode=circular)
      (1): BatchNorm2d(32, eps=1e-05, momentum=0.1, affine=True, track_running_stats=True)
      (2): ReLU()
      (3): Conv2d(32, 64, kernel_size=(3, 3), stride=(1, 1))
      (4): BatchNorm2d(64, eps=1e-05, momentum=0.1, affine=True, track_running_stats=True)
      (5): ReLU()
      (6): Conv2d(64, 64, kernel_size=(3, 3), stride=(1, 1))
      (7): BatchNorm2d(64, eps=1e-05, momentum=0.1, affine=True, track_running_stats=True)
      (8): ReLU()
      (9): MaxPool2d(kernel_size=2, stride=2, padding=0, dilation=1, ceil_mode=False)
    )
    (linear_encoder): Sequential(
      (0): Dropout(p=0.2, inplace=False)
      (1): Linear(in_features=768, out_features=64, bias=True)
      (2): LeakyReLU(negative_slope=0.01)
    )
  )
  (quantizer_layer): QuantizerLayer()
  (decoder_layer): DecoderLayer(
    (linear_decoder): Sequential(
      (0): Linear(in_features=64, out_features=100, bias=True)
      (1): LeakyReLU(negative_slope=0.01)
    )
    (out_layer): Sequential(
      (0): Linear(in_features=100, out_features=100, bias=True)
    )
  )
)
Number of parameters: 237147
LinearQuantizer(
  (encoder_layer): Linear(in_features=100, out_features=64, bias=True)
  (quantizer_layer): QuantizerLayer()
  (decoder_layer): Linear(in_features=64, out_features=100, bias=True)
)
Number of parameters: 12967
  0%|          | 0/500 [00:00<?, ?it/s]
 0.001 -> 0.001

Epoch: 0 	Training Loss: 0.0002368303 	Validation Loss: 0.0009518009
Validation loss same/decreased (inf --> 0.0009518009)... saving model.
  0%|          | 1/500 [00:09<1:17:04,  9.27s/it]
 0.001 -> 0.001

Epoch: 1 	Training Loss: 0.0002279778 	Validation Loss: 0.0009067151
…
 'Q_bits': 1,
 'batch_size': 512,
 'epoch_echo': True,
 'epoch_val': 100,
 'epochs': 500,
 'lr': 0.001,
 'mc_runs': 1000000,
 'momentum': 0.9,
 'overall_bits': 64,
 'snr_dB': -5,
 'train_test_split': 0.8,
 'train_val_split': 0.8}
Achievable Rate (bps/Hz) using RIS phase shifts with Transmit power SNR -5 dB:
optimum:  12.528217315673828
AQE net:  9.978851318359375
lin Q:    10.15543270111084
random:   5.519187927246094
-------------------------------------------------------------------------------------------------------


AutoQEncoder(
  (encoder_layer): EncoderLayer(
    (cnn_theta): Sequential(
      (0): Conv2d(1, 32, kernel_size=(5, 5), stride=(1, 1), padding=(1, 1), padding_mode=circular)
      (1): BatchNorm2d(32, eps=1e-05, momentum=0.1, affine=True, track_running_stats=True)
      (2): ReLU()
      (3): Conv2d(32, 64, kernel_size=(3, 3), stride=(1, 1))
      (4): BatchNorm2d(64, eps=1e-05, momentum=0.1, affine=True, track_running_stats=True)
      (5): ReLU()
      (6): Conv2d(64, 64, kernel_size=(3, 3), stride=(1, 1))
      (7): BatchNorm2d(64, eps=1e-05, momentum=0.1, affine=True, track_running_stats=True)
      (8): ReLU()
      (9): MaxPool2d(kernel_size=2, stride=2, padding=0, dilation=1, ceil_mode=False)
    )
    (cnn_hra): Sequential(
      (0): Conv2d(2, 32, kernel_size=(5, 5), stride=(1, 1), padding=(1, 1), padding_mode=circular)
      (1): BatchNorm2d(32, eps=1e-05, momentum=0.1, affine=True, track_running_stats=True)
      (2): ReLU()
      (3): Conv2d(32, 64, kernel_size=(3, 3), stride=(1, 1))
      (4): BatchNorm2d(64, eps=1e-05, momentum=0.1, affine=True, track_running_stats=True)
      (5): ReLU()
      (6): Conv2d(64, 64, kernel_size=(3, 3), stride=(1, 1))
      (7): BatchNorm2d(64, eps=1e-05, momentum=0.1, affine=True, track_running_stats=True)
      (8): ReLU()
      (9): MaxPool2d(kernel_size=2, stride=2, padding=0, dilation=1, ceil_mode=False)
    )
    (cnn_hur): Sequential(
      (0): Conv2d(2, 32, kernel_size=(5, 5), stride=(1, 1), padding=(1, 1), padding_mode=circular)
      (1): BatchNorm2d(32, eps=1e-05, momentum=0.1, affine=True, track_running_stats=True)
      (2): ReLU()
      (3): Conv2d(32, 64, kernel_size=(3, 3), stride=(1, 1))
      (4): BatchNorm2d(64, eps=1e-05, momentum=0.1, affine=True, track_running_stats=True)
      (5): ReLU()
      (6): Conv2d(64, 64, kernel_size=(3, 3), stride=(1, 1))
      (7): BatchNorm2d(64, eps=1e-05, momentum=0.1, affine=True, track_running_stats=True)
      (8): ReLU()
      (9): MaxPool2d(kernel_size=2, stride=2, padding=0, dilation=1, ceil_mode=False)
    )
    (linear_encoder): Sequential(
      (0): Dropout(p=0.2, inplace=False)
      (1): Linear(in_features=768, out_features=128, bias=True)
      (2): LeakyReLU(negative_slope=0.01)
    )
  )
  (quantizer_layer): QuantizerLayer()
  (decoder_layer): DecoderLayer(
    (linear_decoder): Sequential(
      (0): Linear(in_features=128, out_features=100, bias=True)
      (1): LeakyReLU(negative_slope=0.01)
    )
    (out_layer): Sequential(
      (0): Linear(in_features=100, out_features=100, bias=True)
    )
  )
)
Number of parameters: 292763
LinearQuantizer(
  (encoder_layer): Linear(in_features=100, out_features=128, bias=True)
  (quantizer_layer): QuantizerLayer()
  (decoder_layer): Linear(in_features=128, out_features=100, bias=True)
)
Number of parameters: 25831
  0%|          | 0/500 [00:00<?, ?it/s]
 0.001 -> 0.001

Epoch: 0 	Training Loss: 0.0002305418 	Validation Loss: 0.0009182767
Validation loss same/decreased (inf --> 0.0009182767)... saving model.
  0%|          | 1/500 [00:09<1:17:03,  9.27s/it]
 0.001 -> 0.001

Epoch: 1 	Training Loss: 0.0002228804 	Validation Loss: 0.0008798460
…
