…
0:12<00:00, 8395.30it/s] 95%|█████████▌| 95097/100000 [00:12<00:00, 8934.51it/s] 96%|█████████▌| 96125/100000 [00:12<00:00, 9329.21it/s] 97%|█████████▋| 97061/100000 [00:12<00:00, 9198.34it/s] 98%|█████████▊| 97983/100000 [00:13<00:00, 3730.85it/s] 99%|█████████▉| 98821/100000 [00:13<00:00, 4407.80it/s]100%|█████████▉| 99697/100000 [00:13<00:00, 5156.85it/s]100%|██████████| 100000/100000 [00:13<00:00, 7506.75it/s]
------------
Train & Test
------------
AQEnoW Number of parameters: 16535657
AutoQEncoderNoWupdate(
  (encoder_layer): EncoderLayer(
    (linear_encoder): Sequential(
      (0): Linear(in_features=1548, out_features=3968, bias=True)
      (1): ReLU()
      (2): Dropout(p=0.5, inplace=False)
      (3): BatchNorm1d(3968, eps=1e-05, momentum=0.1, affine=True, track_running_stats=True)
      (4): Linear(in_features=3968, out_features=1984, bias=True)
      (5): ReLU()
      (6): Dropout(p=0.5, inplace=False)
      (7): BatchNorm1d(1984, eps=1e-05, momentum=0.1, affine=True, track_running_stats=True)
      (8): Linear(in_features=1984, out_features=992, bias=True)
      (9): ReLU()
      (10): Dropout(p=0.5, inplace=False)
      (11): BatchNorm1d(992, eps=1e-05, momentum=0.1, affine=True, track_running_stats=True)
      (12): Linear(in_features=992, out_features=496, bias=True)
      (13): ReLU()
      (14): Dropout(p=0.5, inplace=False)
      (15): BatchNorm1d(496, eps=1e-05, momentum=0.1, affine=True, track_running_stats=True)
      (16): Linear(in_features=496, out_features=34, bias=True)
    )
  )
  (quantizer_layer): QuantizerLayer()
  (decoder_layer): DecoderLayer(
    (linear_decoder): Sequential(
      (0): Linear(in_features=10, out_features=100, bias=True)
      (1): ReLU()
      (2): Linear(in_features=100, out_features=100, bias=True)
      (3): ReLU()
    )
    (out_layer): Sequential(
      (0): Linear(in_features=100, out_features=100, bias=True)
    )
  )
)
  0%|          | 0/1000 [00:00<?, ?it/s]0.001 -> 0.001
Epoch: 0 	Training Loss: -0.0009444962 	Validation Loss: -0.0041406538 	Best Validation Loss: inf
### Validation loss same/decreased (inf --> -0.0041406538)... saving model. ###
  0%|          | 1/1000 [00:10<2:54:52, 10.50s/it]0.001 -> 0.001
Epoch: 1 	Training Loss: -0.0012283049 	Validation Loss: -0.0048272403 	Best Validation Loss: -0.0041406538
…
 'epoch_patience': 20,
 'epoch_val': 50,
 'epochs': 1000,
 'lr': 0.001,
 'mc_runs': 100000,
 'overall_bits': 10,
 'snr_dB': 40.6,
 'train_test_split': 0.8,
 'train_val_split': 0.8}
Achievable Rate (bps/Hz) using RIS phase shifts with Transmit power SNR 40.60 dB:
optimum:    2.4599132537841797
AQEnoW net:    0.6767085790634155
AQEnoW rand:   0.21568310260772705
-------------------------------------------------------------------------------------------------------


AQEnoW Number of parameters: 16541627
AutoQEncoderNoWupdate(
  (encoder_layer): EncoderLayer(
    (linear_encoder): Sequential(
      (0): Linear(in_features=1548, out_features=3968, bias=True)
      (1): ReLU()
      (2): Dropout(p=0.5, inplace=False)
      (3): BatchNorm1d(3968, eps=1e-05, momentum=0.1, affine=True, track_running_stats=True)
      (4): Linear(in_features=3968, out_features=1984, bias=True)
      (5): ReLU()
      (6): Dropout(p=0.5, inplace=False)
      (7): BatchNorm1d(1984, eps=1e-05, momentum=0.1, affine=True, track_running_stats=True)
      (8): Linear(in_features=1984, out_features=992, bias=True)
      (9): ReLU()
      (10): Dropout(p=0.5, inplace=False)
      (11): BatchNorm1d(992, eps=1e-05, momentum=0.1, affine=True, track_running_stats=True)
      (12): Linear(in_features=992, out_features=496, bias=True)
      (13): ReLU()
      (14): Dropout(p=0.5, inplace=False)
      (15): BatchNorm1d(496, eps=1e-05, momentum=0.1, affine=True, track_running_stats=True)
      (16): Linear(in_features=496, out_features=44, bias=True)
    )
  )
  (quantizer_layer): QuantizerLayer()
  (decoder_layer): DecoderLayer(
    (linear_decoder): Sequential(
      (0): Linear(in_features=20, out_features=100, bias=True)
      (1): ReLU()
      (2): Linear(in_features=100, out_features=100, bias=True)
      (3): ReLU()
    )
    (out_layer): Sequential(
      (0): Linear(in_features=100, out_features=100, bias=True)
    )
  )
)
  0%|          | 0/1000 [00:00<?, ?it/s]0.001 -> 0.001
Epoch: 0 	Training Loss: -0.0009460272 	Validation Loss: -0.0043182196 	Best Validation Loss: inf
### Validation loss same/decreased (inf --> -0.0043182196)... saving model. ###
  0%|          | 1/1000 [00:09<2:42:52,  9.78s/it]0.001 -> 0.001
Epoch: 1 	Training Loss: -0.0012534942 	Validation Loss: -0.0054346610 	Best Validation Loss: -0.0043182196
…
 'epoch_patience': 20,
 'epoch_val': 50,
 'epochs': 1000,
 'lr': 0.001,
 'mc_runs': 100000,
 'overall_bits': 20,
 'snr_dB': 40.6,
 'train_test_split': 0.8,
 'train_val_split': 0.8}
Achievable Rate (bps/Hz) using RIS phase shifts with Transmit power SNR 40.60 dB:
optimum:    2.4599132537841797
AQEnoW net:    0.9196471571922302
AQEnoW rand:   0.21226957440376282
-------------------------------------------------------------------------------------------------------


AQEnoW Number of parameters: 16547597
AutoQEncoderNoWupdate(
  (encoder_layer): EncoderLayer(
    (linear_encoder): Sequential(
      (0): Linear(in_features=1548, out_features=3968, bias=True)
      (1): ReLU()
      (2): Dropout(p=0.5, inplace=False)
      (3): BatchNorm1d(3968, eps=1e-05, momentum=0.1, affine=True, track_running_stats=True)
      (4): Linear(in_features=3968, out_features=1984, bias=True)
      (5): ReLU()
      (6): Dropout(p=0.5, inplace=False)
      (7): BatchNorm1d(1984, eps=1e-05, momentum=0.1, affine=True, track_running_stats=True)
      (8): Linear(in_features=1984, out_features=992, bias=True)
      (9): ReLU()
      (10): Dropout(p=0.5, inplace=False)
      (11): BatchNorm1d(992, eps=1e-05, momentum=0.1, affine=True, track_running_stats=True)
      (12): Linear(in_features=992, out_features=496, bias=True)
      (13): ReLU()
      (14): Dropout(p=0.5, inplace=False)
      (15): BatchNorm1d(496, eps=1e-05, momentum=0.1, affine=True, track_running_stats=True)
      (16): Linear(in_features=496, out_features=54, bias=True)
    )
  )
  (quantizer_layer): QuantizerLayer()
  (decoder_layer): DecoderLayer(
    (linear_decoder): Sequential(
      (0): Linear(in_features=30, out_features=100, bias=True)
      (1): ReLU()
      (2): Linear(in_features=100, out_features=100, bias=True)
      (3): ReLU()
    )
    (out_layer): Sequential(
      (0): Linear(in_features=100, out_features=100, bias=True)
    )
  )
)
  0%|          | 0/1000 [00:00<?, ?it/s]0.001 -> 0.001
Epoch: 0 	Training Loss: -0.0008659155 	Validation Loss: -0.0040289948 	Best Validation Loss: inf
### Validation loss same/decreased (inf --> -0.0040289948)... saving model. ###
  0%|          | 1/1000 [00:10<2:47:29, 10.06s/it]0.001 -> 0.001
Epoch: 1 	Training Loss: -0.0012262188 	Validation Loss: -0.0053124831 	Best Validation Loss: -0.0040289948
…
 'epoch_patience': 20,
 'epoch_val': 50,
 'epochs': 1000,
 'lr': 0.001,
 'mc_runs': 100000,
 'overall_bits': 30,
 'snr_dB': 40.6,
 'train_test_split': 0.8,
 'train_val_split': 0.8}
Achievable Rate (bps/Hz) using RIS phase shifts with Transmit power SNR 40.60 dB:
optimum:    2.4599132537841797
AQEnoW net:    1.0253145694732666
AQEnoW rand:   0.2134251892566681
-------------------------------------------------------------------------------------------------------


AQEnoW Number of parameters: 16553567
AutoQEncoderNoWupdate(
  (encoder_layer): EncoderLayer(
    (linear_encoder): Sequential(
      (0): Linear(in_features=1548, out_features=3968, bias=True)
      (1): ReLU()
      (2): Dropout(p=0.5, inplace=False)
      (3): BatchNorm1d(3968, eps=1e-05, momentum=0.1, affine=True, track_running_stats=True)
      (4): Linear(in_features=3968, out_features=1984, bias=True)
      (5): ReLU()
      (6): Dropout(p=0.5, inplace=False)
      (7): BatchNorm1d(1984, eps=1e-05, momentum=0.1, affine=True, track_running_stats=True)
      (8): Linear(in_features=1984, out_features=992, bias=True)
      (9): ReLU()
      (10): Dropout(p=0.5, inplace=False)
      (11): BatchNorm1d(992, eps=1e-05, momentum=0.1, affine=True, track_running_stats=True)
      (12): Linear(in_features=992, out_features=496, bias=True)
      (13): ReLU()
      (14): Dropout(p=0.5, inplace=False)
      (15): BatchNorm1d(496, eps=1e-05, momentum=0.1, affine=True, track_running_stats=True)
      (16): Linear(in_features=496, out_features=64, bias=True)
    )
  )
  (quantizer_layer): QuantizerLayer()
  (decoder_layer): DecoderLayer(
    (linear_decoder): Sequential(
      (0): Linear(in_features=40, out_features=100, bias=True)
      (1): ReLU()
      (2): Linear(in_features=100, out_features=100, bias=True)
      (3): ReLU()
    )
    (out_layer): Sequential(
      (0): Linear(in_features=100, out_features=100, bias=True)
    )
  )
)
  0%|          | 0/1000 [00:00<?, ?it/s]0.001 -> 0.001
Epoch: 0 	Training Loss: -0.0009156135 	Validation Loss: -0.0042834094 	Best Validation Loss: inf
### Validation loss same/decreased (inf --> -0.0042834094)... saving model. ###
  0%|          | 1/1000 [00:09<2:45:33,  9.94s/it]0.001 -> 0.001
Epoch: 1 	Training Loss: -0.0012318520 	Validation Loss: -0.0054836003 	Best Validation Loss: -0.0042834094
…
 'epoch_patience': 20,
 'epoch_val': 50,
 'epochs': 1000,
 'lr': 0.001,
 'mc_runs': 100000,
 'overall_bits': 40,
 'snr_dB': 40.6,
 'train_test_split': 0.8,
 'train_val_split': 0.8}
Achievable Rate (bps/Hz) using RIS phase shifts with Transmit power SNR 40.60 dB:
optimum:    2.4599132537841797
AQEnoW net:    1.1478139162063599
AQEnoW rand:   0.21460144221782684
-------------------------------------------------------------------------------------------------------


AQEnoW Number of parameters: 16559537
AutoQEncoderNoWupdate(
  (encoder_layer): EncoderLayer(
    (linear_encoder): Sequential(
      (0): Linear(in_features=1548, out_features=3968, bias=True)
      (1): ReLU()
      (2): Dropout(p=0.5, inplace=False)
      (3): BatchNorm1d(3968, eps=1e-05, momentum=0.1, affine=True, track_running_stats=True)
      (4): Linear(in_features=3968, out_features=1984, bias=True)
      (5): ReLU()
      (6): Dropout(p=0.5, inplace=False)
      (7): BatchNorm1d(1984, eps=1e-05, momentum=0.1, affine=True, track_running_stats=True)
      (8): Linear(in_features=1984, out_features=992, bias=True)
      (9): ReLU()
      (10): Dropout(p=0.5, inplace=False)
      (11): BatchNorm1d(992, eps=1e-05, momentum=0.1, affine=True, track_running_stats=True)
      (12): Linear(in_features=992, out_features=496, bias=True)
      (13): ReLU()
      (14): Dropout(p=0.5, inplace=False)
      (15): BatchNorm1d(496, eps=1e-05, momentum=0.1, affine=True, track_running_stats=True)
      (16): Linear(in_features=496, out_features=74, bias=True)
    )
  )
  (quantizer_layer): QuantizerLayer()
  (decoder_layer): DecoderLayer(
    (linear_decoder): Sequential(
      (0): Linear(in_features=50, out_features=100, bias=True)
      (1): ReLU()
      (2): Linear(in_features=100, out_features=100, bias=True)
      (3): ReLU()
    )
    (out_layer): Sequential(
      (0): Linear(in_features=100, out_features=100, bias=True)
    )
  )
)
  0%|          | 0/1000 [00:00<?, ?it/s]0.001 -> 0.001
Epoch: 0 	Training Loss: -0.0009373226 	Validation Loss: -0.0042971598 	Best Validation Loss: inf
### Validation loss same/decreased (inf --> -0.0042971598)... saving model. ###
  0%|          | 1/1000 [00:09<2:43:05,  9.80s/it]0.001 -> 0.001
Epoch: 1 	Training Loss: -0.0012178286 	Validation Loss: -0.0056540558 	Best Validation Loss: -0.0042971598
…
 'epoch_patience': 20,
 'epoch_val': 50,
 'epochs': 1000,
 'lr': 0.001,
 'mc_runs': 100000,
 'overall_bits': 50,
 'snr_dB': 40.6,
 'train_test_split': 0.8,
 'train_val_split': 0.8}
Achievable Rate (bps/Hz) using RIS phase shifts with Transmit power SNR 40.60 dB:
optimum:    2.4599132537841797
AQEnoW net:    1.1713629961013794
AQEnoW rand:   0.21590127050876617
-------------------------------------------------------------------------------------------------------


AQEnoW Number of parameters: 16565507
AutoQEncoderNoWupdate(
  (encoder_layer): EncoderLayer(
    (linear_encoder): Sequential(
      (0): Linear(in_features=1548, out_features=3968, bias=True)
      (1): ReLU()
      (2): Dropout(p=0.5, inplace=False)
      (3): BatchNorm1d(3968, eps=1e-05, momentum=0.1, affine=True, track_running_stats=True)
      (4): Linear(in_features=3968, out_features=1984, bias=True)
      (5): ReLU()
      (6): Dropout(p=0.5, inplace=False)
      (7): BatchNorm1d(1984, eps=1e-05, momentum=0.1, affine=True, track_running_stats=True)
      (8): Linear(in_features=1984, out_features=992, bias=True)
      (9): ReLU()
      (10): Dropout(p=0.5, inplace=False)
      (11): BatchNorm1d(992, eps=1e-05, momentum=0.1, affine=True, track_running_stats=True)
      (12): Linear(in_features=992, out_features=496, bias=True)
      (13): ReLU()
      (14): Dropout(p=0.5, inplace=False)
      (15): BatchNorm1d(496, eps=1e-05, momentum=0.1, affine=True, track_running_stats=True)
      (16): Linear(in_features=496, out_features=84, bias=True)
    )
  )
  (quantizer_layer): QuantizerLayer()
  (decoder_layer): DecoderLayer(
    (linear_decoder): Sequential(
      (0): Linear(in_features=60, out_features=100, bias=True)
      (1): ReLU()
      (2): Linear(in_features=100, out_features=100, bias=True)
      (3): ReLU()
    )
    (out_layer): Sequential(
      (0): Linear(in_features=100, out_features=100, bias=True)
    )
  )
)
  0%|          | 0/1000 [00:00<?, ?it/s]0.001 -> 0.001
Epoch: 0 	Training Loss: -0.0009416339 	Validation Loss: -0.0042982648 	Best Validation Loss: inf
### Validation loss same/decreased (inf --> -0.0042982648)... saving model. ###
  0%|          | 1/1000 [00:09<2:43:50,  9.84s/it]0.001 -> 0.001
Epoch: 1 	Training Loss: -0.0012795687 	Validation Loss: -0.0057846314 	Best Validation Loss: -0.0042982648
…
 'epoch_patience': 20,
 'epoch_val': 50,
 'epochs': 1000,
 'lr': 0.001,
 'mc_runs': 100000,
 'overall_bits': 60,
 'snr_dB': 40.6,
 'train_test_split': 0.8,
 'train_val_split': 0.8}
Achievable Rate (bps/Hz) using RIS phase shifts with Transmit power SNR 40.60 dB:
optimum:    2.4599132537841797
AQEnoW net:    1.2413924932479858
AQEnoW rand:   0.21637368202209473
-------------------------------------------------------------------------------------------------------


AQEnoW Number of parameters: 16571477
AutoQEncoderNoWupdate(
  (encoder_layer): EncoderLayer(
    (linear_encoder): Sequential(
      (0): Linear(in_features=1548, out_features=3968, bias=True)
      (1): ReLU()
      (2): Dropout(p=0.5, inplace=False)
      (3): BatchNorm1d(3968, eps=1e-05, momentum=0.1, affine=True, track_running_stats=True)
      (4): Linear(in_features=3968, out_features=1984, bias=True)
      (5): ReLU()
      (6): Dropout(p=0.5, inplace=False)
      (7): BatchNorm1d(1984, eps=1e-05, momentum=0.1, affine=True, track_running_stats=True)
      (8): Linear(in_features=1984, out_features=992, bias=True)
      (9): ReLU()
      (10): Dropout(p=0.5, inplace=False)
      (11): BatchNorm1d(992, eps=1e-05, momentum=0.1, affine=True, track_running_stats=True)
      (12): Linear(in_features=992, out_features=496, bias=True)
      (13): ReLU()
      (14): Dropout(p=0.5, inplace=False)
      (15): BatchNorm1d(496, eps=1e-05, momentum=0.1, affine=True, track_running_stats=True)
      (16): Linear(in_features=496, out_features=94, bias=True)
    )
  )
  (quantizer_layer): QuantizerLayer()
  (decoder_layer): DecoderLayer(
    (linear_decoder): Sequential(
      (0): Linear(in_features=70, out_features=100, bias=True)
      (1): ReLU()
      (2): Linear(in_features=100, out_features=100, bias=True)
      (3): ReLU()
    )
    (out_layer): Sequential(
      (0): Linear(in_features=100, out_features=100, bias=True)
    )
  )
)
  0%|          | 0/1000 [00:00<?, ?it/s]0.001 -> 0.001
Epoch: 0 	Training Loss: -0.0009166244 	Validation Loss: -0.0042368071 	Best Validation Loss: inf
### Validation loss same/decreased (inf --> -0.0042368071)... saving model. ###
  0%|          | 1/1000 [00:09<2:42:25,  9.76s/it]0.001 -> 0.001
Epoch: 1 	Training Loss: -0.0012368921 	Validation Loss: -0.0056913384 	Best Validation Loss: -0.0042368071
…
 'epoch_patience': 20,
 'epoch_val': 50,
 'epochs': 1000,
 'lr': 0.001,
 'mc_runs': 100000,
 'overall_bits': 70,
 'snr_dB': 40.6,
 'train_test_split': 0.8,
 'train_val_split': 0.8}
Achievable Rate (bps/Hz) using RIS phase shifts with Transmit power SNR 40.60 dB:
optimum:    2.4599132537841797
AQEnoW net:    1.227394938468933
AQEnoW rand:   0.2136271893978119
-------------------------------------------------------------------------------------------------------


AQEnoW Number of parameters: 16577447
AutoQEncoderNoWupdate(
  (encoder_layer): EncoderLayer(
    (linear_encoder): Sequential(
      (0): Linear(in_features=1548, out_features=3968, bias=True)
      (1): ReLU()
      (2): Dropout(p=0.5, inplace=False)
      (3): BatchNorm1d(3968, eps=1e-05, momentum=0.1, affine=True, track_running_stats=True)
      (4): Linear(in_features=3968, out_features=1984, bias=True)
      (5): ReLU()
      (6): Dropout(p=0.5, inplace=False)
      (7): BatchNorm1d(1984, eps=1e-05, momentum=0.1, affine=True, track_running_stats=True)
      (8): Linear(in_features=1984, out_features=992, bias=True)
      (9): ReLU()
      (10): Dropout(p=0.5, inplace=False)
      (11): BatchNorm1d(992, eps=1e-05, momentum=0.1, affine=True, track_running_stats=True)
      (12): Linear(in_features=992, out_features=496, bias=True)
      (13): ReLU()
      (14): Dropout(p=0.5, inplace=False)
      (15): BatchNorm1d(496, eps=1e-05, momentum=0.1, affine=True, track_running_stats=True)
      (16): Linear(in_features=496, out_features=104, bias=True)
    )
  )
  (quantizer_layer): QuantizerLayer()
  (decoder_layer): DecoderLayer(
    (linear_decoder): Sequential(
      (0): Linear(in_features=80, out_features=100, bias=True)
      (1): ReLU()
      (2): Linear(in_features=100, out_features=100, bias=True)
      (3): ReLU()
    )
    (out_layer): Sequential(
      (0): Linear(in_features=100, out_features=100, bias=True)
    )
  )
)
  0%|          | 0/1000 [00:00<?, ?it/s]0.001 -> 0.001
Epoch: 0 	Training Loss: -0.0008741801 	Validation Loss: -0.0038396073 	Best Validation Loss: inf
### Validation loss same/decreased (inf --> -0.0038396073)... saving model. ###
  0%|          | 1/1000 [00:09<2:41:40,  9.71s/it]0.001 -> 0.001
Epoch: 1 	Training Loss: -0.0012054312 	Validation Loss: -0.0056434655 	Best Validation Loss: -0.0038396073
…
 'epoch_patience': 20,
 'epoch_val': 50,
 'epochs': 1000,
 'lr': 0.001,
 'mc_runs': 100000,
 'overall_bits': 80,
 'snr_dB': 40.6,
 'train_test_split': 0.8,
 'train_val_split': 0.8}
Achievable Rate (bps/Hz) using RIS phase shifts with Transmit power SNR 40.60 dB:
optimum:    2.4599132537841797
AQEnoW net:    1.2730801105499268
AQEnoW rand:   0.21431662142276764
-------------------------------------------------------------------------------------------------------


AQEnoW Number of parameters: 16583417
AutoQEncoderNoWupdate(
  (encoder_layer): EncoderLayer(
    (linear_encoder): Sequential(
      (0): Linear(in_features=1548, out_features=3968, bias=True)
      (1): ReLU()
      (2): Dropout(p=0.5, inplace=False)
      (3): BatchNorm1d(3968, eps=1e-05, momentum=0.1, affine=True, track_running_stats=True)
      (4): Linear(in_features=3968, out_features=1984, bias=True)
      (5): ReLU()
      (6): Dropout(p=0.5, inplace=False)
      (7): BatchNorm1d(1984, eps=1e-05, momentum=0.1, affine=True, track_running_stats=True)
      (8): Linear(in_features=1984, out_features=992, bias=True)
      (9): ReLU()
      (10): Dropout(p=0.5, inplace=False)
      (11): BatchNorm1d(992, eps=1e-05, momentum=0.1, affine=True, track_running_stats=True)
      (12): Linear(in_features=992, out_features=496, bias=True)
      (13): ReLU()
      (14): Dropout(p=0.5, inplace=False)
      (15): BatchNorm1d(496, eps=1e-05, momentum=0.1, affine=True, track_running_stats=True)
      (16): Linear(in_features=496, out_features=114, bias=True)
    )
  )
  (quantizer_layer): QuantizerLayer()
  (decoder_layer): DecoderLayer(
    (linear_decoder): Sequential(
      (0): Linear(in_features=90, out_features=100, bias=True)
      (1): ReLU()
      (2): Linear(in_features=100, out_features=100, bias=True)
      (3): ReLU()
    )
    (out_layer): Sequential(
      (0): Linear(in_features=100, out_features=100, bias=True)
    )
  )
)
  0%|          | 0/1000 [00:00<?, ?it/s]0.001 -> 0.001
Epoch: 0 	Training Loss: -0.0009382683 	Validation Loss: -0.0042277931 	Best Validation Loss: inf
### Validation loss same/decreased (inf --> -0.0042277931)... saving model. ###
  0%|          | 1/1000 [00:09<2:40:23,  9.63s/it]0.001 -> 0.001
Epoch: 1 	Training Loss: -0.0012758421 	Validation Loss: -0.0058316944 	Best Validation Loss: -0.0042277931
…
 'epoch_patience': 20,
 'epoch_val': 50,
 'epochs': 1000,
 'lr': 0.001,
 'mc_runs': 100000,
 'overall_bits': 90,
 'snr_dB': 40.6,
 'train_test_split': 0.8,
 'train_val_split': 0.8}
Achievable Rate (bps/Hz) using RIS phase shifts with Transmit power SNR 40.60 dB:
optimum:    2.4599132537841797
AQEnoW net:    1.3006619215011597
AQEnoW rand:   0.21535590291023254
-------------------------------------------------------------------------------------------------------


AQEnoW Number of parameters: 16589387
AutoQEncoderNoWupdate(
  (encoder_layer): EncoderLayer(
    (linear_encoder): Sequential(
      (0): Linear(in_features=1548, out_features=3968, bias=True)
      (1): ReLU()
      (2): Dropout(p=0.5, inplace=False)
      (3): BatchNorm1d(3968, eps=1e-05, momentum=0.1, affine=True, track_running_stats=True)
      (4): Linear(in_features=3968, out_features=1984, bias=True)
      (5): ReLU()
      (6): Dropout(p=0.5, inplace=False)
      (7): BatchNorm1d(1984, eps=1e-05, momentum=0.1, affine=True, track_running_stats=True)
      (8): Linear(in_features=1984, out_features=992, bias=True)
      (9): ReLU()
      (10): Dropout(p=0.5, inplace=False)
      (11): BatchNorm1d(992, eps=1e-05, momentum=0.1, affine=True, track_running_stats=True)
      (12): Linear(in_features=992, out_features=496, bias=True)
      (13): ReLU()
      (14): Dropout(p=0.5, inplace=False)
      (15): BatchNorm1d(496, eps=1e-05, momentum=0.1, affine=True, track_running_stats=True)
      (16): Linear(in_features=496, out_features=124, bias=True)
    )
  )
  (quantizer_layer): QuantizerLayer()
  (decoder_layer): DecoderLayer(
    (linear_decoder): Sequential(
      (0): Linear(in_features=100, out_features=100, bias=True)
      (1): ReLU()
      (2): Linear(in_features=100, out_features=100, bias=True)
      (3): ReLU()
    )
    (out_layer): Sequential(
      (0): Linear(in_features=100, out_features=100, bias=True)
    )
  )
)
  0%|          | 0/1000 [00:00<?, ?it/s]0.001 -> 0.001
Epoch: 0 	Training Loss: -0.0009453987 	Validation Loss: -0.0042654599 	Best Validation Loss: inf
### Validation loss same/decreased (inf --> -0.0042654599)... saving model. ###
  0%|          | 1/1000 [00:09<2:43:07,  9.80s/it]0.001 -> 0.001
Epoch: 1 	Training Loss: -0.0012804690 	Validation Loss: -0.0057992026 	Best Validation Loss: -0.0042654599
…
