…
0000 [00:11<00:00, 10101.02it/s] 95%|█████████▍| 94713/100000 [00:11<00:00, 10113.37it/s] 96%|█████████▌| 95727/100000 [00:11<00:00, 10120.94it/s] 97%|█████████▋| 96741/100000 [00:11<00:00, 10122.32it/s] 98%|█████████▊| 97754/100000 [00:11<00:00, 4304.67it/s]  99%|█████████▉| 98771/100000 [00:11<00:00, 5202.96it/s]100%|█████████▉| 99786/100000 [00:12<00:00, 6093.49it/s]100%|██████████| 100000/100000 [00:12<00:00, 8266.02it/s]
------------
Train & Test
------------
AQE Number of parameters: 16550192
AutoQEncoder(
  (encoder_layer): EncoderLayer(
    (linear_encoder): Sequential(
      (0): Linear(in_features=1548, out_features=3968, bias=True)
      (1): ReLU()
      (2): Dropout(p=0.5, inplace=False)
      (3): BatchNorm1d(3968, eps=1e-05, momentum=0.1, affine=True, track_running_stats=True)
      (4): Linear(in_features=3968, out_features=1984, bias=True)
      (5): ReLU()
      (6): Dropout(p=0.5, inplace=False)
      (7): BatchNorm1d(1984, eps=1e-05, momentum=0.1, affine=True, track_running_stats=True)
      (8): Linear(in_features=1984, out_features=992, bias=True)
      (9): ReLU()
      (10): Dropout(p=0.5, inplace=False)
      (11): BatchNorm1d(992, eps=1e-05, momentum=0.1, affine=True, track_running_stats=True)
      (12): Linear(in_features=992, out_features=496, bias=True)
      (13): ReLU()
      (14): Dropout(p=0.5, inplace=False)
      (15): BatchNorm1d(496, eps=1e-05, momentum=0.1, affine=True, track_running_stats=True)
      (16): Linear(in_features=496, out_features=32, bias=True)
    )
  )
  (quantizer_layer): QuantizerLayer()
  (decoder_layer): DecoderLayer(
    (linear_decoder): Sequential(
      (0): Linear(in_features=8, out_features=100, bias=True)
      (1): ReLU()
      (2): Linear(in_features=100, out_features=100, bias=True)
      (3): ReLU()
    )
    (out_layer): Sequential(
      (0): Linear(in_features=100, out_features=100, bias=True)
    )
  )
  (w_update_layer): WupdateLayer(
    (linear_W): Sequential(
      (0): Linear(in_features=48, out_features=48, bias=True)
      (1): ReLU()
      (2): Dropout(p=0.5, inplace=False)
      (3): Linear(in_features=48, out_features=48, bias=True)
      (4): ReLU()
      (5): Dropout(p=0.5, inplace=False)
      (6): Linear(in_features=48, out_features=48, bias=True)
      (7): ReLU()
      (8): Dropout(p=0.5, inplace=False)
      (9): Linear(in_features=48, out_features=24, bias=True)
    )
    (linear_UL): Sequential(
      (0): Linear(in_features=48, out_features=48, bias=True)
      (1): ReLU()
      (2): Dropout(p=0.5, inplace=False)
      (3): Linear(in_features=48, out_features=48, bias=True)
      (4): ReLU()
      (5): Dropout(p=0.5, inplace=False)
      (6): Linear(in_features=48, out_features=48, bias=True)
      (7): ReLU()
      (8): Dropout(p=0.5, inplace=False)
      (9): Linear(in_features=48, out_features=9, bias=True)
    )
  )
)
ACF Number of parameters: 16174069
ACFNet(
  (mapping_network): DNN(
    (linear_encoder): Sequential(
      (0): Linear(in_features=1424, out_features=3968, bias=True)
      (1): ReLU()
      (2): Dropout(p=0.5, inplace=False)
      (3): BatchNorm1d(3968, eps=1e-05, momentum=0.1, affine=True, track_running_stats=True)
      (4): Linear(in_features=3968, out_features=1984, bias=True)
      (5): ReLU()
      (6): Dropout(p=0.5, inplace=False)
      (7): BatchNorm1d(1984, eps=1e-05, momentum=0.1, affine=True, track_running_stats=True)
      (8): Linear(in_features=1984, out_features=992, bias=True)
      (9): ReLU()
      (10): Dropout(p=0.5, inplace=False)
      (11): BatchNorm1d(992, eps=1e-05, momentum=0.1, affine=True, track_running_stats=True)
      (12): Linear(in_features=992, out_features=496, bias=True)
      (13): ReLU()
      (14): Dropout(p=0.5, inplace=False)
      (15): BatchNorm1d(496, eps=1e-05, momentum=0.1, affine=True, track_running_stats=True)
      (16): Linear(in_features=496, out_features=124, bias=True)
    )
  )
  (compression_network): ACFNetCompressionNetwork(
    (convolution_layer): Sequential(
      (0): Conv2d(1, 3, kernel_size=(2, 2), stride=(1, 1))
      (1): ReLU()
    )
    (dense_layer): Sequential(
      (0): Linear(in_features=297, out_features=8, bias=True)
    )
  )
  (quantizer_layer): QuantizerLayer()
  (decoder_network): ACFNetDecoderNetwork(
    (dense_layer1): Sequential(
      (0): Linear(in_features=8, out_features=200, bias=True)
    )
    (convolution_layer): Sequential(
      (0): Conv2d(1, 3, kernel_size=(2, 2), stride=(1, 1))
      (1): ReLU()
    )
    (dense_layer2): Sequential(
      (0): Linear(in_features=513, out_features=200, bias=True)
    )
  )
)
linQ Number of parameters: 2311
LinearQuantizer(
  (precoder_layer): Linear(in_features=24, out_features=24, bias=True)
  (encoder_layer): Linear(in_features=100, out_features=8, bias=True)
  (quantizer_layer): QuantizerLayer()
  (decoder_layer): Linear(in_features=8, out_features=100, bias=True)
)
  0%|          | 0/1000 [00:00<?, ?it/s]0.001 -> 0.001
Epoch: 0 	Training Loss: -0.0037328286 	Validation Loss: -0.0126674875 	Best Validation Loss: inf
### Validation loss same/decreased (inf --> -0.0126674875)... saving model. ###
  0%|          | 1/1000 [00:09<2:38:15,  9.51s/it]0.001 -> 0.001
Epoch: 1 	Training Loss: -0.0040475433 	Validation Loss: -0.0125684861 	Best Validation Loss: -0.0126674875
…
 'train_test_split': 0.9,
 'train_val_split': 0.9}
Achievable Rate (bps/Hz) using RIS phase shifts with Transmit power SNR 50.60 dB:
optimum:    7.037111759185791
AQE net:    2.83388090133667
ACF net:    2.5650715827941895
linQ net:   2.3116114139556885
opt rand:   1.1695098876953125
AQE rand:   1.0030498504638672
ACF rand:   1.1174252033233643
linQ rand:  1.1822428703308105
-------------------------------------------------------------------------------------------------------


AQE Number of parameters: 16554968
AutoQEncoder(
  (encoder_layer): EncoderLayer(
    (linear_encoder): Sequential(
      (0): Linear(in_features=1548, out_features=3968, bias=True)
      (1): ReLU()
      (2): Dropout(p=0.5, inplace=False)
      (3): BatchNorm1d(3968, eps=1e-05, momentum=0.1, affine=True, track_running_stats=True)
      (4): Linear(in_features=3968, out_features=1984, bias=True)
      (5): ReLU()
      (6): Dropout(p=0.5, inplace=False)
      (7): BatchNorm1d(1984, eps=1e-05, momentum=0.1, affine=True, track_running_stats=True)
      (8): Linear(in_features=1984, out_features=992, bias=True)
      (9): ReLU()
      (10): Dropout(p=0.5, inplace=False)
      (11): BatchNorm1d(992, eps=1e-05, momentum=0.1, affine=True, track_running_stats=True)
      (12): Linear(in_features=992, out_features=496, bias=True)
      (13): ReLU()
      (14): Dropout(p=0.5, inplace=False)
      (15): BatchNorm1d(496, eps=1e-05, momentum=0.1, affine=True, track_running_stats=True)
      (16): Linear(in_features=496, out_features=40, bias=True)
    )
  )
  (quantizer_layer): QuantizerLayer()
  (decoder_layer): DecoderLayer(
    (linear_decoder): Sequential(
      (0): Linear(in_features=16, out_features=100, bias=True)
      (1): ReLU()
      (2): Linear(in_features=100, out_features=100, bias=True)
      (3): ReLU()
    )
    (out_layer): Sequential(
      (0): Linear(in_features=100, out_features=100, bias=True)
    )
  )
  (w_update_layer): WupdateLayer(
    (linear_W): Sequential(
      (0): Linear(in_features=48, out_features=48, bias=True)
      (1): ReLU()
      (2): Dropout(p=0.5, inplace=False)
      (3): Linear(in_features=48, out_features=48, bias=True)
      (4): ReLU()
      (5): Dropout(p=0.5, inplace=False)
      (6): Linear(in_features=48, out_features=48, bias=True)
      (7): ReLU()
      (8): Dropout(p=0.5, inplace=False)
      (9): Linear(in_features=48, out_features=24, bias=True)
    )
    (linear_UL): Sequential(
      (0): Linear(in_features=48, out_features=48, bias=True)
      (1): ReLU()
      (2): Dropout(p=0.5, inplace=False)
      (3): Linear(in_features=48, out_features=48, bias=True)
      (4): ReLU()
      (5): Dropout(p=0.5, inplace=False)
      (6): Linear(in_features=48, out_features=48, bias=True)
      (7): ReLU()
      (8): Dropout(p=0.5, inplace=False)
      (9): Linear(in_features=48, out_features=9, bias=True)
    )
  )
)
ACF Number of parameters: 16178053
ACFNet(
  (mapping_network): DNN(
    (linear_encoder): Sequential(
      (0): Linear(in_features=1424, out_features=3968, bias=True)
      (1): ReLU()
      (2): Dropout(p=0.5, inplace=False)
      (3): BatchNorm1d(3968, eps=1e-05, momentum=0.1, affine=True, track_running_stats=True)
      (4): Linear(in_features=3968, out_features=1984, bias=True)
      (5): ReLU()
      (6): Dropout(p=0.5, inplace=False)
      (7): BatchNorm1d(1984, eps=1e-05, momentum=0.1, affine=True, track_running_stats=True)
      (8): Linear(in_features=1984, out_features=992, bias=True)
      (9): ReLU()
      (10): Dropout(p=0.5, inplace=False)
      (11): BatchNorm1d(992, eps=1e-05, momentum=0.1, affine=True, track_running_stats=True)
      (12): Linear(in_features=992, out_features=496, bias=True)
      (13): ReLU()
      (14): Dropout(p=0.5, inplace=False)
      (15): BatchNorm1d(496, eps=1e-05, momentum=0.1, affine=True, track_running_stats=True)
      (16): Linear(in_features=496, out_features=124, bias=True)
    )
  )
  (compression_network): ACFNetCompressionNetwork(
    (convolution_layer): Sequential(
      (0): Conv2d(1, 3, kernel_size=(2, 2), stride=(1, 1))
      (1): ReLU()
    )
    (dense_layer): Sequential(
      (0): Linear(in_features=297, out_features=16, bias=True)
    )
  )
  (quantizer_layer): QuantizerLayer()
  (decoder_network): ACFNetDecoderNetwork(
    (dense_layer1): Sequential(
      (0): Linear(in_features=16, out_features=200, bias=True)
    )
    (convolution_layer): Sequential(
      (0): Conv2d(1, 3, kernel_size=(2, 2), stride=(1, 1))
      (1): ReLU()
    )
    (dense_layer2): Sequential(
      (0): Linear(in_features=513, out_features=200, bias=True)
    )
  )
)
linQ Number of parameters: 3919
LinearQuantizer(
  (precoder_layer): Linear(in_features=24, out_features=24, bias=True)
  (encoder_layer): Linear(in_features=100, out_features=16, bias=True)
  (quantizer_layer): QuantizerLayer()
  (decoder_layer): Linear(in_features=16, out_features=100, bias=True)
)
  0%|          | 0/1000 [00:00<?, ?it/s]0.001 -> 0.001
Epoch: 0 	Training Loss: -0.0038114266 	Validation Loss: -0.0132547424 	Best Validation Loss: inf
### Validation loss same/decreased (inf --> -0.0132547424)... saving model. ###
  0%|          | 1/1000 [00:08<2:28:59,  8.95s/it]0.001 -> 0.001
Epoch: 1 	Training Loss: -0.0041678666 	Validation Loss: -0.0133540475 	Best Validation Loss: -0.0132547424
…
 'train_test_split': 0.9,
 'train_val_split': 0.9}
Achievable Rate (bps/Hz) using RIS phase shifts with Transmit power SNR 50.60 dB:
optimum:    7.037111759185791
AQE net:    3.3055155277252197
ACF net:    2.470895528793335
linQ net:   2.159726619720459
opt rand:   1.1823710203170776
AQE rand:   1.1351213455200195
ACF rand:   1.0584498643875122
linQ rand:  1.1771754026412964
-------------------------------------------------------------------------------------------------------


AQE Number of parameters: 16564520
AutoQEncoder(
  (encoder_layer): EncoderLayer(
    (linear_encoder): Sequential(
      (0): Linear(in_features=1548, out_features=3968, bias=True)
      (1): ReLU()
      (2): Dropout(p=0.5, inplace=False)
      (3): BatchNorm1d(3968, eps=1e-05, momentum=0.1, affine=True, track_running_stats=True)
      (4): Linear(in_features=3968, out_features=1984, bias=True)
      (5): ReLU()
      (6): Dropout(p=0.5, inplace=False)
      (7): BatchNorm1d(1984, eps=1e-05, momentum=0.1, affine=True, track_running_stats=True)
      (8): Linear(in_features=1984, out_features=992, bias=True)
      (9): ReLU()
      (10): Dropout(p=0.5, inplace=False)
      (11): BatchNorm1d(992, eps=1e-05, momentum=0.1, affine=True, track_running_stats=True)
      (12): Linear(in_features=992, out_features=496, bias=True)
      (13): ReLU()
      (14): Dropout(p=0.5, inplace=False)
      (15): BatchNorm1d(496, eps=1e-05, momentum=0.1, affine=True, track_running_stats=True)
      (16): Linear(in_features=496, out_features=56, bias=True)
    )
  )
  (quantizer_layer): QuantizerLayer()
  (decoder_layer): DecoderLayer(
    (linear_decoder): Sequential(
      (0): Linear(in_features=32, out_features=100, bias=True)
      (1): ReLU()
      (2): Linear(in_features=100, out_features=100, bias=True)
      (3): ReLU()
    )
    (out_layer): Sequential(
      (0): Linear(in_features=100, out_features=100, bias=True)
    )
  )
  (w_update_layer): WupdateLayer(
    (linear_W): Sequential(
      (0): Linear(in_features=48, out_features=48, bias=True)
      (1): ReLU()
      (2): Dropout(p=0.5, inplace=False)
      (3): Linear(in_features=48, out_features=48, bias=True)
      (4): ReLU()
      (5): Dropout(p=0.5, inplace=False)
      (6): Linear(in_features=48, out_features=48, bias=True)
      (7): ReLU()
      (8): Dropout(p=0.5, inplace=False)
      (9): Linear(in_features=48, out_features=24, bias=True)
    )
    (linear_UL): Sequential(
      (0): Linear(in_features=48, out_features=48, bias=True)
      (1): ReLU()
      (2): Dropout(p=0.5, inplace=False)
      (3): Linear(in_features=48, out_features=48, bias=True)
      (4): ReLU()
      (5): Dropout(p=0.5, inplace=False)
      (6): Linear(in_features=48, out_features=48, bias=True)
      (7): ReLU()
      (8): Dropout(p=0.5, inplace=False)
      (9): Linear(in_features=48, out_features=9, bias=True)
    )
  )
)
ACF Number of parameters: 16186021
ACFNet(
  (mapping_network): DNN(
    (linear_encoder): Sequential(
      (0): Linear(in_features=1424, out_features=3968, bias=True)
      (1): ReLU()
      (2): Dropout(p=0.5, inplace=False)
      (3): BatchNorm1d(3968, eps=1e-05, momentum=0.1, affine=True, track_running_stats=True)
      (4): Linear(in_features=3968, out_features=1984, bias=True)
      (5): ReLU()
      (6): Dropout(p=0.5, inplace=False)
      (7): BatchNorm1d(1984, eps=1e-05, momentum=0.1, affine=True, track_running_stats=True)
      (8): Linear(in_features=1984, out_features=992, bias=True)
      (9): ReLU()
      (10): Dropout(p=0.5, inplace=False)
      (11): BatchNorm1d(992, eps=1e-05, momentum=0.1, affine=True, track_running_stats=True)
      (12): Linear(in_features=992, out_features=496, bias=True)
      (13): ReLU()
      (14): Dropout(p=0.5, inplace=False)
      (15): BatchNorm1d(496, eps=1e-05, momentum=0.1, affine=True, track_running_stats=True)
      (16): Linear(in_features=496, out_features=124, bias=True)
    )
  )
  (compression_network): ACFNetCompressionNetwork(
    (convolution_layer): Sequential(
      (0): Conv2d(1, 3, kernel_size=(2, 2), stride=(1, 1))
      (1): ReLU()
    )
    (dense_layer): Sequential(
      (0): Linear(in_features=297, out_features=32, bias=True)
    )
  )
  (quantizer_layer): QuantizerLayer()
  (decoder_network): ACFNetDecoderNetwork(
    (dense_layer1): Sequential(
      (0): Linear(in_features=32, out_features=200, bias=True)
    )
    (convolution_layer): Sequential(
      (0): Conv2d(1, 3, kernel_size=(2, 2), stride=(1, 1))
      (1): ReLU()
    )
    (dense_layer2): Sequential(
      (0): Linear(in_features=513, out_features=200, bias=True)
    )
  )
)
linQ Number of parameters: 7135
LinearQuantizer(
  (precoder_layer): Linear(in_features=24, out_features=24, bias=True)
  (encoder_layer): Linear(in_features=100, out_features=32, bias=True)
  (quantizer_layer): QuantizerLayer()
  (decoder_layer): Linear(in_features=32, out_features=100, bias=True)
)
  0%|          | 0/1000 [00:00<?, ?it/s]0.001 -> 0.001
Epoch: 0 	Training Loss: -0.0038621037 	Validation Loss: -0.0132752777 	Best Validation Loss: inf
### Validation loss same/decreased (inf --> -0.0132752777)... saving model. ###
  0%|          | 1/1000 [00:09<2:29:56,  9.01s/it]0.001 -> 0.001
Epoch: 1 	Training Loss: -0.0041749247 	Validation Loss: -0.0145807352 	Best Validation Loss: -0.0132752777
…
 'train_test_split': 0.9,
 'train_val_split': 0.9}
Achievable Rate (bps/Hz) using RIS phase shifts with Transmit power SNR 50.60 dB:
optimum:    7.037111759185791
AQE net:    4.029874801635742
ACF net:    3.0190982818603516
linQ net:   2.597416400909424
opt rand:   1.178721308708191
AQE rand:   1.162392258644104
ACF rand:   1.0590810775756836
linQ rand:  1.1758663654327393
-------------------------------------------------------------------------------------------------------


AQE Number of parameters: 16583624
AutoQEncoder(
  (encoder_layer): EncoderLayer(
    (linear_encoder): Sequential(
      (0): Linear(in_features=1548, out_features=3968, bias=True)
      (1): ReLU()
      (2): Dropout(p=0.5, inplace=False)
      (3): BatchNorm1d(3968, eps=1e-05, momentum=0.1, affine=True, track_running_stats=True)
      (4): Linear(in_features=3968, out_features=1984, bias=True)
      (5): ReLU()
      (6): Dropout(p=0.5, inplace=False)
      (7): BatchNorm1d(1984, eps=1e-05, momentum=0.1, affine=True, track_running_stats=True)
      (8): Linear(in_features=1984, out_features=992, bias=True)
      (9): ReLU()
      (10): Dropout(p=0.5, inplace=False)
      (11): BatchNorm1d(992, eps=1e-05, momentum=0.1, affine=True, track_running_stats=True)
      (12): Linear(in_features=992, out_features=496, bias=True)
      (13): ReLU()
      (14): Dropout(p=0.5, inplace=False)
      (15): BatchNorm1d(496, eps=1e-05, momentum=0.1, affine=True, track_running_stats=True)
      (16): Linear(in_features=496, out_features=88, bias=True)
    )
  )
  (quantizer_layer): QuantizerLayer()
  (decoder_layer): DecoderLayer(
    (linear_decoder): Sequential(
      (0): Linear(in_features=64, out_features=100, bias=True)
      (1): ReLU()
      (2): Linear(in_features=100, out_features=100, bias=True)
      (3): ReLU()
    )
    (out_layer): Sequential(
      (0): Linear(in_features=100, out_features=100, bias=True)
    )
  )
  (w_update_layer): WupdateLayer(
    (linear_W): Sequential(
      (0): Linear(in_features=48, out_features=48, bias=True)
      (1): ReLU()
      (2): Dropout(p=0.5, inplace=False)
      (3): Linear(in_features=48, out_features=48, bias=True)
      (4): ReLU()
      (5): Dropout(p=0.5, inplace=False)
      (6): Linear(in_features=48, out_features=48, bias=True)
      (7): ReLU()
      (8): Dropout(p=0.5, inplace=False)
      (9): Linear(in_features=48, out_features=24, bias=True)
    )
    (linear_UL): Sequential(
      (0): Linear(in_features=48, out_features=48, bias=True)
      (1): ReLU()
      (2): Dropout(p=0.5, inplace=False)
      (3): Linear(in_features=48, out_features=48, bias=True)
      (4): ReLU()
      (5): Dropout(p=0.5, inplace=False)
      (6): Linear(in_features=48, out_features=48, bias=True)
      (7): ReLU()
      (8): Dropout(p=0.5, inplace=False)
      (9): Linear(in_features=48, out_features=9, bias=True)
    )
  )
)
ACF Number of parameters: 16201957
ACFNet(
  (mapping_network): DNN(
    (linear_encoder): Sequential(
      (0): Linear(in_features=1424, out_features=3968, bias=True)
      (1): ReLU()
      (2): Dropout(p=0.5, inplace=False)
      (3): BatchNorm1d(3968, eps=1e-05, momentum=0.1, affine=True, track_running_stats=True)
      (4): Linear(in_features=3968, out_features=1984, bias=True)
      (5): ReLU()
      (6): Dropout(p=0.5, inplace=False)
      (7): BatchNorm1d(1984, eps=1e-05, momentum=0.1, affine=True, track_running_stats=True)
      (8): Linear(in_features=1984, out_features=992, bias=True)
      (9): ReLU()
      (10): Dropout(p=0.5, inplace=False)
      (11): BatchNorm1d(992, eps=1e-05, momentum=0.1, affine=True, track_running_stats=True)
      (12): Linear(in_features=992, out_features=496, bias=True)
      (13): ReLU()
      (14): Dropout(p=0.5, inplace=False)
      (15): BatchNorm1d(496, eps=1e-05, momentum=0.1, affine=True, track_running_stats=True)
      (16): Linear(in_features=496, out_features=124, bias=True)
    )
  )
  (compression_network): ACFNetCompressionNetwork(
    (convolution_layer): Sequential(
      (0): Conv2d(1, 3, kernel_size=(2, 2), stride=(1, 1))
      (1): ReLU()
    )
    (dense_layer): Sequential(
      (0): Linear(in_features=297, out_features=64, bias=True)
    )
  )
  (quantizer_layer): QuantizerLayer()
  (decoder_network): ACFNetDecoderNetwork(
    (dense_layer1): Sequential(
      (0): Linear(in_features=64, out_features=200, bias=True)
    )
    (convolution_layer): Sequential(
      (0): Conv2d(1, 3, kernel_size=(2, 2), stride=(1, 1))
      (1): ReLU()
    )
    (dense_layer2): Sequential(
      (0): Linear(in_features=513, out_features=200, bias=True)
    )
  )
)
linQ Number of parameters: 13567
LinearQuantizer(
  (precoder_layer): Linear(in_features=24, out_features=24, bias=True)
  (encoder_layer): Linear(in_features=100, out_features=64, bias=True)
  (quantizer_layer): QuantizerLayer()
  (decoder_layer): Linear(in_features=64, out_features=100, bias=True)
)
  0%|          | 0/1000 [00:00<?, ?it/s]0.001 -> 0.001
Epoch: 0 	Training Loss: -0.0040002582 	Validation Loss: -0.0143404393 	Best Validation Loss: inf
### Validation loss same/decreased (inf --> -0.0143404393)... saving model. ###
  0%|          | 1/1000 [00:08<2:29:49,  9.00s/it]0.001 -> 0.001
Epoch: 1 	Training Loss: -0.0044305075 	Validation Loss: -0.0154585389 	Best Validation Loss: -0.0143404393
…
 'train_test_split': 0.9,
 'train_val_split': 0.9}
Achievable Rate (bps/Hz) using RIS phase shifts with Transmit power SNR 50.60 dB:
optimum:    7.037111759185791
AQE net:    4.737654209136963
ACF net:    3.047530174255371
linQ net:   3.153557062149048
opt rand:   1.1811954975128174
AQE rand:   1.1733791828155518
ACF rand:   1.0648994445800781
linQ rand:  1.173930048942566
-------------------------------------------------------------------------------------------------------


AQE Number of parameters: 16605116
AutoQEncoder(
  (encoder_layer): EncoderLayer(
    (linear_encoder): Sequential(
      (0): Linear(in_features=1548, out_features=3968, bias=True)
      (1): ReLU()
      (2): Dropout(p=0.5, inplace=False)
      (3): BatchNorm1d(3968, eps=1e-05, momentum=0.1, affine=True, track_running_stats=True)
      (4): Linear(in_features=3968, out_features=1984, bias=True)
      (5): ReLU()
      (6): Dropout(p=0.5, inplace=False)
      (7): BatchNorm1d(1984, eps=1e-05, momentum=0.1, affine=True, track_running_stats=True)
      (8): Linear(in_features=1984, out_features=992, bias=True)
      (9): ReLU()
      (10): Dropout(p=0.5, inplace=False)
      (11): BatchNorm1d(992, eps=1e-05, momentum=0.1, affine=True, track_running_stats=True)
      (12): Linear(in_features=992, out_features=496, bias=True)
      (13): ReLU()
      (14): Dropout(p=0.5, inplace=False)
      (15): BatchNorm1d(496, eps=1e-05, momentum=0.1, affine=True, track_running_stats=True)
      (16): Linear(in_features=496, out_features=124, bias=True)
    )
  )
  (quantizer_layer): QuantizerLayer()
  (decoder_layer): DecoderLayer(
    (linear_decoder): Sequential(
      (0): Linear(in_features=100, out_features=100, bias=True)
      (1): ReLU()
      (2): Linear(in_features=100, out_features=100, bias=True)
      (3): ReLU()
    )
    (out_layer): Sequential(
      (0): Linear(in_features=100, out_features=100, bias=True)
    )
  )
  (w_update_layer): WupdateLayer(
    (linear_W): Sequential(
      (0): Linear(in_features=48, out_features=48, bias=True)
      (1): ReLU()
      (2): Dropout(p=0.5, inplace=False)
      (3): Linear(in_features=48, out_features=48, bias=True)
      (4): ReLU()
      (5): Dropout(p=0.5, inplace=False)
      (6): Linear(in_features=48, out_features=48, bias=True)
      (7): ReLU()
      (8): Dropout(p=0.5, inplace=False)
      (9): Linear(in_features=48, out_features=24, bias=True)
    )
    (linear_UL): Sequential(
      (0): Linear(in_features=48, out_features=48, bias=True)
      (1): ReLU()
      (2): Dropout(p=0.5, inplace=False)
      (3): Linear(in_features=48, out_features=48, bias=True)
      (4): ReLU()
      (5): Dropout(p=0.5, inplace=False)
      (6): Linear(in_features=48, out_features=48, bias=True)
      (7): ReLU()
      (8): Dropout(p=0.5, inplace=False)
      (9): Linear(in_features=48, out_features=9, bias=True)
    )
  )
)
ACF Number of parameters: 16219885
ACFNet(
  (mapping_network): DNN(
    (linear_encoder): Sequential(
      (0): Linear(in_features=1424, out_features=3968, bias=True)
      (1): ReLU()
      (2): Dropout(p=0.5, inplace=False)
      (3): BatchNorm1d(3968, eps=1e-05, momentum=0.1, affine=True, track_running_stats=True)
      (4): Linear(in_features=3968, out_features=1984, bias=True)
      (5): ReLU()
      (6): Dropout(p=0.5, inplace=False)
      (7): BatchNorm1d(1984, eps=1e-05, momentum=0.1, affine=True, track_running_stats=True)
      (8): Linear(in_features=1984, out_features=992, bias=True)
      (9): ReLU()
      (10): Dropout(p=0.5, inplace=False)
      (11): BatchNorm1d(992, eps=1e-05, momentum=0.1, affine=True, track_running_stats=True)
      (12): Linear(in_features=992, out_features=496, bias=True)
      (13): ReLU()
      (14): Dropout(p=0.5, inplace=False)
      (15): BatchNorm1d(496, eps=1e-05, momentum=0.1, affine=True, track_running_stats=True)
      (16): Linear(in_features=496, out_features=124, bias=True)
    )
  )
  (compression_network): ACFNetCompressionNetwork(
    (convolution_layer): Sequential(
      (0): Conv2d(1, 3, kernel_size=(2, 2), stride=(1, 1))
      (1): ReLU()
    )
    (dense_layer): Sequential(
      (0): Linear(in_features=297, out_features=100, bias=True)
    )
  )
  (quantizer_layer): QuantizerLayer()
  (decoder_network): ACFNetDecoderNetwork(
    (dense_layer1): Sequential(
      (0): Linear(in_features=100, out_features=200, bias=True)
    )
    (convolution_layer): Sequential(
      (0): Conv2d(1, 3, kernel_size=(2, 2), stride=(1, 1))
      (1): ReLU()
    )
    (dense_layer2): Sequential(
      (0): Linear(in_features=513, out_features=200, bias=True)
    )
  )
)
DQNN Number of parameters: 16067055
DQNN(
  (DNN_layer): DNN(
    (linear_encoder): Sequential(
      (0): Linear(in_features=1424, out_features=3968, bias=True)
      (1): ReLU()
      (2): Dropout(p=0.5, inplace=False)
      (3): BatchNorm1d(3968, eps=1e-05, momentum=0.1, affine=True, track_running_stats=True)
      (4): Linear(in_features=3968, out_features=1984, bias=True)
      (5): ReLU()
      (6): Dropout(p=0.5, inplace=False)
      (7): BatchNorm1d(1984, eps=1e-05, momentum=0.1, affine=True, track_running_stats=True)
      (8): Linear(in_features=1984, out_features=992, bias=True)
      (9): ReLU()
      (10): Dropout(p=0.5, inplace=False)
      (11): BatchNorm1d(992, eps=1e-05, momentum=0.1, affine=True, track_running_stats=True)
      (12): Linear(in_features=992, out_features=496, bias=True)
      (13): ReLU()
      (14): Dropout(p=0.5, inplace=False)
      (15): BatchNorm1d(496, eps=1e-05, momentum=0.1, affine=True, track_running_stats=True)
      (16): Linear(in_features=496, out_features=124, bias=True)
    )
  )
  (quantizer_layer): QuantizerLayer()
)
linQ Number of parameters: 20803
LinearQuantizer(
  (precoder_layer): Linear(in_features=24, out_features=24, bias=True)
  (encoder_layer): Linear(in_features=100, out_features=100, bias=True)
  (quantizer_layer): QuantizerLayer()
  (decoder_layer): Linear(in_features=100, out_features=100, bias=True)
)
  0%|          | 0/1000 [00:00<?, ?it/s]0.001 -> 0.001
Epoch: 0 	Training Loss: -0.0039279318 	Validation Loss: -0.0145098212 	Best Validation Loss: inf
### Validation loss same/decreased (inf --> -0.0145098212)... saving model. ###
  0%|          | 1/1000 [00:08<2:29:07,  8.96s/it]0.001 -> 0.001
Epoch: 1 	Training Loss: -0.0043648412 	Validation Loss: -0.0159251636 	Best Validation Loss: -0.0145098212
…
Achievable Rate (bps/Hz) using RIS phase shifts with Transmit power SNR 50.60 dB:
optimum:    7.037111759185791
AQE net:    4.959460258483887
ACF net:    3.1891534328460693
DQNN net:   3.9278998374938965
linQ net:   3.2735493183135986
opt rand:   1.1686906814575195
AQE rand:   1.1599524021148682
ACF rand:   1.0948700904846191
DQNN rand:  1.0831780433654785
linQ rand:  1.1613543033599854
-------------------------------------------------------------------------------------------------------


AQE Number of parameters: 16621832
AutoQEncoder(
  (encoder_layer): EncoderLayer(
    (linear_encoder): Sequential(
      (0): Linear(in_features=1548, out_features=3968, bias=True)
      (1): ReLU()
      (2): Dropout(p=0.5, inplace=False)
      (3): BatchNorm1d(3968, eps=1e-05, momentum=0.1, affine=True, track_running_stats=True)
      (4): Linear(in_features=3968, out_features=1984, bias=True)
      (5): ReLU()
      (6): Dropout(p=0.5, inplace=False)
      (7): BatchNorm1d(1984, eps=1e-05, momentum=0.1, affine=True, track_running_stats=True)
      (8): Linear(in_features=1984, out_features=992, bias=True)
      (9): ReLU()
      (10): Dropout(p=0.5, inplace=False)
      (11): BatchNorm1d(992, eps=1e-05, momentum=0.1, affine=True, track_running_stats=True)
      (12): Linear(in_features=992, out_features=496, bias=True)
      (13): ReLU()
      (14): Dropout(p=0.5, inplace=False)
      (15): BatchNorm1d(496, eps=1e-05, momentum=0.1, affine=True, track_running_stats=True)
      (16): Linear(in_features=496, out_features=152, bias=True)
    )
  )
  (quantizer_layer): QuantizerLayer()
  (decoder_layer): DecoderLayer(
    (linear_decoder): Sequential(
      (0): Linear(in_features=128, out_features=100, bias=True)
      (1): ReLU()
      (2): Linear(in_features=100, out_features=100, bias=True)
      (3): ReLU()
    )
    (out_layer): Sequential(
      (0): Linear(in_features=100, out_features=100, bias=True)
    )
  )
  (w_update_layer): WupdateLayer(
    (linear_W): Sequential(
      (0): Linear(in_features=48, out_features=48, bias=True)
      (1): ReLU()
      (2): Dropout(p=0.5, inplace=False)
      (3): Linear(in_features=48, out_features=48, bias=True)
      (4): ReLU()
      (5): Dropout(p=0.5, inplace=False)
      (6): Linear(in_features=48, out_features=48, bias=True)
      (7): ReLU()
      (8): Dropout(p=0.5, inplace=False)
      (9): Linear(in_features=48, out_features=24, bias=True)
    )
    (linear_UL): Sequential(
      (0): Linear(in_features=48, out_features=48, bias=True)
      (1): ReLU()
      (2): Dropout(p=0.5, inplace=False)
      (3): Linear(in_features=48, out_features=48, bias=True)
      (4): ReLU()
      (5): Dropout(p=0.5, inplace=False)
      (6): Linear(in_features=48, out_features=48, bias=True)
      (7): ReLU()
      (8): Dropout(p=0.5, inplace=False)
      (9): Linear(in_features=48, out_features=9, bias=True)
    )
  )
)
ACF Number of parameters: 16233829
ACFNet(
  (mapping_network): DNN(
    (linear_encoder): Sequential(
      (0): Linear(in_features=1424, out_features=3968, bias=True)
      (1): ReLU()
      (2): Dropout(p=0.5, inplace=False)
      (3): BatchNorm1d(3968, eps=1e-05, momentum=0.1, affine=True, track_running_stats=True)
      (4): Linear(in_features=3968, out_features=1984, bias=True)
      (5): ReLU()
      (6): Dropout(p=0.5, inplace=False)
      (7): BatchNorm1d(1984, eps=1e-05, momentum=0.1, affine=True, track_running_stats=True)
      (8): Linear(in_features=1984, out_features=992, bias=True)
      (9): ReLU()
      (10): Dropout(p=0.5, inplace=False)
      (11): BatchNorm1d(992, eps=1e-05, momentum=0.1, affine=True, track_running_stats=True)
      (12): Linear(in_features=992, out_features=496, bias=True)
      (13): ReLU()
      (14): Dropout(p=0.5, inplace=False)
      (15): BatchNorm1d(496, eps=1e-05, momentum=0.1, affine=True, track_running_stats=True)
      (16): Linear(in_features=496, out_features=124, bias=True)
    )
  )
  (compression_network): ACFNetCompressionNetwork(
    (convolution_layer): Sequential(
      (0): Conv2d(1, 3, kernel_size=(2, 2), stride=(1, 1))
      (1): ReLU()
    )
    (dense_layer): Sequential(
      (0): Linear(in_features=297, out_features=128, bias=True)
    )
  )
  (quantizer_layer): QuantizerLayer()
  (decoder_network): ACFNetDecoderNetwork(
    (dense_layer1): Sequential(
      (0): Linear(in_features=128, out_features=200, bias=True)
    )
    (convolution_layer): Sequential(
      (0): Conv2d(1, 3, kernel_size=(2, 2), stride=(1, 1))
      (1): ReLU()
    )
    (dense_layer2): Sequential(
      (0): Linear(in_features=513, out_features=200, bias=True)
    )
  )
)
linQ Number of parameters: 26431
LinearQuantizer(
  (precoder_layer): Linear(in_features=24, out_features=24, bias=True)
  (encoder_layer): Linear(in_features=100, out_features=128, bias=True)
  (quantizer_layer): QuantizerLayer()
  (decoder_layer): Linear(in_features=128, out_features=100, bias=True)
)
  0%|          | 0/1000 [00:00<?, ?it/s]0.001 -> 0.001
Epoch: 0 	Training Loss: -0.0040380993 	Validation Loss: -0.0140604592 	Best Validation Loss: inf
### Validation loss same/decreased (inf --> -0.0140604592)... saving model. ###
  0%|          | 1/1000 [00:08<2:28:49,  8.94s/it]0.001 -> 0.001
Epoch: 1 	Training Loss: -0.0044357065 	Validation Loss: -0.0161836215 	Best Validation Loss: -0.0140604592
…
