…
LOS              2
B              101
L                1
T              101
K                1
M                1
N              100
Nw              10
Nh              10
mc_runs    1000000
Name: 0, dtype: int64
Training Model parameters:
{'N_RIS': 100,
 'Nc_RIS': 100,
 'Nh_RIS': 10,
 'Nw_RIS': 10,
 'Q_bits': 2,
 'batch_size': 256,
 'epoch_echo': True,
 'epoch_val': 100,
 'epochs': 500,
 'lr': 0.001,
 'mc_runs': 1000000,
 'momentum': 0.9,
 'snr_dB': -5,
 'step_size': 10,
 'train_test_split': 0.8,
 'train_val_split': 0.8}
AutoQEncoder(
  (encoder_layer): EncoderLayer(
    (cnn_layer): Sequential(
      (0): Conv2d(5, 32, kernel_size=(3, 3), stride=(1, 1), padding=(1, 1), padding_mode=circular)
      (1): BatchNorm2d(32, eps=1e-05, momentum=0.1, affine=True, track_running_stats=True)
      (2): ReLU()
      (3): Conv2d(32, 64, kernel_size=(3, 3), stride=(1, 1))
      (4): BatchNorm2d(64, eps=1e-05, momentum=0.1, affine=True, track_running_stats=True)
      (5): ReLU()
      (6): Conv2d(64, 128, kernel_size=(3, 3), stride=(1, 1))
      (7): BatchNorm2d(128, eps=1e-05, momentum=0.1, affine=True, track_running_stats=True)
      (8): ReLU()
      (9): Conv2d(128, 128, kernel_size=(3, 3), stride=(1, 1))
      (10): BatchNorm2d(128, eps=1e-05, momentum=0.1, affine=True, track_running_stats=True)
      (11): ReLU()
      (12): MaxPool2d(kernel_size=4, stride=4, padding=0, dilation=1, ceil_mode=False)
    )
    (linear_encoder): Sequential(
      (0): Dropout(p=0.5, inplace=False)
      (1): Linear(in_features=128, out_features=100, bias=True)
      (2): LeakyReLU(negative_slope=0.01)
      (3): Linear(in_features=100, out_features=100, bias=True)
      (4): LeakyReLU(negative_slope=0.01)
      (5): Linear(in_features=100, out_features=2, bias=True)
      (6): LeakyReLU(negative_slope=0.01)
    )
  )
  (quantizer_layer): QuantizerLayer()
  (decoder_layer): DecoderLayer(
    (linear_decoder): Sequential(
      (0): Linear(in_features=2, out_features=100, bias=True)
      (1): LeakyReLU(negative_slope=0.01)
      (2): Linear(in_features=100, out_features=100, bias=True)
      (3): LeakyReLU(negative_slope=0.01)
      (4): Linear(in_features=100, out_features=128, bias=True)
      (5): LeakyReLU(negative_slope=0.01)
    )
    (cnn_layer): Sequential(
      (0): Upsample(scale_factor=4.0, mode='nearest')
      (1): ConvTranspose2d(128, 128, kernel_size=(3, 3), stride=(1, 1), padding=(1, 1))
      (2): ReLU()
      (3): BatchNorm2d(128, eps=1e-05, momentum=0.1, affine=True, track_running_stats=True)
      (4): ConvTranspose2d(128, 64, kernel_size=(3, 3), stride=(1, 1), padding=(1, 1))
      (5): ReLU()
      (6): BatchNorm2d(64, eps=1e-05, momentum=0.1, affine=True, track_running_stats=True)
      (7): ConvTranspose2d(64, 32, kernel_size=(3, 3), stride=(1, 1))
      (8): ReLU()
      (9): BatchNorm2d(32, eps=1e-05, momentum=0.1, affine=True, track_running_stats=True)
      (10): ConvTranspose2d(32, 1, kernel_size=(3, 3), stride=(1, 1))
      (11): ReLU()
      (12): BatchNorm2d(1, eps=1e-05, momentum=0.1, affine=True, track_running_stats=True)
    )
    (out_layer): Sequential(
      (0): Linear(in_features=64, out_features=100, bias=True)
      (1): LeakyReLU(negative_slope=0.01)
    )
  )
)
Number of parameters: 535730
LinearQuantizer(
  (encoder_layer): Linear(in_features=100, out_features=2, bias=True)
  (quantizer_layer): QuantizerLayer()
  (decoder_layer): Linear(in_features=2, out_features=100, bias=True)
)
Number of parameters: 511
  0%|          | 1/500 [00:38<5:17:14, 38.15s/it]
 0.001 -> 0.001
Epoch: 0 	Training Loss: -0.0016447946 	Validation Loss: -0.0066476244
Validation loss same/decreased (inf --> -0.0066476244)... saving model.
 0.001 -> 0.001
Epoch: 1 	Training Loss: -0.0016769958 	Validation Loss: -0.0067686475
Validation loss same/decreased (-0.0066476244 --> -0.0067686475)... saving model.
…
Epoch: 396 	Training Loss: -0.0018275174 	Validation Loss: -0.0074593405
 1.0000000000000002e-06 -> 1.0000000000000002e-06
Epoch: 397 	Training Loss: -0.0018275221 	Validation Loss: -0.0074593489
 80%|███████▉  | 399/500 [2:48:38<41:23, 24.59s/it]
 1.0000000000000002e-06 -> 1.0000000000000002e-06
Epoch: 398 	Training Loss: -0.0018275263 	Validation Loss: -0.0074593573
 1.0000000000000002e-06 -> 1.0000000000000002e-06
Epoch: 399 	Training Loss: -0.0018275303 	Validation Loss: -0.0074593655
No Validation early stop loss decrease (-0.7464779017 --> -0.7459648689). Early Stopping
AutoQEncoder(
  (encoder_layer): EncoderLayer(
    (cnn_layer): Sequential(
      (0): Conv2d(5, 32, kernel_size=(3, 3), stride=(1, 1), padding=(1, 1), padding_mode=circular)
      (1): BatchNorm2d(32, eps=1e-05, momentum=0.1, affine=True, track_running_stats=True)
      (2): ReLU()
      (3): Conv2d(32, 64, kernel_size=(3, 3), stride=(1, 1))
      (4): BatchNorm2d(64, eps=1e-05, momentum=0.1, affine=True, track_running_stats=True)
      (5): ReLU()
      (6): Conv2d(64, 128, kernel_size=(3, 3), stride=(1, 1))
      (7): BatchNorm2d(128, eps=1e-05, momentum=0.1, affine=True, track_running_stats=True)
      (8): ReLU()
      (9): Conv2d(128, 128, kernel_size=(3, 3), stride=(1, 1))
      (10): BatchNorm2d(128, eps=1e-05, momentum=0.1, affine=True, track_running_stats=True)
      (11): ReLU()
      (12): MaxPool2d(kernel_size=4, stride=4, padding=0, dilation=1, ceil_mode=False)
    )
    (linear_encoder): Sequential(
      (0): Dropout(p=0.5, inplace=False)
      (1): Linear(in_features=128, out_features=100, bias=True)
      (2): LeakyReLU(negative_slope=0.01)
      (3): Linear(in_features=100, out_features=100, bias=True)
      (4): LeakyReLU(negative_slope=0.01)
      (5): Linear(in_features=100, out_features=2, bias=True)
      (6): LeakyReLU(negative_slope=0.01)
    )
  )
  (quantizer_layer): QuantizerLayer()
  (decoder_layer): DecoderLayer(
    (linear_decoder): Sequential(
      (0): Linear(in_features=2, out_features=100, bias=True)
      (1): LeakyReLU(negative_slope=0.01)
      (2): Linear(in_features=100, out_features=100, bias=True)
      (3): LeakyReLU(negative_slope=0.01)
      (4): Linear(in_features=100, out_features=128, bias=True)
      (5): LeakyReLU(negative_slope=0.01)
    )
    (cnn_layer): Sequential(
      (0): Upsample(scale_factor=4.0, mode='nearest')
      (1): ConvTranspose2d(128, 128, kernel_size=(3, 3), stride=(1, 1), padding=(1, 1))
      (2): ReLU()
      (3): BatchNorm2d(128, eps=1e-05, momentum=0.1, affine=True, track_running_stats=True)
      (4): ConvTranspose2d(128, 64, kernel_size=(3, 3), stride=(1, 1), padding=(1, 1))
      (5): ReLU()
      (6): BatchNorm2d(64, eps=1e-05, momentum=0.1, affine=True, track_running_stats=True)
      (7): ConvTranspose2d(64, 32, kernel_size=(3, 3), stride=(1, 1))
      (8): ReLU()
      (9): BatchNorm2d(32, eps=1e-05, momentum=0.1, affine=True, track_running_stats=True)
      (10): ConvTranspose2d(32, 1, kernel_size=(3, 3), stride=(1, 1))
      (11): ReLU()
      (12): BatchNorm2d(1, eps=1e-05, momentum=0.1, affine=True, track_running_stats=True)
    )
    (out_layer): Sequential(
      (0): Linear(in_features=64, out_features=100, bias=True)
      (1): LeakyReLU(negative_slope=0.01)
    )
  )
)
Number of parameters: 535730
 80%|███████▉  | 399/500 [2:49:03<42:47, 25.42s/it]
Training Model parameters:
{'C_code_words': 4,
 'N_RIS': 100,
 'Nc_RIS': 2,
 'Nc_RIS_compressed_ratio': 0.02,
 'Nh_RIS': 10,
 'Nw_RIS': 10,
 'Q_bits': 2,
 'batch_size': 256,
 'epoch_echo': True,
 'epoch_val': 100,
 'epochs': 500,
 'lr': 0.001,
 'mc_runs': 1000000,
 'momentum': 0.9,
 'overall_bits': 4,
 'snr_dB': -5,
 'step_size': 10,
 'train_test_split': 0.8,
 'train_val_split': 0.8}
Achievable Rate (bps/Hz) using RIS phase shifts with Transmit power SNR -5 dB:
optimum:  12.526344299316406
AQE net:  6.18002462387085
lin Q:    6.034292221069336
random:   5.529932498931885
AutoQEncoder(
  (encoder_layer): EncoderLayer(
    (cnn_layer): Sequential(
      (0): Conv2d(5, 32, kernel_size=(3, 3), stride=(1, 1), padding=(1, 1), padding_mode=circular)
      (1): BatchNorm2d(32, eps=1e-05, momentum=0.1, affine=True, track_running_stats=True)
      (2): ReLU()
      (3): Conv2d(32, 64, kernel_size=(3, 3), stride=(1, 1))
      (4): BatchNorm2d(64, eps=1e-05, momentum=0.1, affine=True, track_running_stats=True)
      (5): ReLU()
      (6): Conv2d(64, 128, kernel_size=(3, 3), stride=(1, 1))
      (7): BatchNorm2d(128, eps=1e-05, momentum=0.1, affine=True, track_running_stats=True)
      (8): ReLU()
      (9): Conv2d(128, 128, kernel_size=(3, 3), stride=(1, 1))
      (10): BatchNorm2d(128, eps=1e-05, momentum=0.1, affine=True, track_running_stats=True)
      (11): ReLU()
      (12): MaxPool2d(kernel_size=4, stride=4, padding=0, dilation=1, ceil_mode=False)
    )
    (linear_encoder): Sequential(
      (0): Dropout(p=0.5, inplace=False)
      (1): Linear(in_features=128, out_features=100, bias=True)
      (2): LeakyReLU(negative_slope=0.01)
      (3): Linear(in_features=100, out_features=100, bias=True)
      (4): LeakyReLU(negative_slope=0.01)
      (5): Linear(in_features=100, out_features=4, bias=True)
      (6): LeakyReLU(negative_slope=0.01)
    )
  )
  (quantizer_layer): QuantizerLayer()
  (decoder_layer): DecoderLayer(
    (linear_decoder): Sequential(
      (0): Linear(in_features=4, out_features=100, bias=True)
      (1): LeakyReLU(negative_slope=0.01)
      (2): Linear(in_features=100, out_features=100, bias=True)
      (3): LeakyReLU(negative_slope=0.01)
      (4): Linear(in_features=100, out_features=128, bias=True)
      (5): LeakyReLU(negative_slope=0.01)
    )
    (cnn_layer): Sequential(
      (0): Upsample(scale_factor=4.0, mode='nearest')
      (1): ConvTranspose2d(128, 128, kernel_size=(3, 3), stride=(1, 1), padding=(1, 1))
      (2): ReLU()
      (3): BatchNorm2d(128, eps=1e-05, momentum=0.1, affine=True, track_running_stats=True)
      (4): ConvTranspose2d(128, 64, kernel_size=(3, 3), stride=(1, 1), padding=(1, 1))
      (5): ReLU()
      (6): BatchNorm2d(64, eps=1e-05, momentum=0.1, affine=True, track_running_stats=True)
      (7): ConvTranspose2d(64, 32, kernel_size=(3, 3), stride=(1, 1))
      (8): ReLU()
      (9): BatchNorm2d(32, eps=1e-05, momentum=0.1, affine=True, track_running_stats=True)
      (10): ConvTranspose2d(32, 1, kernel_size=(3, 3), stride=(1, 1))
      (11): ReLU()
      (12): BatchNorm2d(1, eps=1e-05, momentum=0.1, affine=True, track_running_stats=True)
    )
    (out_layer): Sequential(
      (0): Linear(in_features=64, out_features=100, bias=True)
      (1): LeakyReLU(negative_slope=0.01)
    )
  )
)
Number of parameters: 536132
LinearQuantizer(
  (encoder_layer): Linear(in_features=100, out_features=4, bias=True)
  (quantizer_layer): QuantizerLayer()
  (decoder_layer): Linear(in_features=4, out_features=100, bias=True)
)
Number of parameters: 913
  0%|          | 1/500 [00:37<5:12:09, 37.53s/it]
 0.001 -> 0.001
Epoch: 0 	Training Loss: -0.0017746032 	Validation Loss: -0.0069093038
Validation loss same/decreased (inf --> -0.0069093038)... saving model.
 0.001 -> 0.001
Epoch: 1 	Training Loss: -0.0018291296 	Validation Loss: -0.0070021309
Validation loss same/decreased (-0.0069093038 --> -0.0070021309)... saving model.
…
Epoch: 296 	Training Loss: -0.0018695251 	Validation Loss: -0.0070086553
 1.0000000000000002e-06 -> 1.0000000000000002e-06
Epoch: 297 	Training Loss: -0.0018695240 	Validation Loss: -0.0070085970
 60%|█████▉    | 299/500 [2:03:34<1:22:42, 24.69s/it]
 1.0000000000000002e-06 -> 1.0000000000000002e-06
Epoch: 298 	Training Loss: -0.0018695229 	Validation Loss: -0.0070085389
 1.0000000000000002e-06 -> 1.0000000000000002e-06
Epoch: 299 	Training Loss: -0.0018695219 	Validation Loss: -0.0070084811
No Validation early stop loss decrease (-0.7402305391 --> -0.7026965491). Early Stopping
AutoQEncoder(
  (encoder_layer): EncoderLayer(
    (cnn_layer): Sequential(
      (0): Conv2d(5, 32, kernel_size=(3, 3), stride=(1, 1), padding=(1, 1), padding_mode=circular)
      (1): BatchNorm2d(32, eps=1e-05, momentum=0.1, affine=True, track_running_stats=True)
      (2): ReLU()
      (3): Conv2d(32, 64, kernel_size=(3, 3), stride=(1, 1))
      (4): BatchNorm2d(64, eps=1e-05, momentum=0.1, affine=True, track_running_stats=True)
      (5): ReLU()
      (6): Conv2d(64, 128, kernel_size=(3, 3), stride=(1, 1))
      (7): BatchNorm2d(128, eps=1e-05, momentum=0.1, affine=True, track_running_stats=True)
      (8): ReLU()
      (9): Conv2d(128, 128, kernel_size=(3, 3), stride=(1, 1))
      (10): BatchNorm2d(128, eps=1e-05, momentum=0.1, affine=True, track_running_stats=True)
      (11): ReLU()
      (12): MaxPool2d(kernel_size=4, stride=4, padding=0, dilation=1, ceil_mode=False)
    )
    (linear_encoder): Sequential(
      (0): Dropout(p=0.5, inplace=False)
      (1): Linear(in_features=128, out_features=100, bias=True)
      (2): LeakyReLU(negative_slope=0.01)
      (3): Linear(in_features=100, out_features=100, bias=True)
      (4): LeakyReLU(negative_slope=0.01)
      (5): Linear(in_features=100, out_features=4, bias=True)
      (6): LeakyReLU(negative_slope=0.01)
    )
  )
  (quantizer_layer): QuantizerLayer()
  (decoder_layer): DecoderLayer(
    (linear_decoder): Sequential(
      (0): Linear(in_features=4, out_features=100, bias=True)
      (1): LeakyReLU(negative_slope=0.01)
      (2): Linear(in_features=100, out_features=100, bias=True)
      (3): LeakyReLU(negative_slope=0.01)
      (4): Linear(in_features=100, out_features=128, bias=True)
      (5): LeakyReLU(negative_slope=0.01)
    )
    (cnn_layer): Sequential(
      (0): Upsample(scale_factor=4.0, mode='nearest')
      (1): ConvTranspose2d(128, 128, kernel_size=(3, 3), stride=(1, 1), padding=(1, 1))
      (2): ReLU()
      (3): BatchNorm2d(128, eps=1e-05, momentum=0.1, affine=True, track_running_stats=True)
      (4): ConvTranspose2d(128, 64, kernel_size=(3, 3), stride=(1, 1), padding=(1, 1))
      (5): ReLU()
      (6): BatchNorm2d(64, eps=1e-05, momentum=0.1, affine=True, track_running_stats=True)
      (7): ConvTranspose2d(64, 32, kernel_size=(3, 3), stride=(1, 1))
      (8): ReLU()
      (9): BatchNorm2d(32, eps=1e-05, momentum=0.1, affine=True, track_running_stats=True)
      (10): ConvTranspose2d(32, 1, kernel_size=(3, 3), stride=(1, 1))
      (11): ReLU()
      (12): BatchNorm2d(1, eps=1e-05, momentum=0.1, affine=True, track_running_stats=True)
    )
    (out_layer): Sequential(
      (0): Linear(in_features=64, out_features=100, bias=True)
      (1): LeakyReLU(negative_slope=0.01)
    )
  )
)
Number of parameters: 536132
 60%|█████▉    | 299/500 [2:03:59<1:23:21, 24.88s/it]
Training Model parameters:
{'C_code_words': 4,
 'N_RIS': 100,
 'Nc_RIS': 4,
 'Nc_RIS_compressed_ratio': 0.04,
 'Nh_RIS': 10,
 'Nw_RIS': 10,
 'Q_bits': 2,
 'batch_size': 256,
 'epoch_echo': True,
 'epoch_val': 100,
 'epochs': 500,
 'lr': 0.001,
 'mc_runs': 1000000,
 'momentum': 0.9,
 'overall_bits': 8,
 'snr_dB': -5,
 'step_size': 10,
 'train_test_split': 0.8,
 'train_val_split': 0.8}
Achievable Rate (bps/Hz) using RIS phase shifts with Transmit power SNR -5 dB:
optimum:  12.526344299316406
AQE net:  6.238455295562744
lin Q:    6.197622299194336
random:   5.525300979614258
AutoQEncoder(
  (encoder_layer): EncoderLayer(
    (cnn_layer): Sequential(
      (0): Conv2d(5, 32, kernel_size=(3, 3), stride=(1, 1), padding=(1, 1), padding_mode=circular)
      (1): BatchNorm2d(32, eps=1e-05, momentum=0.1, affine=True, track_running_stats=True)
      (2): ReLU()
      (3): Conv2d(32, 64, kernel_size=(3, 3), stride=(1, 1))
      (4): BatchNorm2d(64, eps=1e-05, momentum=0.1, affine=True, track_running_stats=True)
      (5): ReLU()
      (6): Conv2d(64, 128, kernel_size=(3, 3), stride=(1, 1))
      (7): BatchNorm2d(128, eps=1e-05, momentum=0.1, affine=True, track_running_stats=True)
      (8): ReLU()
      (9): Conv2d(128, 128, kernel_size=(3, 3), stride=(1, 1))
      (10): BatchNorm2d(128, eps=1e-05, momentum=0.1, affine=True, track_running_stats=True)
      (11): ReLU()
      (12): MaxPool2d(kernel_size=4, stride=4, padding=0, dilation=1, ceil_mode=False)
    )
    (linear_encoder): Sequential(
      (0): Dropout(p=0.5, inplace=False)
      (1): Linear(in_features=128, out_features=100, bias=True)
      (2): LeakyReLU(negative_slope=0.01)
      (3): Linear(in_features=100, out_features=100, bias=True)
      (4): LeakyReLU(negative_slope=0.01)
      (5): Linear(in_features=100, out_features=8, bias=True)
      (6): LeakyReLU(negative_slope=0.01)
    )
  )
  (quantizer_layer): QuantizerLayer()
  (decoder_layer): DecoderLayer(
    (linear_decoder): Sequential(
      (0): Linear(in_features=8, out_features=100, bias=True)
      (1): LeakyReLU(negative_slope=0.01)
      (2): Linear(in_features=100, out_features=100, bias=True)
      (3): LeakyReLU(negative_slope=0.01)
      (4): Linear(in_features=100, out_features=128, bias=True)
      (5): LeakyReLU(negative_slope=0.01)
    )
    (cnn_layer): Sequential(
      (0): Upsample(scale_factor=4.0, mode='nearest')
      (1): ConvTranspose2d(128, 128, kernel_size=(3, 3), stride=(1, 1), padding=(1, 1))
      (2): ReLU()
      (3): BatchNorm2d(128, eps=1e-05, momentum=0.1, affine=True, track_running_stats=True)
      (4): ConvTranspose2d(128, 64, kernel_size=(3, 3), stride=(1, 1), padding=(1, 1))
      (5): ReLU()
      (6): BatchNorm2d(64, eps=1e-05, momentum=0.1, affine=True, track_running_stats=True)
      (7): ConvTranspose2d(64, 32, kernel_size=(3, 3), stride=(1, 1))
      (8): ReLU()
      (9): BatchNorm2d(32, eps=1e-05, momentum=0.1, affine=True, track_running_stats=True)
      (10): ConvTranspose2d(32, 1, kernel_size=(3, 3), stride=(1, 1))
      (11): ReLU()
      (12): BatchNorm2d(1, eps=1e-05, momentum=0.1, affine=True, track_running_stats=True)
    )
    (out_layer): Sequential(
      (0): Linear(in_features=64, out_features=100, bias=True)
      (1): LeakyReLU(negative_slope=0.01)
    )
  )
)
Number of parameters: 536936
LinearQuantizer(
  (encoder_layer): Linear(in_features=100, out_features=8, bias=True)
  (quantizer_layer): QuantizerLayer()
  (decoder_layer): Linear(in_features=8, out_features=100, bias=True)
)
Number of parameters: 1717
  0%|          | 1/500 [00:37<5:09:15, 37.19s/it]
 0.001 -> 0.001
Epoch: 0 	Training Loss: -0.0017522049 	Validation Loss: -0.0066662648
Validation loss same/decreased (inf --> -0.0066662648)... saving model.
 0.001 -> 0.001
Epoch: 1 	Training Loss: -0.0017720979 	Validation Loss: -0.0068541590
Validation loss same/decreased (-0.0066662648 --> -0.0068541590)... saving model.
…
Epoch: 196 	Training Loss: -0.0019723046 	Validation Loss: -0.0074883721
 1.0000000000000002e-06 -> 1.0000000000000002e-06
Epoch: 197 	Training Loss: -0.0019723038 	Validation Loss: -0.0074883492
 40%|███▉      | 199/500 [1:21:46<2:03:49, 24.68s/it]
 1.0000000000000002e-06 -> 1.0000000000000002e-06
Epoch: 198 	Training Loss: -0.0019723030 	Validation Loss: -0.0074883263
 1.0000000000000002e-06 -> 1.0000000000000002e-06
Epoch: 199 	Training Loss: -0.0019723023 	Validation Loss: -0.0074883034
No Validation early stop loss decrease (-0.7519686451 --> -0.7489114798). Early Stopping
AutoQEncoder(
  (encoder_layer): EncoderLayer(
    (cnn_layer): Sequential(
      (0): Conv2d(5, 32, kernel_size=(3, 3), stride=(1, 1), padding=(1, 1), padding_mode=circular)
      (1): BatchNorm2d(32, eps=1e-05, momentum=0.1, affine=True, track_running_stats=True)
      (2): ReLU()
      (3): Conv2d(32, 64, kernel_size=(3, 3), stride=(1, 1))
      (4): BatchNorm2d(64, eps=1e-05, momentum=0.1, affine=True, track_running_stats=True)
      (5): ReLU()
      (6): Conv2d(64, 128, kernel_size=(3, 3), stride=(1, 1))
      (7): BatchNorm2d(128, eps=1e-05, momentum=0.1, affine=True, track_running_stats=True)
      (8): ReLU()
      (9): Conv2d(128, 128, kernel_size=(3, 3), stride=(1, 1))
      (10): BatchNorm2d(128, eps=1e-05, momentum=0.1, affine=True, track_running_stats=True)
      (11): ReLU()
      (12): MaxPool2d(kernel_size=4, stride=4, padding=0, dilation=1, ceil_mode=False)
    )
    (linear_encoder): Sequential(
      (0): Dropout(p=0.5, inplace=False)
      (1): Linear(in_features=128, out_features=100, bias=True)
      (2): LeakyReLU(negative_slope=0.01)
      (3): Linear(in_features=100, out_features=100, bias=True)
      (4): LeakyReLU(negative_slope=0.01)
      (5): Linear(in_features=100, out_features=8, bias=True)
      (6): LeakyReLU(negative_slope=0.01)
    )
  )
  (quantizer_layer): QuantizerLayer()
  (decoder_layer): DecoderLayer(
    (linear_decoder): Sequential(
      (0): Linear(in_features=8, out_features=100, bias=True)
      (1): LeakyReLU(negative_slope=0.01)
      (2): Linear(in_features=100, out_features=100, bias=True)
      (3): LeakyReLU(negative_slope=0.01)
      (4): Linear(in_features=100, out_features=128, bias=True)
      (5): LeakyReLU(negative_slope=0.01)
    )
    (cnn_layer): Sequential(
      (0): Upsample(scale_factor=4.0, mode='nearest')
      (1): ConvTranspose2d(128, 128, kernel_size=(3, 3), stride=(1, 1), padding=(1, 1))
      (2): ReLU()
      (3): BatchNorm2d(128, eps=1e-05, momentum=0.1, affine=True, track_running_stats=True)
      (4): ConvTranspose2d(128, 64, kernel_size=(3, 3), stride=(1, 1), padding=(1, 1))
      (5): ReLU()
      (6): BatchNorm2d(64, eps=1e-05, momentum=0.1, affine=True, track_running_stats=True)
      (7): ConvTranspose2d(64, 32, kernel_size=(3, 3), stride=(1, 1))
      (8): ReLU()
      (9): BatchNorm2d(32, eps=1e-05, momentum=0.1, affine=True, track_running_stats=True)
      (10): ConvTranspose2d(32, 1, kernel_size=(3, 3), stride=(1, 1))
      (11): ReLU()
      (12): BatchNorm2d(1, eps=1e-05, momentum=0.1, affine=True, track_running_stats=True)
    )
    (out_layer): Sequential(
      (0): Linear(in_features=64, out_features=100, bias=True)
      (1): LeakyReLU(negative_slope=0.01)
    )
  )
)
Number of parameters: 536936
 40%|███▉      | 199/500 [1:22:11<2:04:19, 24.78s/it]
Training Model parameters:
{'C_code_words': 4,
 'N_RIS': 100,
 'Nc_RIS': 8,
 'Nc_RIS_compressed_ratio': 0.08,
 'Nh_RIS': 10,
 'Nw_RIS': 10,
 'Q_bits': 2,
 'batch_size': 256,
 'epoch_echo': True,
 'epoch_val': 100,
 'epochs': 500,
 'lr': 0.001,
 'mc_runs': 1000000,
 'momentum': 0.9,
 'overall_bits': 16,
 'snr_dB': -5,
 'step_size': 10,
 'train_test_split': 0.8,
 'train_val_split': 0.8}
Achievable Rate (bps/Hz) using RIS phase shifts with Transmit power SNR -5 dB:
optimum:  12.526344299316406
AQE net:  6.281079292297363
lin Q:    6.701536178588867
random:   5.519479751586914
AutoQEncoder(
  (encoder_layer): EncoderLayer(
    (cnn_layer): Sequential(
      (0): Conv2d(5, 32, kernel_size=(3, 3), stride=(1, 1), padding=(1, 1), padding_mode=circular)
      (1): BatchNorm2d(32, eps=1e-05, momentum=0.1, affine=True, track_running_stats=True)
      (2): ReLU()
      (3): Conv2d(32, 64, kernel_size=(3, 3), stride=(1, 1))
      (4): BatchNorm2d(64, eps=1e-05, momentum=0.1, affine=True, track_running_stats=True)
      (5): ReLU()
      (6): Conv2d(64, 128, kernel_size=(3, 3), stride=(1, 1))
      (7): BatchNorm2d(128, eps=1e-05, momentum=0.1, affine=True, track_running_stats=True)
      (8): ReLU()
      (9): Conv2d(128, 128, kernel_size=(3, 3), stride=(1, 1))
      (10): BatchNorm2d(128, eps=1e-05, momentum=0.1, affine=True, track_running_stats=True)
      (11): ReLU()
      (12): MaxPool2d(kernel_size=4, stride=4, padding=0, dilation=1, ceil_mode=False)
    )
    (linear_encoder): Sequential(
      (0): Dropout(p=0.5, inplace=False)
      (1): Linear(in_features=128, out_features=100, bias=True)
      (2): LeakyReLU(negative_slope=0.01)
      (3): Linear(in_features=100, out_features=100, bias=True)
      (4): LeakyReLU(negative_slope=0.01)
      (5): Linear(in_features=100, out_features=16, bias=True)
      (6): LeakyReLU(negative_slope=0.01)
    )
  )
  (quantizer_layer): QuantizerLayer()
  (decoder_layer): DecoderLayer(
    (linear_decoder): Sequential(
      (0): Linear(in_features=16, out_features=100, bias=True)
      (1): LeakyReLU(negative_slope=0.01)
      (2): Linear(in_features=100, out_features=100, bias=True)
      (3): LeakyReLU(negative_slope=0.01)
      (4): Linear(in_features=100, out_features=128, bias=True)
      (5): LeakyReLU(negative_slope=0.01)
    )
    (cnn_layer): Sequential(
      (0): Upsample(scale_factor=4.0, mode='nearest')
      (1): ConvTranspose2d(128, 128, kernel_size=(3, 3), stride=(1, 1), padding=(1, 1))
      (2): ReLU()
      (3): BatchNorm2d(128, eps=1e-05, momentum=0.1, affine=True, track_running_stats=True)
      (4): ConvTranspose2d(128, 64, kernel_size=(3, 3), stride=(1, 1), padding=(1, 1))
      (5): ReLU()
      (6): BatchNorm2d(64, eps=1e-05, momentum=0.1, affine=True, track_running_stats=True)
      (7): ConvTranspose2d(64, 32, kernel_size=(3, 3), stride=(1, 1))
      (8): ReLU()
      (9): BatchNorm2d(32, eps=1e-05, momentum=0.1, affine=True, track_running_stats=True)
      (10): ConvTranspose2d(32, 1, kernel_size=(3, 3), stride=(1, 1))
      (11): ReLU()
      (12): BatchNorm2d(1, eps=1e-05, momentum=0.1, affine=True, track_running_stats=True)
    )
    (out_layer): Sequential(
      (0): Linear(in_features=64, out_features=100, bias=True)
      (1): LeakyReLU(negative_slope=0.01)
    )
  )
)
Number of parameters: 538544
LinearQuantizer(
  (encoder_layer): Linear(in_features=100, out_features=16, bias=True)
  (quantizer_layer): QuantizerLayer()
  (decoder_layer): Linear(in_features=16, out_features=100, bias=True)
)
Number of parameters: 3325
  0%|          | 1/500 [00:37<5:15:31, 37.94s/it]
 0.001 -> 0.001
Epoch: 0 	Training Loss: -0.0016261335 	Validation Loss: -0.0067485881
Validation loss same/decreased (inf --> -0.0067485881)... saving model.
 0.001 -> 0.001
Epoch: 1 	Training Loss: -0.0017730862 	Validation Loss: -0.0067989082
Validation loss same/decreased (-0.0067485881 --> -0.0067989082)... saving model.
…
Epoch: 396 	Training Loss: -0.0020065108 	Validation Loss: -0.0075330124
 1.0000000000000004e-08 -> 1.0000000000000004e-08
Epoch: 397 	Training Loss: -0.0020065108 	Validation Loss: -0.0075330125
 80%|███████▉  | 399/500 [2:48:44<42:21, 25.16s/it]
 1.0000000000000004e-08 -> 1.0000000000000004e-08
Epoch: 398 	Training Loss: -0.0020065108 	Validation Loss: -0.0075330126
 1.0000000000000004e-08 -> 1.0000000000000004e-08
Epoch: 399 	Training Loss: -0.0020065108 	Validation Loss: -0.0075330127
No Validation early stop loss decrease (-0.7533778651 --> -0.7533006924). Early Stopping
AutoQEncoder(
  (encoder_layer): EncoderLayer(
    (cnn_layer): Sequential(
      (0): Conv2d(5, 32, kernel_size=(3, 3), stride=(1, 1), padding=(1, 1), padding_mode=circular)
      (1): BatchNorm2d(32, eps=1e-05, momentum=0.1, affine=True, track_running_stats=True)
      (2): ReLU()
      (3): Conv2d(32, 64, kernel_size=(3, 3), stride=(1, 1))
      (4): BatchNorm2d(64, eps=1e-05, momentum=0.1, affine=True, track_running_stats=True)
      (5): ReLU()
      (6): Conv2d(64, 128, kernel_size=(3, 3), stride=(1, 1))
      (7): BatchNorm2d(128, eps=1e-05, momentum=0.1, affine=True, track_running_stats=True)
      (8): ReLU()
      (9): Conv2d(128, 128, kernel_size=(3, 3), stride=(1, 1))
      (10): BatchNorm2d(128, eps=1e-05, momentum=0.1, affine=True, track_running_stats=True)
      (11): ReLU()
      (12): MaxPool2d(kernel_size=4, stride=4, padding=0, dilation=1, ceil_mode=False)
    )
    (linear_encoder): Sequential(
      (0): Dropout(p=0.5, inplace=False)
      (1): Linear(in_features=128, out_features=100, bias=True)
      (2): LeakyReLU(negative_slope=0.01)
      (3): Linear(in_features=100, out_features=100, bias=True)
      (4): LeakyReLU(negative_slope=0.01)
      (5): Linear(in_features=100, out_features=16, bias=True)
      (6): LeakyReLU(negative_slope=0.01)
    )
  )
  (quantizer_layer): QuantizerLayer()
  (decoder_layer): DecoderLayer(
    (linear_decoder): Sequential(
      (0): Linear(in_features=16, out_features=100, bias=True)
      (1): LeakyReLU(negative_slope=0.01)
      (2): Linear(in_features=100, out_features=100, bias=True)
      (3): LeakyReLU(negative_slope=0.01)
      (4): Linear(in_features=100, out_features=128, bias=True)
      (5): LeakyReLU(negative_slope=0.01)
    )
    (cnn_layer): Sequential(
      (0): Upsample(scale_factor=4.0, mode='nearest')
      (1): ConvTranspose2d(128, 128, kernel_size=(3, 3), stride=(1, 1), padding=(1, 1))
      (2): ReLU()
      (3): BatchNorm2d(128, eps=1e-05, momentum=0.1, affine=True, track_running_stats=True)
      (4): ConvTranspose2d(128, 64, kernel_size=(3, 3), stride=(1, 1), padding=(1, 1))
      (5): ReLU()
      (6): BatchNorm2d(64, eps=1e-05, momentum=0.1, affine=True, track_running_stats=True)
      (7): ConvTranspose2d(64, 32, kernel_size=(3, 3), stride=(1, 1))
      (8): ReLU()
      (9): BatchNorm2d(32, eps=1e-05, momentum=0.1, affine=True, track_running_stats=True)
      (10): ConvTranspose2d(32, 1, kernel_size=(3, 3), stride=(1, 1))
      (11): ReLU()
      (12): BatchNorm2d(1, eps=1e-05, momentum=0.1, affine=True, track_running_stats=True)
    )
    (out_layer): Sequential(
      (0): Linear(in_features=64, out_features=100, bias=True)
      (1): LeakyReLU(negative_slope=0.01)
    )
  )
)
Number of parameters: 538544
 80%|███████▉  | 399/500 [2:49:11<42:49, 25.44s/it]
Training Model parameters:
{'C_code_words': 4,
 'N_RIS': 100,
 'Nc_RIS': 16,
 'Nc_RIS_compressed_ratio': 0.16,
 'Nh_RIS': 10,
 'Nw_RIS': 10,
 'Q_bits': 2,
 'batch_size': 256,
 'epoch_echo': True,
 'epoch_val': 100,
 'epochs': 500,
 'lr': 0.001,
 'mc_runs': 1000000,
 'momentum': 0.9,
 'overall_bits': 32,
 'snr_dB': -5,
 'step_size': 10,
 'train_test_split': 0.8,
 'train_val_split': 0.8}
Achievable Rate (bps/Hz) using RIS phase shifts with Transmit power SNR -5 dB:
optimum:  12.526344299316406
AQE net:  6.878780364990234
lin Q:    7.326818466186523
random:   5.5173773765563965
AutoQEncoder(
  (encoder_layer): EncoderLayer(
    (cnn_layer): Sequential(
      (0): Conv2d(5, 32, kernel_size=(3, 3), stride=(1, 1), padding=(1, 1), padding_mode=circular)
      (1): BatchNorm2d(32, eps=1e-05, momentum=0.1, affine=True, track_running_stats=True)
      (2): ReLU()
      (3): Conv2d(32, 64, kernel_size=(3, 3), stride=(1, 1))
      (4): BatchNorm2d(64, eps=1e-05, momentum=0.1, affine=True, track_running_stats=True)
      (5): ReLU()
      (6): Conv2d(64, 128, kernel_size=(3, 3), stride=(1, 1))
      (7): BatchNorm2d(128, eps=1e-05, momentum=0.1, affine=True, track_running_stats=True)
      (8): ReLU()
      (9): Conv2d(128, 128, kernel_size=(3, 3), stride=(1, 1))
      (10): BatchNorm2d(128, eps=1e-05, momentum=0.1, affine=True, track_running_stats=True)
      (11): ReLU()
      (12): MaxPool2d(kernel_size=4, stride=4, padding=0, dilation=1, ceil_mode=False)
    )
    (linear_encoder): Sequential(
      (0): Dropout(p=0.5, inplace=False)
      (1): Linear(in_features=128, out_features=100, bias=True)
      (2): LeakyReLU(negative_slope=0.01)
      (3): Linear(in_features=100, out_features=100, bias=True)
      (4): LeakyReLU(negative_slope=0.01)
      (5): Linear(in_features=100, out_features=32, bias=True)
      (6): LeakyReLU(negative_slope=0.01)
    )
  )
  (quantizer_layer): QuantizerLayer()
  (decoder_layer): DecoderLayer(
    (linear_decoder): Sequential(
      (0): Linear(in_features=32, out_features=100, bias=True)
      (1): LeakyReLU(negative_slope=0.01)
      (2): Linear(in_features=100, out_features=100, bias=True)
      (3): LeakyReLU(negative_slope=0.01)
      (4): Linear(in_features=100, out_features=128, bias=True)
      (5): LeakyReLU(negative_slope=0.01)
    )
    (cnn_layer): Sequential(
      (0): Upsample(scale_factor=4.0, mode='nearest')
      (1): ConvTranspose2d(128, 128, kernel_size=(3, 3), stride=(1, 1), padding=(1, 1))
      (2): ReLU()
      (3): BatchNorm2d(128, eps=1e-05, momentum=0.1, affine=True, track_running_stats=True)
      (4): ConvTranspose2d(128, 64, kernel_size=(3, 3), stride=(1, 1), padding=(1, 1))
      (5): ReLU()
      (6): BatchNorm2d(64, eps=1e-05, momentum=0.1, affine=True, track_running_stats=True)
      (7): ConvTranspose2d(64, 32, kernel_size=(3, 3), stride=(1, 1))
      (8): ReLU()
      (9): BatchNorm2d(32, eps=1e-05, momentum=0.1, affine=True, track_running_stats=True)
      (10): ConvTranspose2d(32, 1, kernel_size=(3, 3), stride=(1, 1))
      (11): ReLU()
      (12): BatchNorm2d(1, eps=1e-05, momentum=0.1, affine=True, track_running_stats=True)
    )
    (out_layer): Sequential(
      (0): Linear(in_features=64, out_features=100, bias=True)
      (1): LeakyReLU(negative_slope=0.01)
    )
  )
)
Number of parameters: 541760
LinearQuantizer(
  (encoder_layer): Linear(in_features=100, out_features=32, bias=True)
  (quantizer_layer): QuantizerLayer()
  (decoder_layer): Linear(in_features=32, out_features=100, bias=True)
)
Number of parameters: 6541
  0%|          | 1/500 [00:41<5:41:15, 41.03s/it]
 0.001 -> 0.001
Epoch: 0 	Training Loss: -0.0016650360 	Validation Loss: -0.0068358936
Validation loss same/decreased (inf --> -0.0068358936)... saving model.
 0.001 -> 0.001
Epoch: 1 	Training Loss: -0.0017489643 	Validation Loss: -0.0068861899
Validation loss same/decreased (-0.0068358936 --> -0.0068861899)... saving model.
…
Epoch: 196 	Training Loss: -0.0021833794 	Validation Loss: -0.0060897644
 1.0000000000000002e-06 -> 1.0000000000000002e-06
Epoch: 197 	Training Loss: -0.0021833795 	Validation Loss: -0.0060897130
 40%|███▉      | 199/500 [1:26:01<2:08:50, 25.68s/it]
 1.0000000000000002e-06 -> 1.0000000000000002e-06
Epoch: 198 	Training Loss: -0.0021833795 	Validation Loss: -0.0060896617
 1.0000000000000002e-06 -> 1.0000000000000002e-06
Epoch: 199 	Training Loss: -0.0021833796 	Validation Loss: -0.0060896104
No Validation early stop loss decrease (-0.6584016280 --> -0.6081073454). Early Stopping
AutoQEncoder(
  (encoder_layer): EncoderLayer(
    (cnn_layer): Sequential(
      (0): Conv2d(5, 32, kernel_size=(3, 3), stride=(1, 1), padding=(1, 1), padding_mode=circular)
      (1): BatchNorm2d(32, eps=1e-05, momentum=0.1, affine=True, track_running_stats=True)
      (2): ReLU()
      (3): Conv2d(32, 64, kernel_size=(3, 3), stride=(1, 1))
      (4): BatchNorm2d(64, eps=1e-05, momentum=0.1, affine=True, track_running_stats=True)
      (5): ReLU()
      (6): Conv2d(64, 128, kernel_size=(3, 3), stride=(1, 1))
      (7): BatchNorm2d(128, eps=1e-05, momentum=0.1, affine=True, track_running_stats=True)
      (8): ReLU()
      (9): Conv2d(128, 128, kernel_size=(3, 3), stride=(1, 1))
      (10): BatchNorm2d(128, eps=1e-05, momentum=0.1, affine=True, track_running_stats=True)
      (11): ReLU()
      (12): MaxPool2d(kernel_size=4, stride=4, padding=0, dilation=1, ceil_mode=False)
    )
    (linear_encoder): Sequential(
      (0): Dropout(p=0.5, inplace=False)
      (1): Linear(in_features=128, out_features=100, bias=True)
      (2): LeakyReLU(negative_slope=0.01)
      (3): Linear(in_features=100, out_features=100, bias=True)
      (4): LeakyReLU(negative_slope=0.01)
      (5): Linear(in_features=100, out_features=32, bias=True)
      (6): LeakyReLU(negative_slope=0.01)
    )
  )
  (quantizer_layer): QuantizerLayer()
  (decoder_layer): DecoderLayer(
    (linear_decoder): Sequential(
      (0): Linear(in_features=32, out_features=100, bias=True)
      (1): LeakyReLU(negative_slope=0.01)
      (2): Linear(in_features=100, out_features=100, bias=True)
      (3): LeakyReLU(negative_slope=0.01)
      (4): Linear(in_features=100, out_features=128, bias=True)
      (5): LeakyReLU(negative_slope=0.01)
    )
    (cnn_layer): Sequential(
      (0): Upsample(scale_factor=4.0, mode='nearest')
      (1): ConvTranspose2d(128, 128, kernel_size=(3, 3), stride=(1, 1), padding=(1, 1))
      (2): ReLU()
      (3): BatchNorm2d(128, eps=1e-05, momentum=0.1, affine=True, track_running_stats=True)
      (4): ConvTranspose2d(128, 64, kernel_size=(3, 3), stride=(1, 1), padding=(1, 1))
      (5): ReLU()
      (6): BatchNorm2d(64, eps=1e-05, momentum=0.1, affine=True, track_running_stats=True)
      (7): ConvTranspose2d(64, 32, kernel_size=(3, 3), stride=(1, 1))
      (8): ReLU()
      (9): BatchNorm2d(32, eps=1e-05, momentum=0.1, affine=True, track_running_stats=True)
      (10): ConvTranspose2d(32, 1, kernel_size=(3, 3), stride=(1, 1))
      (11): ReLU()
      (12): BatchNorm2d(1, eps=1e-05, momentum=0.1, affine=True, track_running_stats=True)
    )
    (out_layer): Sequential(
      (0): Linear(in_features=64, out_features=100, bias=True)
      (1): LeakyReLU(negative_slope=0.01)
    )
  )
)
Number of parameters: 541760
 40%|███▉      | 199/500 [1:26:27<2:10:47, 26.07s/it]
Training Model parameters:
{'C_code_words': 4,
 'N_RIS': 100,
 'Nc_RIS': 32,
 'Nc_RIS_compressed_ratio': 0.32,
 'Nh_RIS': 10,
 'Nw_RIS': 10,
 'Q_bits': 2,
 'batch_size': 256,
 'epoch_echo': True,
 'epoch_val': 100,
 'epochs': 500,
 'lr': 0.001,
 'mc_runs': 1000000,
 'momentum': 0.9,
 'overall_bits': 64,
 'snr_dB': -5,
 'step_size': 10,
 'train_test_split': 0.8,
 'train_val_split': 0.8}
Achievable Rate (bps/Hz) using RIS phase shifts with Transmit power SNR -5 dB:
optimum:  12.526344299316406
AQE net:  7.497532367706299
lin Q:    8.161335945129395
random:   5.52895975112915
AutoQEncoder(
  (encoder_layer): EncoderLayer(
    (cnn_layer): Sequential(
      (0): Conv2d(5, 32, kernel_size=(3, 3), stride=(1, 1), padding=(1, 1), padding_mode=circular)
      (1): BatchNorm2d(32, eps=1e-05, momentum=0.1, affine=True, track_running_stats=True)
      (2): ReLU()
      (3): Conv2d(32, 64, kernel_size=(3, 3), stride=(1, 1))
      (4): BatchNorm2d(64, eps=1e-05, momentum=0.1, affine=True, track_running_stats=True)
      (5): ReLU()
      (6): Conv2d(64, 128, kernel_size=(3, 3), stride=(1, 1))
      (7): BatchNorm2d(128, eps=1e-05, momentum=0.1, affine=True, track_running_stats=True)
      (8): ReLU()
      (9): Conv2d(128, 128, kernel_size=(3, 3), stride=(1, 1))
      (10): BatchNorm2d(128, eps=1e-05, momentum=0.1, affine=True, track_running_stats=True)
      (11): ReLU()
      (12): MaxPool2d(kernel_size=4, stride=4, padding=0, dilation=1, ceil_mode=False)
    )
    (linear_encoder): Sequential(
      (0): Dropout(p=0.5, inplace=False)
      (1): Linear(in_features=128, out_features=100, bias=True)
      (2): LeakyReLU(negative_slope=0.01)
      (3): Linear(in_features=100, out_features=100, bias=True)
      (4): LeakyReLU(negative_slope=0.01)
      (5): Linear(in_features=100, out_features=64, bias=True)
      (6): LeakyReLU(negative_slope=0.01)
    )
  )
  (quantizer_layer): QuantizerLayer()
  (decoder_layer): DecoderLayer(
    (linear_decoder): Sequential(
      (0): Linear(in_features=64, out_features=100, bias=True)
      (1): LeakyReLU(negative_slope=0.01)
      (2): Linear(in_features=100, out_features=100, bias=True)
      (3): LeakyReLU(negative_slope=0.01)
      (4): Linear(in_features=100, out_features=128, bias=True)
      (5): LeakyReLU(negative_slope=0.01)
    )
    (cnn_layer): Sequential(
      (0): Upsample(scale_factor=4.0, mode='nearest')
      (1): ConvTranspose2d(128, 128, kernel_size=(3, 3), stride=(1, 1), padding=(1, 1))
      (2): ReLU()
      (3): BatchNorm2d(128, eps=1e-05, momentum=0.1, affine=True, track_running_stats=True)
      (4): ConvTranspose2d(128, 64, kernel_size=(3, 3), stride=(1, 1), padding=(1, 1))
      (5): ReLU()
      (6): BatchNorm2d(64, eps=1e-05, momentum=0.1, affine=True, track_running_stats=True)
      (7): ConvTranspose2d(64, 32, kernel_size=(3, 3), stride=(1, 1))
      (8): ReLU()
      (9): BatchNorm2d(32, eps=1e-05, momentum=0.1, affine=True, track_running_stats=True)
      (10): ConvTranspose2d(32, 1, kernel_size=(3, 3), stride=(1, 1))
      (11): ReLU()
      (12): BatchNorm2d(1, eps=1e-05, momentum=0.1, affine=True, track_running_stats=True)
    )
    (out_layer): Sequential(
      (0): Linear(in_features=64, out_features=100, bias=True)
      (1): LeakyReLU(negative_slope=0.01)
    )
  )
)
Number of parameters: 548192
LinearQuantizer(
  (encoder_layer): Linear(in_features=100, out_features=64, bias=True)
  (quantizer_layer): QuantizerLayer()
  (decoder_layer): Linear(in_features=64, out_features=100, bias=True)
)
Number of parameters: 12973
  0%|          | 1/500 [00:40<5:39:12, 40.79s/it]
 0.001 -> 0.001
Epoch: 0 	Training Loss: -0.0016787125 	Validation Loss: -0.0067656770
Validation loss same/decreased (inf --> -0.0067656770)... saving model.
 0.001 -> 0.001
Epoch: 1 	Training Loss: -0.0017855803 	Validation Loss: -0.0068810153
Validation loss same/decreased (-0.0067656770 --> -0.0068810153)... saving model.
…
100%|█████████▉| 498/500 [3:25:51<00:51, 25.57s/it]
 1.0000000000000004e-08 -> 1.0000000000000004e-08
Epoch: 497 	Training Loss: -0.0023699454 	Validation Loss: -0.0082072794
 1.0000000000000004e-08 -> 1.0000000000000004e-08
Epoch: 498 	Training Loss: -0.0023699454 	Validation Loss: -0.0082072795
100%|█████████▉| 499/500 [3:26:43<00:24, 24.86s/it]
 1.0000000000000004e-08 -> 1.0000000000000004e-08
Epoch: 499 	Training Loss: -0.0023699454 	Validation Loss: -0.0082072797
No Validation early stop loss decrease (-0.8207708012 --> -0.8207312483). Early Stopping
AutoQEncoder(
  (encoder_layer): EncoderLayer(
    (cnn_layer): Sequential(
      (0): Conv2d(5, 32, kernel_size=(3, 3), stride=(1, 1), padding=(1, 1), padding_mode=circular)
      (1): BatchNorm2d(32, eps=1e-05, momentum=0.1, affine=True, track_running_stats=True)
      (2): ReLU()
      (3): Conv2d(32, 64, kernel_size=(3, 3), stride=(1, 1))
      (4): BatchNorm2d(64, eps=1e-05, momentum=0.1, affine=True, track_running_stats=True)
      (5): ReLU()
      (6): Conv2d(64, 128, kernel_size=(3, 3), stride=(1, 1))
      (7): BatchNorm2d(128, eps=1e-05, momentum=0.1, affine=True, track_running_stats=True)
      (8): ReLU()
      (9): Conv2d(128, 128, kernel_size=(3, 3), stride=(1, 1))
      (10): BatchNorm2d(128, eps=1e-05, momentum=0.1, affine=True, track_running_stats=True)
      (11): ReLU()
      (12): MaxPool2d(kernel_size=4, stride=4, padding=0, dilation=1, ceil_mode=False)
    )
    (linear_encoder): Sequential(
      (0): Dropout(p=0.5, inplace=False)
      (1): Linear(in_features=128, out_features=100, bias=True)
      (2): LeakyReLU(negative_slope=0.01)
      (3): Linear(in_features=100, out_features=100, bias=True)
      (4): LeakyReLU(negative_slope=0.01)
      (5): Linear(in_features=100, out_features=64, bias=True)
      (6): LeakyReLU(negative_slope=0.01)
    )
  )
  (quantizer_layer): QuantizerLayer()
  (decoder_layer): DecoderLayer(
    (linear_decoder): Sequential(
      (0): Linear(in_features=64, out_features=100, bias=True)
      (1): LeakyReLU(negative_slope=0.01)
      (2): Linear(in_features=100, out_features=100, bias=True)
      (3): LeakyReLU(negative_slope=0.01)
      (4): Linear(in_features=100, out_features=128, bias=True)
      (5): LeakyReLU(negative_slope=0.01)
    )
    (cnn_layer): Sequential(
      (0): Upsample(scale_factor=4.0, mode='nearest')
      (1): ConvTranspose2d(128, 128, kernel_size=(3, 3), stride=(1, 1), padding=(1, 1))
      (2): ReLU()
      (3): BatchNorm2d(128, eps=1e-05, momentum=0.1, affine=True, track_running_stats=True)
      (4): ConvTranspose2d(128, 64, kernel_size=(3, 3), stride=(1, 1), padding=(1, 1))
      (5): ReLU()
      (6): BatchNorm2d(64, eps=1e-05, momentum=0.1, affine=True, track_running_stats=True)
      (7): ConvTranspose2d(64, 32, kernel_size=(3, 3), stride=(1, 1))
      (8): ReLU()
      (9): BatchNorm2d(32, eps=1e-05, momentum=0.1, affine=True, track_running_stats=True)
      (10): ConvTranspose2d(32, 1, kernel_size=(3, 3), stride=(1, 1))
      (11): ReLU()
      (12): BatchNorm2d(1, eps=1e-05, momentum=0.1, affine=True, track_running_stats=True)
    )
    (out_layer): Sequential(
      (0): Linear(in_features=64, out_features=100, bias=True)
      (1): LeakyReLU(negative_slope=0.01)
    )
  )
)
Number of parameters: 548192
Training Model parameters:
{'C_code_words': 4,
 'N_RIS': 100,
 'Nc_RIS': 64,
 'Nc_RIS_compressed_ratio': 0.64,
 'Nh_RIS': 10,
 'Nw_RIS': 10,
 'Q_bits': 2,
 'batch_size': 256,
 'epoch_echo': True,
 'epoch_val': 100,
 'epochs': 500,
 'lr': 0.001,
 'mc_runs': 1000000,
 'momentum': 0.9,
 'overall_bits': 128,
 'snr_dB': -5,
 'step_size': 10,
 'train_test_split': 0.8,
 'train_val_split': 0.8}
Achievable Rate (bps/Hz) using RIS phase shifts with Transmit power SNR -5 dB:
optimum:  12.526344299316406
AQE net:  7.709242343902588
lin Q:    9.26643180847168
random:   5.521481513977051
AutoQEncoder(
  (encoder_layer): EncoderLayer(
    (cnn_layer): Sequential(
      (0): Conv2d(5, 32, kernel_size=(3, 3), stride=(1, 1), padding=(1, 1), padding_mode=circular)
      (1): BatchNorm2d(32, eps=1e-05, momentum=0.1, affine=True, track_running_stats=True)
      (2): ReLU()
      (3): Conv2d(32, 64, kernel_size=(3, 3), stride=(1, 1))
      (4): BatchNorm2d(64, eps=1e-05, momentum=0.1, affine=True, track_running_stats=True)
      (5): ReLU()
      (6): Conv2d(64, 128, kernel_size=(3, 3), stride=(1, 1))
      (7): BatchNorm2d(128, eps=1e-05, momentum=0.1, affine=True, track_running_stats=True)
      (8): ReLU()
      (9): Conv2d(128, 128, kernel_size=(3, 3), stride=(1, 1))
      (10): BatchNorm2d(128, eps=1e-05, momentum=0.1, affine=True, track_running_stats=True)
      (11): ReLU()
      (12): MaxPool2d(kernel_size=4, stride=4, padding=0, dilation=1, ceil_mode=False)
    )
    (linear_encoder): Sequential(
      (0): Dropout(p=0.5, inplace=False)
      (1): Linear(in_features=128, out_features=100, bias=True)
      (2): LeakyReLU(negative_slope=0.01)
      (3): Linear(in_features=100, out_features=100, bias=True)
      (4): LeakyReLU(negative_slope=0.01)
      (5): Linear(in_features=100, out_features=128, bias=True)
      (6): LeakyReLU(negative_slope=0.01)
    )
  )
  (quantizer_layer): QuantizerLayer()
  (decoder_layer): DecoderLayer(
    (linear_decoder): Sequential(
      (0): Linear(in_features=128, out_features=100, bias=True)
      (1): LeakyReLU(negative_slope=0.01)
      (2): Linear(in_features=100, out_features=100, bias=True)
      (3): LeakyReLU(negative_slope=0.01)
      (4): Linear(in_features=100, out_features=128, bias=True)
      (5): LeakyReLU(negative_slope=0.01)
    )
    (cnn_layer): Sequential(
      (0): Upsample(scale_factor=4.0, mode='nearest')
      (1): ConvTranspose2d(128, 128, kernel_size=(3, 3), stride=(1, 1), padding=(1, 1))
      (2): ReLU()
      (3): BatchNorm2d(128, eps=1e-05, momentum=0.1, affine=True, track_running_stats=True)
      (4): ConvTranspose2d(128, 64, kernel_size=(3, 3), stride=(1, 1), padding=(1, 1))
      (5): ReLU()
      (6): BatchNorm2d(64, eps=1e-05, momentum=0.1, affine=True, track_running_stats=True)
      (7): ConvTranspose2d(64, 32, kernel_size=(3, 3), stride=(1, 1))
      (8): ReLU()
      (9): BatchNorm2d(32, eps=1e-05, momentum=0.1, affine=True, track_running_stats=True)
      (10): ConvTranspose2d(32, 1, kernel_size=(3, 3), stride=(1, 1))
      (11): ReLU()
      (12): BatchNorm2d(1, eps=1e-05, momentum=0.1, affine=True, track_running_stats=True)
    )
    (out_layer): Sequential(
      (0): Linear(in_features=64, out_features=100, bias=True)
      (1): LeakyReLU(negative_slope=0.01)
    )
  )
)
Number of parameters: 561056
LinearQuantizer(
  (encoder_layer): Linear(in_features=100, out_features=128, bias=True)
  (quantizer_layer): QuantizerLayer()
  (decoder_layer): Linear(in_features=128, out_features=100, bias=True)
)
Number of parameters: 25837
  0%|          | 1/500 [00:40<5:35:48, 40.38s/it]
 0.001 -> 0.001
Epoch: 0 	Training Loss: -0.0016190033 	Validation Loss: -0.0064917590
Validation loss same/decreased (inf --> -0.0064917590)... saving model.
 0.001 -> 0.001
Epoch: 1 	Training Loss: -0.0018028018 	Validation Loss: -0.0068191750
Validation loss same/decreased (-0.0064917590 --> -0.0068191750)... saving model.
…
Epoch: 196 	Training Loss: -0.0025054231 	Validation Loss: -0.0057189694
 1.0000000000000002e-06 -> 1.0000000000000002e-06
Epoch: 197 	Training Loss: -0.0025054235 	Validation Loss: -0.0057189601
 40%|███▉      | 199/500 [1:26:40<2:09:44, 25.86s/it]
 1.0000000000000002e-06 -> 1.0000000000000002e-06
Epoch: 198 	Training Loss: -0.0025054240 	Validation Loss: -0.0057189509
 1.0000000000000002e-06 -> 1.0000000000000002e-06
Epoch: 199 	Training Loss: -0.0025054244 	Validation Loss: -0.0057188592
No Validation early stop loss decrease (-0.6543877757 --> -0.5716524571). Early Stopping
AutoQEncoder(
  (encoder_layer): EncoderLayer(
    (cnn_layer): Sequential(
      (0): Conv2d(5, 32, kernel_size=(3, 3), stride=(1, 1), padding=(1, 1), padding_mode=circular)
      (1): BatchNorm2d(32, eps=1e-05, momentum=0.1, affine=True, track_running_stats=True)
      (2): ReLU()
      (3): Conv2d(32, 64, kernel_size=(3, 3), stride=(1, 1))
      (4): BatchNorm2d(64, eps=1e-05, momentum=0.1, affine=True, track_running_stats=True)
      (5): ReLU()
      (6): Conv2d(64, 128, kernel_size=(3, 3), stride=(1, 1))
      (7): BatchNorm2d(128, eps=1e-05, momentum=0.1, affine=True, track_running_stats=True)
      (8): ReLU()
      (9): Conv2d(128, 128, kernel_size=(3, 3), stride=(1, 1))
      (10): BatchNorm2d(128, eps=1e-05, momentum=0.1, affine=True, track_running_stats=True)
      (11): ReLU()
      (12): MaxPool2d(kernel_size=4, stride=4, padding=0, dilation=1, ceil_mode=False)
    )
    (linear_encoder): Sequential(
      (0): Dropout(p=0.5, inplace=False)
      (1): Linear(in_features=128, out_features=100, bias=True)
      (2): LeakyReLU(negative_slope=0.01)
      (3): Linear(in_features=100, out_features=100, bias=True)
      (4): LeakyReLU(negative_slope=0.01)
      (5): Linear(in_features=100, out_features=128, bias=True)
      (6): LeakyReLU(negative_slope=0.01)
    )
  )
  (quantizer_layer): QuantizerLayer()
  (decoder_layer): DecoderLayer(
    (linear_decoder): Sequential(
      (0): Linear(in_features=128, out_features=100, bias=True)
      (1): LeakyReLU(negative_slope=0.01)
      (2): Linear(in_features=100, out_features=100, bias=True)
      (3): LeakyReLU(negative_slope=0.01)
      (4): Linear(in_features=100, out_features=128, bias=True)
      (5): LeakyReLU(negative_slope=0.01)
    )
    (cnn_layer): Sequential(
      (0): Upsample(scale_factor=4.0, mode='nearest')
      (1): ConvTranspose2d(128, 128, kernel_size=(3, 3), stride=(1, 1), padding=(1, 1))
      (2): ReLU()
      (3): BatchNorm2d(128, eps=1e-05, momentum=0.1, affine=True, track_running_stats=True)
      (4): ConvTranspose2d(128, 64, kernel_size=(3, 3), stride=(1, 1), padding=(1, 1))
      (5): ReLU()
      (6): BatchNorm2d(64, eps=1e-05, momentum=0.1, affine=True, track_running_stats=True)
      (7): ConvTranspose2d(64, 32, kernel_size=(3, 3), stride=(1, 1))
      (8): ReLU()
      (9): BatchNorm2d(32, eps=1e-05, momentum=0.1, affine=True, track_running_stats=True)
      (10): ConvTranspose2d(32, 1, kernel_size=(3, 3), stride=(1, 1))
      (11): ReLU()
      (12): BatchNorm2d(1, eps=1e-05, momentum=0.1, affine=True, track_running_stats=True)
    )
    (out_layer): Sequential(
      (0): Linear(in_features=64, out_features=100, bias=True)
      (1): LeakyReLU(negative_slope=0.01)
    )
  )
)
Number of parameters: 561056
 40%|███▉      | 199/500 [1:27:06<2:11:45, 26.26s/it]
Training Model parameters:
{'C_code_words': 4,
 'N_RIS': 100,
 'Nc_RIS': 128,
 'Nc_RIS_compressed_ratio': 1.28,
 'Nh_RIS': 10,
 'Nw_RIS': 10,
 'Q_bits': 2,
 'batch_size': 256,
 'epoch_echo': True,
 'epoch_val': 100,
 'epochs': 500,
…
