…
M                1
N              100
Nw              10
Nh              10
mc_runs    1000000
Name: 0, dtype: int64
Training Model parameters:
{'N_RIS': 100,
 'Nc_RIS': 100,
 'Nh_RIS': 10,
 'Nw_RIS': 10,
 'Q_bits': 1,
 'batch_size': 256,
 'epoch_echo': True,
 'epoch_val': 100,
 'epochs': 500,
 'grace_period': 20,
 'lr': 0.001,
 'mc_runs': 1000000,
 'momentum': 0.9,
 'snr_dB': -5,
 'step_size': 10,
 'train_test_split': 0.8,
 'train_val_split': 0.8,
 'training_iterations': 50,
 'trials': 500,
 'trials_per_device': 5}
AutoQEncoder(
  (encoder_layer): EncoderLayer(
    (cnn_layer): Sequential(
      (0): Conv2d(5, 32, kernel_size=(3, 3), stride=(1, 1), padding=(1, 1), padding_mode=circular)
      (1): BatchNorm2d(32, eps=1e-05, momentum=0.1, affine=True, track_running_stats=True)
      (2): ReLU()
      (3): Conv2d(32, 64, kernel_size=(3, 3), stride=(1, 1))
      (4): BatchNorm2d(64, eps=1e-05, momentum=0.1, affine=True, track_running_stats=True)
      (5): ReLU()
      (6): Conv2d(64, 128, kernel_size=(3, 3), stride=(1, 1))
      (7): BatchNorm2d(128, eps=1e-05, momentum=0.1, affine=True, track_running_stats=True)
      (8): ReLU()
      (9): Conv2d(128, 128, kernel_size=(3, 3), stride=(1, 1))
      (10): BatchNorm2d(128, eps=1e-05, momentum=0.1, affine=True, track_running_stats=True)
      (11): ReLU()
      (12): MaxPool2d(kernel_size=4, stride=4, padding=0, dilation=1, ceil_mode=False)
    )
    (linear_encoder): Sequential(
      (0): Dropout(p=0.5, inplace=False)
      (1): Linear(in_features=128, out_features=100, bias=True)
      (2): LeakyReLU(negative_slope=0.01)
      (3): Linear(in_features=100, out_features=100, bias=True)
      (4): LeakyReLU(negative_slope=0.01)
      (5): Linear(in_features=100, out_features=2, bias=True)
      (6): LeakyReLU(negative_slope=0.01)
    )
  )
  (quantizer_layer): QuantizerLayer()
  (decoder_layer): DecoderLayer(
    (linear_decoder): Sequential(
      (0): Linear(in_features=2, out_features=100, bias=True)
      (1): LeakyReLU(negative_slope=0.01)
      (2): Linear(in_features=100, out_features=100, bias=True)
      (3): LeakyReLU(negative_slope=0.01)
      (4): Linear(in_features=100, out_features=128, bias=True)
      (5): LeakyReLU(negative_slope=0.01)
    )
    (cnn_layer): Sequential(
      (0): Upsample(scale_factor=4.0, mode='nearest')
      (1): ConvTranspose2d(128, 128, kernel_size=(3, 3), stride=(1, 1), padding=(1, 1))
      (2): ReLU()
      (3): BatchNorm2d(128, eps=1e-05, momentum=0.1, affine=True, track_running_stats=True)
      (4): ConvTranspose2d(128, 64, kernel_size=(3, 3), stride=(1, 1), padding=(1, 1))
      (5): ReLU()
      (6): BatchNorm2d(64, eps=1e-05, momentum=0.1, affine=True, track_running_stats=True)
      (7): ConvTranspose2d(64, 32, kernel_size=(3, 3), stride=(1, 1))
      (8): ReLU()
      (9): BatchNorm2d(32, eps=1e-05, momentum=0.1, affine=True, track_running_stats=True)
      (10): ConvTranspose2d(32, 1, kernel_size=(3, 3), stride=(1, 1))
      (11): ReLU()
      (12): BatchNorm2d(1, eps=1e-05, momentum=0.1, affine=True, track_running_stats=True)
    )
    (out_layer): Sequential(
      (0): Linear(in_features=64, out_features=100, bias=True)
      (1): LeakyReLU(negative_slope=0.01)
    )
  )
)
Number of parameters: 535724
LinearQuantizer(
  (encoder_layer): Linear(in_features=100, out_features=2, bias=True)
  (quantizer_layer): QuantizerLayer()
  (decoder_layer): Linear(in_features=2, out_features=100, bias=True)
)
Number of parameters: 505
  0%|          | 1/500 [00:39<5:27:19, 39.36s/it]
 0.001 -> 0.001
Epoch: 0 	Training Loss: -0.0016219908 	Validation Loss: -0.0066257181
Validation loss same/decreased (inf --> -0.0066257181)... saving model.
 0.001 -> 0.001
Epoch: 1 	Training Loss: -0.0017151151 	Validation Loss: -0.0062202473
  1%|          | 3/500 [01:56<5:22:25, 38.92s/it]
…
Epoch: 196 	Training Loss: -0.0018411182 	Validation Loss: -0.0073012134
 1.0000000000000002e-06 -> 1.0000000000000002e-06
Epoch: 197 	Training Loss: -0.0018411189 	Validation Loss: -0.0073012146
 40%|███▉      | 199/500 [1:16:27<1:55:48, 23.09s/it]
 1.0000000000000002e-06 -> 1.0000000000000002e-06
Epoch: 198 	Training Loss: -0.0018411197 	Validation Loss: -0.0073012159
 1.0000000000000002e-06 -> 1.0000000000000002e-06
Epoch: 199 	Training Loss: -0.0018411204 	Validation Loss: -0.0073012172
No Validation early stop loss decrease (-0.7313337342 --> -0.7300500729). Early Stopping
AutoQEncoder(
  (encoder_layer): EncoderLayer(
    (cnn_layer): Sequential(
      (0): Conv2d(5, 32, kernel_size=(3, 3), stride=(1, 1), padding=(1, 1), padding_mode=circular)
      (1): BatchNorm2d(32, eps=1e-05, momentum=0.1, affine=True, track_running_stats=True)
      (2): ReLU()
      (3): Conv2d(32, 64, kernel_size=(3, 3), stride=(1, 1))
      (4): BatchNorm2d(64, eps=1e-05, momentum=0.1, affine=True, track_running_stats=True)
      (5): ReLU()
      (6): Conv2d(64, 128, kernel_size=(3, 3), stride=(1, 1))
      (7): BatchNorm2d(128, eps=1e-05, momentum=0.1, affine=True, track_running_stats=True)
      (8): ReLU()
      (9): Conv2d(128, 128, kernel_size=(3, 3), stride=(1, 1))
      (10): BatchNorm2d(128, eps=1e-05, momentum=0.1, affine=True, track_running_stats=True)
      (11): ReLU()
      (12): MaxPool2d(kernel_size=4, stride=4, padding=0, dilation=1, ceil_mode=False)
    )
    (linear_encoder): Sequential(
      (0): Dropout(p=0.5, inplace=False)
      (1): Linear(in_features=128, out_features=100, bias=True)
      (2): LeakyReLU(negative_slope=0.01)
      (3): Linear(in_features=100, out_features=100, bias=True)
      (4): LeakyReLU(negative_slope=0.01)
      (5): Linear(in_features=100, out_features=2, bias=True)
      (6): LeakyReLU(negative_slope=0.01)
    )
  )
  (quantizer_layer): QuantizerLayer()
  (decoder_layer): DecoderLayer(
    (linear_decoder): Sequential(
      (0): Linear(in_features=2, out_features=100, bias=True)
      (1): LeakyReLU(negative_slope=0.01)
      (2): Linear(in_features=100, out_features=100, bias=True)
      (3): LeakyReLU(negative_slope=0.01)
      (4): Linear(in_features=100, out_features=128, bias=True)
      (5): LeakyReLU(negative_slope=0.01)
    )
    (cnn_layer): Sequential(
      (0): Upsample(scale_factor=4.0, mode='nearest')
      (1): ConvTranspose2d(128, 128, kernel_size=(3, 3), stride=(1, 1), padding=(1, 1))
      (2): ReLU()
      (3): BatchNorm2d(128, eps=1e-05, momentum=0.1, affine=True, track_running_stats=True)
      (4): ConvTranspose2d(128, 64, kernel_size=(3, 3), stride=(1, 1), padding=(1, 1))
      (5): ReLU()
      (6): BatchNorm2d(64, eps=1e-05, momentum=0.1, affine=True, track_running_stats=True)
      (7): ConvTranspose2d(64, 32, kernel_size=(3, 3), stride=(1, 1))
      (8): ReLU()
      (9): BatchNorm2d(32, eps=1e-05, momentum=0.1, affine=True, track_running_stats=True)
      (10): ConvTranspose2d(32, 1, kernel_size=(3, 3), stride=(1, 1))
      (11): ReLU()
      (12): BatchNorm2d(1, eps=1e-05, momentum=0.1, affine=True, track_running_stats=True)
    )
    (out_layer): Sequential(
      (0): Linear(in_features=64, out_features=100, bias=True)
      (1): LeakyReLU(negative_slope=0.01)
    )
  )
)
Number of parameters: 535724
 40%|███▉      | 199/500 [1:16:50<1:56:14, 23.17s/it]
Training Model parameters:
{'C_code_words': 2,
 'N_RIS': 100,
 'Nc_RIS': 2,
 'Nc_RIS_compressed_ratio': 0.02,
 'Nh_RIS': 10,
 'Nw_RIS': 10,
 'Q_bits': 1,
 'batch_size': 256,
 'epoch_echo': True,
 'epoch_val': 100,
 'epochs': 500,
 'grace_period': 20,
 'lr': 0.001,
 'mc_runs': 1000000,
 'momentum': 0.9,
 'overall_bits': 2,
 'snr_dB': -5,
 'step_size': 10,
 'train_test_split': 0.8,
 'train_val_split': 0.8,
 'training_iterations': 50,
 'trials': 500,
 'trials_per_device': 5}
Achievable Rate (bps/Hz) using RIS phase shifts with Transmit power SNR -5 dB:
optimum:  12.526344299316406
AQE net:  5.947700023651123
lin Q:    6.027062892913818
random:   5.525242328643799
AutoQEncoder(
  (encoder_layer): EncoderLayer(
    (cnn_layer): Sequential(
      (0): Conv2d(5, 32, kernel_size=(3, 3), stride=(1, 1), padding=(1, 1), padding_mode=circular)
      (1): BatchNorm2d(32, eps=1e-05, momentum=0.1, affine=True, track_running_stats=True)
      (2): ReLU()
      (3): Conv2d(32, 64, kernel_size=(3, 3), stride=(1, 1))
      (4): BatchNorm2d(64, eps=1e-05, momentum=0.1, affine=True, track_running_stats=True)
      (5): ReLU()
      (6): Conv2d(64, 128, kernel_size=(3, 3), stride=(1, 1))
      (7): BatchNorm2d(128, eps=1e-05, momentum=0.1, affine=True, track_running_stats=True)
      (8): ReLU()
      (9): Conv2d(128, 128, kernel_size=(3, 3), stride=(1, 1))
      (10): BatchNorm2d(128, eps=1e-05, momentum=0.1, affine=True, track_running_stats=True)
      (11): ReLU()
      (12): MaxPool2d(kernel_size=4, stride=4, padding=0, dilation=1, ceil_mode=False)
    )
    (linear_encoder): Sequential(
      (0): Dropout(p=0.5, inplace=False)
      (1): Linear(in_features=128, out_features=100, bias=True)
      (2): LeakyReLU(negative_slope=0.01)
      (3): Linear(in_features=100, out_features=100, bias=True)
      (4): LeakyReLU(negative_slope=0.01)
      (5): Linear(in_features=100, out_features=4, bias=True)
      (6): LeakyReLU(negative_slope=0.01)
    )
  )
  (quantizer_layer): QuantizerLayer()
  (decoder_layer): DecoderLayer(
    (linear_decoder): Sequential(
      (0): Linear(in_features=4, out_features=100, bias=True)
      (1): LeakyReLU(negative_slope=0.01)
      (2): Linear(in_features=100, out_features=100, bias=True)
      (3): LeakyReLU(negative_slope=0.01)
      (4): Linear(in_features=100, out_features=128, bias=True)
      (5): LeakyReLU(negative_slope=0.01)
    )
    (cnn_layer): Sequential(
      (0): Upsample(scale_factor=4.0, mode='nearest')
      (1): ConvTranspose2d(128, 128, kernel_size=(3, 3), stride=(1, 1), padding=(1, 1))
      (2): ReLU()
      (3): BatchNorm2d(128, eps=1e-05, momentum=0.1, affine=True, track_running_stats=True)
      (4): ConvTranspose2d(128, 64, kernel_size=(3, 3), stride=(1, 1), padding=(1, 1))
      (5): ReLU()
      (6): BatchNorm2d(64, eps=1e-05, momentum=0.1, affine=True, track_running_stats=True)
      (7): ConvTranspose2d(64, 32, kernel_size=(3, 3), stride=(1, 1))
      (8): ReLU()
      (9): BatchNorm2d(32, eps=1e-05, momentum=0.1, affine=True, track_running_stats=True)
      (10): ConvTranspose2d(32, 1, kernel_size=(3, 3), stride=(1, 1))
      (11): ReLU()
      (12): BatchNorm2d(1, eps=1e-05, momentum=0.1, affine=True, track_running_stats=True)
    )
    (out_layer): Sequential(
      (0): Linear(in_features=64, out_features=100, bias=True)
      (1): LeakyReLU(negative_slope=0.01)
    )
  )
)
Number of parameters: 536126
LinearQuantizer(
  (encoder_layer): Linear(in_features=100, out_features=4, bias=True)
  (quantizer_layer): QuantizerLayer()
  (decoder_layer): Linear(in_features=4, out_features=100, bias=True)
)
Number of parameters: 907
  0%|          | 1/500 [00:37<5:08:42, 37.12s/it]
 0.001 -> 0.001
Epoch: 0 	Training Loss: -0.0017068210 	Validation Loss: -0.0064605029
Validation loss same/decreased (inf --> -0.0064605029)... saving model.
 0.001 -> 0.001
Epoch: 1 	Training Loss: -0.0018149199 	Validation Loss: -0.0063842838
  1%|          | 3/500 [01:51<5:08:49, 37.28s/it]
…
Epoch: 396 	Training Loss: -0.0018094858 	Validation Loss: -0.0066667603
 1.0000000000000004e-08 -> 1.0000000000000004e-08
Epoch: 397 	Training Loss: -0.0018094858 	Validation Loss: -0.0066667603
 80%|███████▉  | 399/500 [2:33:14<38:42, 22.99s/it]
 1.0000000000000004e-08 -> 1.0000000000000004e-08
Epoch: 398 	Training Loss: -0.0018094859 	Validation Loss: -0.0066667604
 1.0000000000000004e-08 -> 1.0000000000000004e-08
Epoch: 399 	Training Loss: -0.0018094859 	Validation Loss: -0.0066667604
No Validation early stop loss decrease (-0.6666762402 --> -0.6666758193). Early Stopping
AutoQEncoder(
  (encoder_layer): EncoderLayer(
    (cnn_layer): Sequential(
      (0): Conv2d(5, 32, kernel_size=(3, 3), stride=(1, 1), padding=(1, 1), padding_mode=circular)
      (1): BatchNorm2d(32, eps=1e-05, momentum=0.1, affine=True, track_running_stats=True)
      (2): ReLU()
      (3): Conv2d(32, 64, kernel_size=(3, 3), stride=(1, 1))
      (4): BatchNorm2d(64, eps=1e-05, momentum=0.1, affine=True, track_running_stats=True)
      (5): ReLU()
      (6): Conv2d(64, 128, kernel_size=(3, 3), stride=(1, 1))
      (7): BatchNorm2d(128, eps=1e-05, momentum=0.1, affine=True, track_running_stats=True)
      (8): ReLU()
      (9): Conv2d(128, 128, kernel_size=(3, 3), stride=(1, 1))
      (10): BatchNorm2d(128, eps=1e-05, momentum=0.1, affine=True, track_running_stats=True)
      (11): ReLU()
      (12): MaxPool2d(kernel_size=4, stride=4, padding=0, dilation=1, ceil_mode=False)
    )
    (linear_encoder): Sequential(
      (0): Dropout(p=0.5, inplace=False)
      (1): Linear(in_features=128, out_features=100, bias=True)
      (2): LeakyReLU(negative_slope=0.01)
      (3): Linear(in_features=100, out_features=100, bias=True)
      (4): LeakyReLU(negative_slope=0.01)
      (5): Linear(in_features=100, out_features=4, bias=True)
      (6): LeakyReLU(negative_slope=0.01)
    )
  )
  (quantizer_layer): QuantizerLayer()
  (decoder_layer): DecoderLayer(
    (linear_decoder): Sequential(
      (0): Linear(in_features=4, out_features=100, bias=True)
      (1): LeakyReLU(negative_slope=0.01)
      (2): Linear(in_features=100, out_features=100, bias=True)
      (3): LeakyReLU(negative_slope=0.01)
      (4): Linear(in_features=100, out_features=128, bias=True)
      (5): LeakyReLU(negative_slope=0.01)
    )
    (cnn_layer): Sequential(
      (0): Upsample(scale_factor=4.0, mode='nearest')
      (1): ConvTranspose2d(128, 128, kernel_size=(3, 3), stride=(1, 1), padding=(1, 1))
      (2): ReLU()
      (3): BatchNorm2d(128, eps=1e-05, momentum=0.1, affine=True, track_running_stats=True)
      (4): ConvTranspose2d(128, 64, kernel_size=(3, 3), stride=(1, 1), padding=(1, 1))
      (5): ReLU()
      (6): BatchNorm2d(64, eps=1e-05, momentum=0.1, affine=True, track_running_stats=True)
      (7): ConvTranspose2d(64, 32, kernel_size=(3, 3), stride=(1, 1))
      (8): ReLU()
      (9): BatchNorm2d(32, eps=1e-05, momentum=0.1, affine=True, track_running_stats=True)
      (10): ConvTranspose2d(32, 1, kernel_size=(3, 3), stride=(1, 1))
      (11): ReLU()
      (12): BatchNorm2d(1, eps=1e-05, momentum=0.1, affine=True, track_running_stats=True)
    )
    (out_layer): Sequential(
      (0): Linear(in_features=64, out_features=100, bias=True)
      (1): LeakyReLU(negative_slope=0.01)
    )
  )
)
Number of parameters: 536126
 80%|███████▉  | 399/500 [2:33:37<38:53, 23.10s/it]
Training Model parameters:
{'C_code_words': 2,
 'N_RIS': 100,
 'Nc_RIS': 4,
 'Nc_RIS_compressed_ratio': 0.04,
 'Nh_RIS': 10,
 'Nw_RIS': 10,
 'Q_bits': 1,
 'batch_size': 256,
 'epoch_echo': True,
 'epoch_val': 100,
 'epochs': 500,
 'grace_period': 20,
 'lr': 0.001,
 'mc_runs': 1000000,
 'momentum': 0.9,
 'overall_bits': 4,
 'snr_dB': -5,
 'step_size': 10,
 'train_test_split': 0.8,
 'train_val_split': 0.8,
 'training_iterations': 50,
 'trials': 500,
 'trials_per_device': 5}
Achievable Rate (bps/Hz) using RIS phase shifts with Transmit power SNR -5 dB:
optimum:  12.526344299316406
AQE net:  5.998456001281738
lin Q:    6.006051540374756
random:   5.529454708099365
AutoQEncoder(
  (encoder_layer): EncoderLayer(
    (cnn_layer): Sequential(
      (0): Conv2d(5, 32, kernel_size=(3, 3), stride=(1, 1), padding=(1, 1), padding_mode=circular)
      (1): BatchNorm2d(32, eps=1e-05, momentum=0.1, affine=True, track_running_stats=True)
      (2): ReLU()
      (3): Conv2d(32, 64, kernel_size=(3, 3), stride=(1, 1))
      (4): BatchNorm2d(64, eps=1e-05, momentum=0.1, affine=True, track_running_stats=True)
      (5): ReLU()
      (6): Conv2d(64, 128, kernel_size=(3, 3), stride=(1, 1))
      (7): BatchNorm2d(128, eps=1e-05, momentum=0.1, affine=True, track_running_stats=True)
      (8): ReLU()
      (9): Conv2d(128, 128, kernel_size=(3, 3), stride=(1, 1))
      (10): BatchNorm2d(128, eps=1e-05, momentum=0.1, affine=True, track_running_stats=True)
      (11): ReLU()
      (12): MaxPool2d(kernel_size=4, stride=4, padding=0, dilation=1, ceil_mode=False)
    )
    (linear_encoder): Sequential(
      (0): Dropout(p=0.5, inplace=False)
      (1): Linear(in_features=128, out_features=100, bias=True)
      (2): LeakyReLU(negative_slope=0.01)
      (3): Linear(in_features=100, out_features=100, bias=True)
      (4): LeakyReLU(negative_slope=0.01)
      (5): Linear(in_features=100, out_features=8, bias=True)
      (6): LeakyReLU(negative_slope=0.01)
    )
  )
  (quantizer_layer): QuantizerLayer()
  (decoder_layer): DecoderLayer(
    (linear_decoder): Sequential(
      (0): Linear(in_features=8, out_features=100, bias=True)
      (1): LeakyReLU(negative_slope=0.01)
      (2): Linear(in_features=100, out_features=100, bias=True)
      (3): LeakyReLU(negative_slope=0.01)
      (4): Linear(in_features=100, out_features=128, bias=True)
      (5): LeakyReLU(negative_slope=0.01)
    )
    (cnn_layer): Sequential(
      (0): Upsample(scale_factor=4.0, mode='nearest')
      (1): ConvTranspose2d(128, 128, kernel_size=(3, 3), stride=(1, 1), padding=(1, 1))
      (2): ReLU()
      (3): BatchNorm2d(128, eps=1e-05, momentum=0.1, affine=True, track_running_stats=True)
      (4): ConvTranspose2d(128, 64, kernel_size=(3, 3), stride=(1, 1), padding=(1, 1))
      (5): ReLU()
      (6): BatchNorm2d(64, eps=1e-05, momentum=0.1, affine=True, track_running_stats=True)
      (7): ConvTranspose2d(64, 32, kernel_size=(3, 3), stride=(1, 1))
      (8): ReLU()
      (9): BatchNorm2d(32, eps=1e-05, momentum=0.1, affine=True, track_running_stats=True)
      (10): ConvTranspose2d(32, 1, kernel_size=(3, 3), stride=(1, 1))
      (11): ReLU()
      (12): BatchNorm2d(1, eps=1e-05, momentum=0.1, affine=True, track_running_stats=True)
    )
    (out_layer): Sequential(
      (0): Linear(in_features=64, out_features=100, bias=True)
      (1): LeakyReLU(negative_slope=0.01)
    )
  )
)
Number of parameters: 536930
LinearQuantizer(
  (encoder_layer): Linear(in_features=100, out_features=8, bias=True)
  (quantizer_layer): QuantizerLayer()
  (decoder_layer): Linear(in_features=8, out_features=100, bias=True)
)
Number of parameters: 1711
  0%|          | 1/500 [00:36<5:06:19, 36.83s/it]
 0.001 -> 0.001
Epoch: 0 	Training Loss: -0.0016648492 	Validation Loss: -0.0061298417
Validation loss same/decreased (inf --> -0.0061298417)... saving model.
 0.001 -> 0.001
Epoch: 1 	Training Loss: -0.0017189075 	Validation Loss: -0.0061469119
Validation loss same/decreased (-0.0061298417 --> -0.0061469119)... saving model.
…
Epoch: 296 	Training Loss: -0.0019201608 	Validation Loss: -0.0067513248
 1.0000000000000002e-06 -> 1.0000000000000002e-06
Epoch: 297 	Training Loss: -0.0019201604 	Validation Loss: -0.0067512653
 60%|█████▉    | 299/500 [1:45:53<1:11:03, 21.21s/it]
 1.0000000000000002e-06 -> 1.0000000000000002e-06
Epoch: 298 	Training Loss: -0.0019201601 	Validation Loss: -0.0067512060
 1.0000000000000002e-06 -> 1.0000000000000002e-06
Epoch: 299 	Training Loss: -0.0019201598 	Validation Loss: -0.0067511467
No Validation early stop loss decrease (-0.6776629741 --> -0.6754926110). Early Stopping
AutoQEncoder(
  (encoder_layer): EncoderLayer(
    (cnn_layer): Sequential(
      (0): Conv2d(5, 32, kernel_size=(3, 3), stride=(1, 1), padding=(1, 1), padding_mode=circular)
      (1): BatchNorm2d(32, eps=1e-05, momentum=0.1, affine=True, track_running_stats=True)
      (2): ReLU()
      (3): Conv2d(32, 64, kernel_size=(3, 3), stride=(1, 1))
      (4): BatchNorm2d(64, eps=1e-05, momentum=0.1, affine=True, track_running_stats=True)
      (5): ReLU()
      (6): Conv2d(64, 128, kernel_size=(3, 3), stride=(1, 1))
      (7): BatchNorm2d(128, eps=1e-05, momentum=0.1, affine=True, track_running_stats=True)
      (8): ReLU()
      (9): Conv2d(128, 128, kernel_size=(3, 3), stride=(1, 1))
      (10): BatchNorm2d(128, eps=1e-05, momentum=0.1, affine=True, track_running_stats=True)
      (11): ReLU()
      (12): MaxPool2d(kernel_size=4, stride=4, padding=0, dilation=1, ceil_mode=False)
    )
    (linear_encoder): Sequential(
      (0): Dropout(p=0.5, inplace=False)
      (1): Linear(in_features=128, out_features=100, bias=True)
      (2): LeakyReLU(negative_slope=0.01)
      (3): Linear(in_features=100, out_features=100, bias=True)
      (4): LeakyReLU(negative_slope=0.01)
      (5): Linear(in_features=100, out_features=8, bias=True)
      (6): LeakyReLU(negative_slope=0.01)
    )
  )
  (quantizer_layer): QuantizerLayer()
  (decoder_layer): DecoderLayer(
    (linear_decoder): Sequential(
      (0): Linear(in_features=8, out_features=100, bias=True)
      (1): LeakyReLU(negative_slope=0.01)
      (2): Linear(in_features=100, out_features=100, bias=True)
      (3): LeakyReLU(negative_slope=0.01)
      (4): Linear(in_features=100, out_features=128, bias=True)
      (5): LeakyReLU(negative_slope=0.01)
    )
    (cnn_layer): Sequential(
      (0): Upsample(scale_factor=4.0, mode='nearest')
      (1): ConvTranspose2d(128, 128, kernel_size=(3, 3), stride=(1, 1), padding=(1, 1))
      (2): ReLU()
      (3): BatchNorm2d(128, eps=1e-05, momentum=0.1, affine=True, track_running_stats=True)
      (4): ConvTranspose2d(128, 64, kernel_size=(3, 3), stride=(1, 1), padding=(1, 1))
      (5): ReLU()
      (6): BatchNorm2d(64, eps=1e-05, momentum=0.1, affine=True, track_running_stats=True)
      (7): ConvTranspose2d(64, 32, kernel_size=(3, 3), stride=(1, 1))
      (8): ReLU()
      (9): BatchNorm2d(32, eps=1e-05, momentum=0.1, affine=True, track_running_stats=True)
      (10): ConvTranspose2d(32, 1, kernel_size=(3, 3), stride=(1, 1))
      (11): ReLU()
      (12): BatchNorm2d(1, eps=1e-05, momentum=0.1, affine=True, track_running_stats=True)
    )
    (out_layer): Sequential(
      (0): Linear(in_features=64, out_features=100, bias=True)
      (1): LeakyReLU(negative_slope=0.01)
    )
  )
)
Number of parameters: 536930
 60%|█████▉    | 299/500 [1:46:15<1:11:25, 21.32s/it]
Training Model parameters:
{'C_code_words': 2,
 'N_RIS': 100,
 'Nc_RIS': 8,
 'Nc_RIS_compressed_ratio': 0.08,
 'Nh_RIS': 10,
 'Nw_RIS': 10,
 'Q_bits': 1,
 'batch_size': 256,
 'epoch_echo': True,
 'epoch_val': 100,
 'epochs': 500,
 'grace_period': 20,
 'lr': 0.001,
 'mc_runs': 1000000,
 'momentum': 0.9,
 'overall_bits': 8,
 'snr_dB': -5,
 'step_size': 10,
 'train_test_split': 0.8,
 'train_val_split': 0.8,
 'training_iterations': 50,
 'trials': 500,
 'trials_per_device': 5}
Achievable Rate (bps/Hz) using RIS phase shifts with Transmit power SNR -5 dB:
optimum:  12.526344299316406
AQE net:  6.024501323699951
lin Q:    6.16478967666626
random:   5.516273498535156
AutoQEncoder(
  (encoder_layer): EncoderLayer(
    (cnn_layer): Sequential(
      (0): Conv2d(5, 32, kernel_size=(3, 3), stride=(1, 1), padding=(1, 1), padding_mode=circular)
      (1): BatchNorm2d(32, eps=1e-05, momentum=0.1, affine=True, track_running_stats=True)
      (2): ReLU()
      (3): Conv2d(32, 64, kernel_size=(3, 3), stride=(1, 1))
      (4): BatchNorm2d(64, eps=1e-05, momentum=0.1, affine=True, track_running_stats=True)
      (5): ReLU()
      (6): Conv2d(64, 128, kernel_size=(3, 3), stride=(1, 1))
      (7): BatchNorm2d(128, eps=1e-05, momentum=0.1, affine=True, track_running_stats=True)
      (8): ReLU()
      (9): Conv2d(128, 128, kernel_size=(3, 3), stride=(1, 1))
      (10): BatchNorm2d(128, eps=1e-05, momentum=0.1, affine=True, track_running_stats=True)
      (11): ReLU()
      (12): MaxPool2d(kernel_size=4, stride=4, padding=0, dilation=1, ceil_mode=False)
    )
    (linear_encoder): Sequential(
      (0): Dropout(p=0.5, inplace=False)
      (1): Linear(in_features=128, out_features=100, bias=True)
      (2): LeakyReLU(negative_slope=0.01)
      (3): Linear(in_features=100, out_features=100, bias=True)
      (4): LeakyReLU(negative_slope=0.01)
      (5): Linear(in_features=100, out_features=16, bias=True)
      (6): LeakyReLU(negative_slope=0.01)
    )
  )
  (quantizer_layer): QuantizerLayer()
  (decoder_layer): DecoderLayer(
    (linear_decoder): Sequential(
      (0): Linear(in_features=16, out_features=100, bias=True)
      (1): LeakyReLU(negative_slope=0.01)
      (2): Linear(in_features=100, out_features=100, bias=True)
      (3): LeakyReLU(negative_slope=0.01)
      (4): Linear(in_features=100, out_features=128, bias=True)
      (5): LeakyReLU(negative_slope=0.01)
    )
    (cnn_layer): Sequential(
      (0): Upsample(scale_factor=4.0, mode='nearest')
      (1): ConvTranspose2d(128, 128, kernel_size=(3, 3), stride=(1, 1), padding=(1, 1))
      (2): ReLU()
      (3): BatchNorm2d(128, eps=1e-05, momentum=0.1, affine=True, track_running_stats=True)
      (4): ConvTranspose2d(128, 64, kernel_size=(3, 3), stride=(1, 1), padding=(1, 1))
      (5): ReLU()
      (6): BatchNorm2d(64, eps=1e-05, momentum=0.1, affine=True, track_running_stats=True)
      (7): ConvTranspose2d(64, 32, kernel_size=(3, 3), stride=(1, 1))
      (8): ReLU()
      (9): BatchNorm2d(32, eps=1e-05, momentum=0.1, affine=True, track_running_stats=True)
      (10): ConvTranspose2d(32, 1, kernel_size=(3, 3), stride=(1, 1))
      (11): ReLU()
      (12): BatchNorm2d(1, eps=1e-05, momentum=0.1, affine=True, track_running_stats=True)
    )
    (out_layer): Sequential(
      (0): Linear(in_features=64, out_features=100, bias=True)
      (1): LeakyReLU(negative_slope=0.01)
    )
  )
)
Number of parameters: 538538
LinearQuantizer(
  (encoder_layer): Linear(in_features=100, out_features=16, bias=True)
  (quantizer_layer): QuantizerLayer()
  (decoder_layer): Linear(in_features=16, out_features=100, bias=True)
)
Number of parameters: 3319
  0%|          | 1/500 [00:34<4:48:25, 34.68s/it]
 0.001 -> 0.001
Epoch: 0 	Training Loss: -0.0016881382 	Validation Loss: -0.0062695836
Validation loss same/decreased (inf --> -0.0062695836)... saving model.
 0.001 -> 0.001
Epoch: 1 	Training Loss: -0.0017623734 	Validation Loss: -0.0067114985
Validation loss same/decreased (-0.0062695836 --> -0.0067114985)... saving model.
…
Epoch: 396 	Training Loss: -0.0020588626 	Validation Loss: -0.0060348298
 1.0000000000000004e-08 -> 1.0000000000000004e-08
Epoch: 397 	Training Loss: -0.0020588626 	Validation Loss: -0.0060348298
 80%|███████▉  | 399/500 [2:23:50<38:55, 23.13s/it]
 1.0000000000000004e-08 -> 1.0000000000000004e-08
Epoch: 398 	Training Loss: -0.0020588626 	Validation Loss: -0.0060348298
 1.0000000000000004e-08 -> 1.0000000000000004e-08
Epoch: 399 	Training Loss: -0.0020588626 	Validation Loss: -0.0060348297
No Validation early stop loss decrease (-0.6034875840 --> -0.6034830579). Early Stopping
AutoQEncoder(
  (encoder_layer): EncoderLayer(
    (cnn_layer): Sequential(
      (0): Conv2d(5, 32, kernel_size=(3, 3), stride=(1, 1), padding=(1, 1), padding_mode=circular)
      (1): BatchNorm2d(32, eps=1e-05, momentum=0.1, affine=True, track_running_stats=True)
      (2): ReLU()
      (3): Conv2d(32, 64, kernel_size=(3, 3), stride=(1, 1))
      (4): BatchNorm2d(64, eps=1e-05, momentum=0.1, affine=True, track_running_stats=True)
      (5): ReLU()
      (6): Conv2d(64, 128, kernel_size=(3, 3), stride=(1, 1))
      (7): BatchNorm2d(128, eps=1e-05, momentum=0.1, affine=True, track_running_stats=True)
      (8): ReLU()
      (9): Conv2d(128, 128, kernel_size=(3, 3), stride=(1, 1))
      (10): BatchNorm2d(128, eps=1e-05, momentum=0.1, affine=True, track_running_stats=True)
      (11): ReLU()
      (12): MaxPool2d(kernel_size=4, stride=4, padding=0, dilation=1, ceil_mode=False)
    )
    (linear_encoder): Sequential(
      (0): Dropout(p=0.5, inplace=False)
      (1): Linear(in_features=128, out_features=100, bias=True)
      (2): LeakyReLU(negative_slope=0.01)
      (3): Linear(in_features=100, out_features=100, bias=True)
      (4): LeakyReLU(negative_slope=0.01)
      (5): Linear(in_features=100, out_features=16, bias=True)
      (6): LeakyReLU(negative_slope=0.01)
    )
  )
  (quantizer_layer): QuantizerLayer()
  (decoder_layer): DecoderLayer(
    (linear_decoder): Sequential(
      (0): Linear(in_features=16, out_features=100, bias=True)
      (1): LeakyReLU(negative_slope=0.01)
      (2): Linear(in_features=100, out_features=100, bias=True)
      (3): LeakyReLU(negative_slope=0.01)
      (4): Linear(in_features=100, out_features=128, bias=True)
      (5): LeakyReLU(negative_slope=0.01)
    )
    (cnn_layer): Sequential(
      (0): Upsample(scale_factor=4.0, mode='nearest')
      (1): ConvTranspose2d(128, 128, kernel_size=(3, 3), stride=(1, 1), padding=(1, 1))
      (2): ReLU()
      (3): BatchNorm2d(128, eps=1e-05, momentum=0.1, affine=True, track_running_stats=True)
      (4): ConvTranspose2d(128, 64, kernel_size=(3, 3), stride=(1, 1), padding=(1, 1))
      (5): ReLU()
      (6): BatchNorm2d(64, eps=1e-05, momentum=0.1, affine=True, track_running_stats=True)
      (7): ConvTranspose2d(64, 32, kernel_size=(3, 3), stride=(1, 1))
      (8): ReLU()
      (9): BatchNorm2d(32, eps=1e-05, momentum=0.1, affine=True, track_running_stats=True)
      (10): ConvTranspose2d(32, 1, kernel_size=(3, 3), stride=(1, 1))
      (11): ReLU()
      (12): BatchNorm2d(1, eps=1e-05, momentum=0.1, affine=True, track_running_stats=True)
    )
    (out_layer): Sequential(
      (0): Linear(in_features=64, out_features=100, bias=True)
      (1): LeakyReLU(negative_slope=0.01)
    )
  )
)
Number of parameters: 538538
 80%|███████▉  | 399/500 [2:24:13<36:30, 21.69s/it]
Training Model parameters:
{'C_code_words': 2,
 'N_RIS': 100,
 'Nc_RIS': 16,
 'Nc_RIS_compressed_ratio': 0.16,
 'Nh_RIS': 10,
 'Nw_RIS': 10,
 'Q_bits': 1,
 'batch_size': 256,
 'epoch_echo': True,
 'epoch_val': 100,
 'epochs': 500,
 'grace_period': 20,
 'lr': 0.001,
 'mc_runs': 1000000,
 'momentum': 0.9,
 'overall_bits': 16,
 'snr_dB': -5,
 'step_size': 10,
 'train_test_split': 0.8,
 'train_val_split': 0.8,
 'training_iterations': 50,
 'trials': 500,
 'trials_per_device': 5}
Achievable Rate (bps/Hz) using RIS phase shifts with Transmit power SNR -5 dB:
optimum:  12.526344299316406
AQE net:  6.066528797149658
lin Q:    6.007420063018799
random:   5.5237650871276855
AutoQEncoder(
  (encoder_layer): EncoderLayer(
    (cnn_layer): Sequential(
      (0): Conv2d(5, 32, kernel_size=(3, 3), stride=(1, 1), padding=(1, 1), padding_mode=circular)
      (1): BatchNorm2d(32, eps=1e-05, momentum=0.1, affine=True, track_running_stats=True)
      (2): ReLU()
      (3): Conv2d(32, 64, kernel_size=(3, 3), stride=(1, 1))
      (4): BatchNorm2d(64, eps=1e-05, momentum=0.1, affine=True, track_running_stats=True)
      (5): ReLU()
      (6): Conv2d(64, 128, kernel_size=(3, 3), stride=(1, 1))
      (7): BatchNorm2d(128, eps=1e-05, momentum=0.1, affine=True, track_running_stats=True)
      (8): ReLU()
      (9): Conv2d(128, 128, kernel_size=(3, 3), stride=(1, 1))
      (10): BatchNorm2d(128, eps=1e-05, momentum=0.1, affine=True, track_running_stats=True)
      (11): ReLU()
      (12): MaxPool2d(kernel_size=4, stride=4, padding=0, dilation=1, ceil_mode=False)
    )
    (linear_encoder): Sequential(
      (0): Dropout(p=0.5, inplace=False)
      (1): Linear(in_features=128, out_features=100, bias=True)
      (2): LeakyReLU(negative_slope=0.01)
      (3): Linear(in_features=100, out_features=100, bias=True)
      (4): LeakyReLU(negative_slope=0.01)
      (5): Linear(in_features=100, out_features=32, bias=True)
      (6): LeakyReLU(negative_slope=0.01)
    )
  )
  (quantizer_layer): QuantizerLayer()
  (decoder_layer): DecoderLayer(
    (linear_decoder): Sequential(
      (0): Linear(in_features=32, out_features=100, bias=True)
      (1): LeakyReLU(negative_slope=0.01)
      (2): Linear(in_features=100, out_features=100, bias=True)
      (3): LeakyReLU(negative_slope=0.01)
      (4): Linear(in_features=100, out_features=128, bias=True)
      (5): LeakyReLU(negative_slope=0.01)
    )
    (cnn_layer): Sequential(
      (0): Upsample(scale_factor=4.0, mode='nearest')
      (1): ConvTranspose2d(128, 128, kernel_size=(3, 3), stride=(1, 1), padding=(1, 1))
      (2): ReLU()
      (3): BatchNorm2d(128, eps=1e-05, momentum=0.1, affine=True, track_running_stats=True)
      (4): ConvTranspose2d(128, 64, kernel_size=(3, 3), stride=(1, 1), padding=(1, 1))
      (5): ReLU()
      (6): BatchNorm2d(64, eps=1e-05, momentum=0.1, affine=True, track_running_stats=True)
      (7): ConvTranspose2d(64, 32, kernel_size=(3, 3), stride=(1, 1))
      (8): ReLU()
      (9): BatchNorm2d(32, eps=1e-05, momentum=0.1, affine=True, track_running_stats=True)
      (10): ConvTranspose2d(32, 1, kernel_size=(3, 3), stride=(1, 1))
      (11): ReLU()
      (12): BatchNorm2d(1, eps=1e-05, momentum=0.1, affine=True, track_running_stats=True)
    )
    (out_layer): Sequential(
      (0): Linear(in_features=64, out_features=100, bias=True)
      (1): LeakyReLU(negative_slope=0.01)
    )
  )
)
Number of parameters: 541754
LinearQuantizer(
  (encoder_layer): Linear(in_features=100, out_features=32, bias=True)
  (quantizer_layer): QuantizerLayer()
  (decoder_layer): Linear(in_features=32, out_features=100, bias=True)
)
Number of parameters: 6535
  0%|          | 1/500 [00:36<5:05:22, 36.72s/it]
 0.001 -> 0.001
Epoch: 0 	Training Loss: -0.0017888176 	Validation Loss: -0.0055787560
Validation loss same/decreased (inf --> -0.0055787560)... saving model.
 0.001 -> 0.001
Epoch: 1 	Training Loss: -0.0018215540 	Validation Loss: -0.0060397745
Validation loss same/decreased (-0.0055787560 --> -0.0060397745)... saving model.
…
Epoch: 196 	Training Loss: -0.0021748257 	Validation Loss: -0.0056954192
 1.0000000000000002e-06 -> 1.0000000000000002e-06
Epoch: 197 	Training Loss: -0.0021748260 	Validation Loss: -0.0056954097
 40%|███▉      | 199/500 [1:16:57<1:56:37, 23.25s/it]
 1.0000000000000002e-06 -> 1.0000000000000002e-06
Epoch: 198 	Training Loss: -0.0021748262 	Validation Loss: -0.0056954003
 1.0000000000000002e-06 -> 1.0000000000000002e-06
Epoch: 199 	Training Loss: -0.0021748264 	Validation Loss: -0.0056953908
No Validation early stop loss decrease (-0.5700743255 --> -0.5698064791). Early Stopping
AutoQEncoder(
  (encoder_layer): EncoderLayer(
    (cnn_layer): Sequential(
      (0): Conv2d(5, 32, kernel_size=(3, 3), stride=(1, 1), padding=(1, 1), padding_mode=circular)
      (1): BatchNorm2d(32, eps=1e-05, momentum=0.1, affine=True, track_running_stats=True)
      (2): ReLU()
      (3): Conv2d(32, 64, kernel_size=(3, 3), stride=(1, 1))
      (4): BatchNorm2d(64, eps=1e-05, momentum=0.1, affine=True, track_running_stats=True)
      (5): ReLU()
      (6): Conv2d(64, 128, kernel_size=(3, 3), stride=(1, 1))
      (7): BatchNorm2d(128, eps=1e-05, momentum=0.1, affine=True, track_running_stats=True)
      (8): ReLU()
      (9): Conv2d(128, 128, kernel_size=(3, 3), stride=(1, 1))
      (10): BatchNorm2d(128, eps=1e-05, momentum=0.1, affine=True, track_running_stats=True)
      (11): ReLU()
      (12): MaxPool2d(kernel_size=4, stride=4, padding=0, dilation=1, ceil_mode=False)
    )
    (linear_encoder): Sequential(
      (0): Dropout(p=0.5, inplace=False)
      (1): Linear(in_features=128, out_features=100, bias=True)
      (2): LeakyReLU(negative_slope=0.01)
      (3): Linear(in_features=100, out_features=100, bias=True)
      (4): LeakyReLU(negative_slope=0.01)
      (5): Linear(in_features=100, out_features=32, bias=True)
      (6): LeakyReLU(negative_slope=0.01)
    )
  )
  (quantizer_layer): QuantizerLayer()
  (decoder_layer): DecoderLayer(
    (linear_decoder): Sequential(
      (0): Linear(in_features=32, out_features=100, bias=True)
      (1): LeakyReLU(negative_slope=0.01)
      (2): Linear(in_features=100, out_features=100, bias=True)
      (3): LeakyReLU(negative_slope=0.01)
      (4): Linear(in_features=100, out_features=128, bias=True)
      (5): LeakyReLU(negative_slope=0.01)
    )
    (cnn_layer): Sequential(
      (0): Upsample(scale_factor=4.0, mode='nearest')
      (1): ConvTranspose2d(128, 128, kernel_size=(3, 3), stride=(1, 1), padding=(1, 1))
      (2): ReLU()
      (3): BatchNorm2d(128, eps=1e-05, momentum=0.1, affine=True, track_running_stats=True)
      (4): ConvTranspose2d(128, 64, kernel_size=(3, 3), stride=(1, 1), padding=(1, 1))
      (5): ReLU()
      (6): BatchNorm2d(64, eps=1e-05, momentum=0.1, affine=True, track_running_stats=True)
      (7): ConvTranspose2d(64, 32, kernel_size=(3, 3), stride=(1, 1))
      (8): ReLU()
      (9): BatchNorm2d(32, eps=1e-05, momentum=0.1, affine=True, track_running_stats=True)
      (10): ConvTranspose2d(32, 1, kernel_size=(3, 3), stride=(1, 1))
      (11): ReLU()
      (12): BatchNorm2d(1, eps=1e-05, momentum=0.1, affine=True, track_running_stats=True)
    )
    (out_layer): Sequential(
      (0): Linear(in_features=64, out_features=100, bias=True)
      (1): LeakyReLU(negative_slope=0.01)
    )
  )
)
Number of parameters: 541754
 40%|███▉      | 199/500 [1:17:20<1:56:58, 23.32s/it]
Training Model parameters:
{'C_code_words': 2,
 'N_RIS': 100,
 'Nc_RIS': 32,
 'Nc_RIS_compressed_ratio': 0.32,
 'Nh_RIS': 10,
 'Nw_RIS': 10,
 'Q_bits': 1,
 'batch_size': 256,
 'epoch_echo': True,
 'epoch_val': 100,
 'epochs': 500,
 'grace_period': 20,
 'lr': 0.001,
 'mc_runs': 1000000,
 'momentum': 0.9,
 'overall_bits': 32,
 'snr_dB': -5,
 'step_size': 10,
 'train_test_split': 0.8,
 'train_val_split': 0.8,
 'training_iterations': 50,
 'trials': 500,
 'trials_per_device': 5}
Achievable Rate (bps/Hz) using RIS phase shifts with Transmit power SNR -5 dB:
optimum:  12.526344299316406
AQE net:  6.495823383331299
lin Q:    6.040382385253906
random:   5.5215840339660645
AutoQEncoder(
  (encoder_layer): EncoderLayer(
    (cnn_layer): Sequential(
      (0): Conv2d(5, 32, kernel_size=(3, 3), stride=(1, 1), padding=(1, 1), padding_mode=circular)
      (1): BatchNorm2d(32, eps=1e-05, momentum=0.1, affine=True, track_running_stats=True)
      (2): ReLU()
      (3): Conv2d(32, 64, kernel_size=(3, 3), stride=(1, 1))
      (4): BatchNorm2d(64, eps=1e-05, momentum=0.1, affine=True, track_running_stats=True)
      (5): ReLU()
      (6): Conv2d(64, 128, kernel_size=(3, 3), stride=(1, 1))
      (7): BatchNorm2d(128, eps=1e-05, momentum=0.1, affine=True, track_running_stats=True)
      (8): ReLU()
      (9): Conv2d(128, 128, kernel_size=(3, 3), stride=(1, 1))
      (10): BatchNorm2d(128, eps=1e-05, momentum=0.1, affine=True, track_running_stats=True)
      (11): ReLU()
      (12): MaxPool2d(kernel_size=4, stride=4, padding=0, dilation=1, ceil_mode=False)
    )
    (linear_encoder): Sequential(
      (0): Dropout(p=0.5, inplace=False)
      (1): Linear(in_features=128, out_features=100, bias=True)
      (2): LeakyReLU(negative_slope=0.01)
      (3): Linear(in_features=100, out_features=100, bias=True)
      (4): LeakyReLU(negative_slope=0.01)
      (5): Linear(in_features=100, out_features=64, bias=True)
      (6): LeakyReLU(negative_slope=0.01)
    )
  )
  (quantizer_layer): QuantizerLayer()
  (decoder_layer): DecoderLayer(
    (linear_decoder): Sequential(
      (0): Linear(in_features=64, out_features=100, bias=True)
      (1): LeakyReLU(negative_slope=0.01)
      (2): Linear(in_features=100, out_features=100, bias=True)
      (3): LeakyReLU(negative_slope=0.01)
      (4): Linear(in_features=100, out_features=128, bias=True)
      (5): LeakyReLU(negative_slope=0.01)
    )
    (cnn_layer): Sequential(
      (0): Upsample(scale_factor=4.0, mode='nearest')
      (1): ConvTranspose2d(128, 128, kernel_size=(3, 3), stride=(1, 1), padding=(1, 1))
      (2): ReLU()
      (3): BatchNorm2d(128, eps=1e-05, momentum=0.1, affine=True, track_running_stats=True)
      (4): ConvTranspose2d(128, 64, kernel_size=(3, 3), stride=(1, 1), padding=(1, 1))
      (5): ReLU()
      (6): BatchNorm2d(64, eps=1e-05, momentum=0.1, affine=True, track_running_stats=True)
      (7): ConvTranspose2d(64, 32, kernel_size=(3, 3), stride=(1, 1))
      (8): ReLU()
      (9): BatchNorm2d(32, eps=1e-05, momentum=0.1, affine=True, track_running_stats=True)
      (10): ConvTranspose2d(32, 1, kernel_size=(3, 3), stride=(1, 1))
      (11): ReLU()
      (12): BatchNorm2d(1, eps=1e-05, momentum=0.1, affine=True, track_running_stats=True)
    )
    (out_layer): Sequential(
      (0): Linear(in_features=64, out_features=100, bias=True)
      (1): LeakyReLU(negative_slope=0.01)
    )
  )
)
Number of parameters: 548186
LinearQuantizer(
  (encoder_layer): Linear(in_features=100, out_features=64, bias=True)
  (quantizer_layer): QuantizerLayer()
  (decoder_layer): Linear(in_features=64, out_features=100, bias=True)
)
Number of parameters: 12967
  0%|          | 1/500 [00:36<5:07:24, 36.96s/it]
 0.001 -> 0.001
Epoch: 0 	Training Loss: -0.0017275790 	Validation Loss: -0.0063886171
Validation loss same/decreased (inf --> -0.0063886171)... saving model.
 0.001 -> 0.001
Epoch: 1 	Training Loss: -0.0017822705 	Validation Loss: -0.0063757860
  1%|          | 3/500 [01:50<5:05:59, 36.94s/it]
…
Epoch: 196 	Training Loss: -0.0024310429 	Validation Loss: -0.0055285524
 1.0000000000000002e-06 -> 1.0000000000000002e-06
Epoch: 197 	Training Loss: -0.0024310413 	Validation Loss: -0.0055292706
 40%|███▉      | 199/500 [1:17:18<1:56:16, 23.18s/it]
 1.0000000000000002e-06 -> 1.0000000000000002e-06
Epoch: 198 	Training Loss: -0.0024310399 	Validation Loss: -0.0055292959
 1.0000000000000002e-06 -> 1.0000000000000002e-06
Epoch: 199 	Training Loss: -0.0024310387 	Validation Loss: -0.0055293200
No Validation early stop loss decrease (-0.5529270235 --> -0.5520350870). Early Stopping
AutoQEncoder(
  (encoder_layer): EncoderLayer(
    (cnn_layer): Sequential(
      (0): Conv2d(5, 32, kernel_size=(3, 3), stride=(1, 1), padding=(1, 1), padding_mode=circular)
      (1): BatchNorm2d(32, eps=1e-05, momentum=0.1, affine=True, track_running_stats=True)
      (2): ReLU()
      (3): Conv2d(32, 64, kernel_size=(3, 3), stride=(1, 1))
      (4): BatchNorm2d(64, eps=1e-05, momentum=0.1, affine=True, track_running_stats=True)
      (5): ReLU()
      (6): Conv2d(64, 128, kernel_size=(3, 3), stride=(1, 1))
      (7): BatchNorm2d(128, eps=1e-05, momentum=0.1, affine=True, track_running_stats=True)
      (8): ReLU()
      (9): Conv2d(128, 128, kernel_size=(3, 3), stride=(1, 1))
      (10): BatchNorm2d(128, eps=1e-05, momentum=0.1, affine=True, track_running_stats=True)
      (11): ReLU()
      (12): MaxPool2d(kernel_size=4, stride=4, padding=0, dilation=1, ceil_mode=False)
    )
    (linear_encoder): Sequential(
      (0): Dropout(p=0.5, inplace=False)
      (1): Linear(in_features=128, out_features=100, bias=True)
      (2): LeakyReLU(negative_slope=0.01)
      (3): Linear(in_features=100, out_features=100, bias=True)
      (4): LeakyReLU(negative_slope=0.01)
      (5): Linear(in_features=100, out_features=64, bias=True)
      (6): LeakyReLU(negative_slope=0.01)
    )
  )
  (quantizer_layer): QuantizerLayer()
  (decoder_layer): DecoderLayer(
    (linear_decoder): Sequential(
      (0): Linear(in_features=64, out_features=100, bias=True)
      (1): LeakyReLU(negative_slope=0.01)
      (2): Linear(in_features=100, out_features=100, bias=True)
      (3): LeakyReLU(negative_slope=0.01)
      (4): Linear(in_features=100, out_features=128, bias=True)
      (5): LeakyReLU(negative_slope=0.01)
    )
    (cnn_layer): Sequential(
      (0): Upsample(scale_factor=4.0, mode='nearest')
      (1): ConvTranspose2d(128, 128, kernel_size=(3, 3), stride=(1, 1), padding=(1, 1))
      (2): ReLU()
      (3): BatchNorm2d(128, eps=1e-05, momentum=0.1, affine=True, track_running_stats=True)
      (4): ConvTranspose2d(128, 64, kernel_size=(3, 3), stride=(1, 1), padding=(1, 1))
      (5): ReLU()
      (6): BatchNorm2d(64, eps=1e-05, momentum=0.1, affine=True, track_running_stats=True)
      (7): ConvTranspose2d(64, 32, kernel_size=(3, 3), stride=(1, 1))
      (8): ReLU()
      (9): BatchNorm2d(32, eps=1e-05, momentum=0.1, affine=True, track_running_stats=True)
      (10): ConvTranspose2d(32, 1, kernel_size=(3, 3), stride=(1, 1))
      (11): ReLU()
      (12): BatchNorm2d(1, eps=1e-05, momentum=0.1, affine=True, track_running_stats=True)
    )
    (out_layer): Sequential(
      (0): Linear(in_features=64, out_features=100, bias=True)
      (1): LeakyReLU(negative_slope=0.01)
    )
  )
)
Number of parameters: 548186
 40%|███▉      | 199/500 [1:17:41<1:57:30, 23.42s/it]
Training Model parameters:
{'C_code_words': 2,
 'N_RIS': 100,
 'Nc_RIS': 64,
 'Nc_RIS_compressed_ratio': 0.64,
 'Nh_RIS': 10,
 'Nw_RIS': 10,
 'Q_bits': 1,
 'batch_size': 256,
 'epoch_echo': True,
 'epoch_val': 100,
 'epochs': 500,
 'grace_period': 20,
 'lr': 0.001,
 'mc_runs': 1000000,
 'momentum': 0.9,
 'overall_bits': 64,
 'snr_dB': -5,
 'step_size': 10,
 'train_test_split': 0.8,
 'train_val_split': 0.8,
 'training_iterations': 50,
 'trials': 500,
 'trials_per_device': 5}
Achievable Rate (bps/Hz) using RIS phase shifts with Transmit power SNR -5 dB:
optimum:  12.526344299316406
AQE net:  6.991670608520508
lin Q:    5.528034210205078
random:   5.523556709289551
AutoQEncoder(
  (encoder_layer): EncoderLayer(
    (cnn_layer): Sequential(
      (0): Conv2d(5, 32, kernel_size=(3, 3), stride=(1, 1), padding=(1, 1), padding_mode=circular)
      (1): BatchNorm2d(32, eps=1e-05, momentum=0.1, affine=True, track_running_stats=True)
      (2): ReLU()
      (3): Conv2d(32, 64, kernel_size=(3, 3), stride=(1, 1))
      (4): BatchNorm2d(64, eps=1e-05, momentum=0.1, affine=True, track_running_stats=True)
      (5): ReLU()
      (6): Conv2d(64, 128, kernel_size=(3, 3), stride=(1, 1))
      (7): BatchNorm2d(128, eps=1e-05, momentum=0.1, affine=True, track_running_stats=True)
      (8): ReLU()
      (9): Conv2d(128, 128, kernel_size=(3, 3), stride=(1, 1))
      (10): BatchNorm2d(128, eps=1e-05, momentum=0.1, affine=True, track_running_stats=True)
      (11): ReLU()
      (12): MaxPool2d(kernel_size=4, stride=4, padding=0, dilation=1, ceil_mode=False)
    )
    (linear_encoder): Sequential(
      (0): Dropout(p=0.5, inplace=False)
      (1): Linear(in_features=128, out_features=100, bias=True)
      (2): LeakyReLU(negative_slope=0.01)
      (3): Linear(in_features=100, out_features=100, bias=True)
      (4): LeakyReLU(negative_slope=0.01)
      (5): Linear(in_features=100, out_features=128, bias=True)
      (6): LeakyReLU(negative_slope=0.01)
    )
  )
  (quantizer_layer): QuantizerLayer()
  (decoder_layer): DecoderLayer(
    (linear_decoder): Sequential(
      (0): Linear(in_features=128, out_features=100, bias=True)
      (1): LeakyReLU(negative_slope=0.01)
      (2): Linear(in_features=100, out_features=100, bias=True)
      (3): LeakyReLU(negative_slope=0.01)
      (4): Linear(in_features=100, out_features=128, bias=True)
      (5): LeakyReLU(negative_slope=0.01)
    )
    (cnn_layer): Sequential(
      (0): Upsample(scale_factor=4.0, mode='nearest')
      (1): ConvTranspose2d(128, 128, kernel_size=(3, 3), stride=(1, 1), padding=(1, 1))
      (2): ReLU()
      (3): BatchNorm2d(128, eps=1e-05, momentum=0.1, affine=True, track_running_stats=True)
      (4): ConvTranspose2d(128, 64, kernel_size=(3, 3), stride=(1, 1), padding=(1, 1))
      (5): ReLU()
      (6): BatchNorm2d(64, eps=1e-05, momentum=0.1, affine=True, track_running_stats=True)
      (7): ConvTranspose2d(64, 32, kernel_size=(3, 3), stride=(1, 1))
      (8): ReLU()
      (9): BatchNorm2d(32, eps=1e-05, momentum=0.1, affine=True, track_running_stats=True)
      (10): ConvTranspose2d(32, 1, kernel_size=(3, 3), stride=(1, 1))
      (11): ReLU()
      (12): BatchNorm2d(1, eps=1e-05, momentum=0.1, affine=True, track_running_stats=True)
    )
    (out_layer): Sequential(
      (0): Linear(in_features=64, out_features=100, bias=True)
      (1): LeakyReLU(negative_slope=0.01)
    )
  )
)
Number of parameters: 561050
LinearQuantizer(
  (encoder_layer): Linear(in_features=100, out_features=128, bias=True)
  (quantizer_layer): QuantizerLayer()
  (decoder_layer): Linear(in_features=128, out_features=100, bias=True)
)
Number of parameters: 25831
  0%|          | 1/500 [00:37<5:08:48, 37.13s/it]
 0.001 -> 0.001
Epoch: 0 	Training Loss: -0.0016367630 	Validation Loss: -0.0060468027
Validation loss same/decreased (inf --> -0.0060468027)... saving model.
 0.001 -> 0.001
Epoch: 1 	Training Loss: -0.0017940447 	Validation Loss: -0.0060339816
  1%|          | 3/500 [01:51<5:09:22, 37.35s/it]
…
Epoch: 296 	Training Loss: -0.0025026143 	Validation Loss: -0.0055905657
 1.0000000000000002e-07 -> 1.0000000000000002e-07
Epoch: 297 	Training Loss: -0.0025026144 	Validation Loss: -0.0055905649
 60%|█████▉    | 299/500 [1:53:18<1:16:04, 22.71s/it]
 1.0000000000000002e-07 -> 1.0000000000000002e-07
Epoch: 298 	Training Loss: -0.0025026145 	Validation Loss: -0.0055905642
 1.0000000000000002e-07 -> 1.0000000000000002e-07
Epoch: 299 	Training Loss: -0.0025026145 	Validation Loss: -0.0055905633
No Validation early stop loss decrease (-0.5600984763 --> -0.5593494199). Early Stopping
AutoQEncoder(
  (encoder_layer): EncoderLayer(
    (cnn_layer): Sequential(
      (0): Conv2d(5, 32, kernel_size=(3, 3), stride=(1, 1), padding=(1, 1), padding_mode=circular)
      (1): BatchNorm2d(32, eps=1e-05, momentum=0.1, affine=True, track_running_stats=True)
      (2): ReLU()
      (3): Conv2d(32, 64, kernel_size=(3, 3), stride=(1, 1))
      (4): BatchNorm2d(64, eps=1e-05, momentum=0.1, affine=True, track_running_stats=True)
      (5): ReLU()
      (6): Conv2d(64, 128, kernel_size=(3, 3), stride=(1, 1))
      (7): BatchNorm2d(128, eps=1e-05, momentum=0.1, affine=True, track_running_stats=True)
      (8): ReLU()
      (9): Conv2d(128, 128, kernel_size=(3, 3), stride=(1, 1))
      (10): BatchNorm2d(128, eps=1e-05, momentum=0.1, affine=True, track_running_stats=True)
      (11): ReLU()
      (12): MaxPool2d(kernel_size=4, stride=4, padding=0, dilation=1, ceil_mode=False)
    )
    (linear_encoder): Sequential(
      (0): Dropout(p=0.5, inplace=False)
      (1): Linear(in_features=128, out_features=100, bias=True)
      (2): LeakyReLU(negative_slope=0.01)
      (3): Linear(in_features=100, out_features=100, bias=True)
      (4): LeakyReLU(negative_slope=0.01)
      (5): Linear(in_features=100, out_features=128, bias=True)
      (6): LeakyReLU(negative_slope=0.01)
    )
  )
  (quantizer_layer): QuantizerLayer()
  (decoder_layer): DecoderLayer(
    (linear_decoder): Sequential(
      (0): Linear(in_features=128, out_features=100, bias=True)
      (1): LeakyReLU(negative_slope=0.01)
      (2): Linear(in_features=100, out_features=100, bias=True)
      (3): LeakyReLU(negative_slope=0.01)
      (4): Linear(in_features=100, out_features=128, bias=True)
      (5): LeakyReLU(negative_slope=0.01)
    )
    (cnn_layer): Sequential(
      (0): Upsample(scale_factor=4.0, mode='nearest')
      (1): ConvTranspose2d(128, 128, kernel_size=(3, 3), stride=(1, 1), padding=(1, 1))
      (2): ReLU()
      (3): BatchNorm2d(128, eps=1e-05, momentum=0.1, affine=True, track_running_stats=True)
      (4): ConvTranspose2d(128, 64, kernel_size=(3, 3), stride=(1, 1), padding=(1, 1))
      (5): ReLU()
      (6): BatchNorm2d(64, eps=1e-05, momentum=0.1, affine=True, track_running_stats=True)
      (7): ConvTranspose2d(64, 32, kernel_size=(3, 3), stride=(1, 1))
      (8): ReLU()
      (9): BatchNorm2d(32, eps=1e-05, momentum=0.1, affine=True, track_running_stats=True)
      (10): ConvTranspose2d(32, 1, kernel_size=(3, 3), stride=(1, 1))
      (11): ReLU()
      (12): BatchNorm2d(1, eps=1e-05, momentum=0.1, affine=True, track_running_stats=True)
    )
    (out_layer): Sequential(
      (0): Linear(in_features=64, out_features=100, bias=True)
      (1): LeakyReLU(negative_slope=0.01)
    )
  )
)
Number of parameters: 561050
 60%|█████▉    | 299/500 [1:53:41<1:16:25, 22.81s/it]
Training Model parameters:
{'C_code_words': 2,
 'N_RIS': 100,
 'Nc_RIS': 128,
 'Nc_RIS_compressed_ratio': 1.28,
 'Nh_RIS': 10,
 'Nw_RIS': 10,
 'Q_bits': 1,
 'batch_size': 256,
 'epoch_echo': True,
 'epoch_val': 100,
 'epochs': 500,
…
