…
M                1
N              100
Nw              10
Nh              10
mc_runs    1000000
Name: 0, dtype: int64
Training Model parameters:
{'N_RIS': 100,
 'Nc_RIS': 100,
 'Nh_RIS': 10,
 'Nw_RIS': 10,
 'Q_bits': 3,
 'batch_size': 256,
 'epoch_echo': True,
 'epoch_val': 100,
 'epochs': 500,
 'lr': 0.001,
 'mc_runs': 1000000,
 'momentum': 0.9,
 'snr_dB': -5,
 'step_size': 10,
 'train_test_split': 0.8,
 'train_val_split': 0.8}
--------------
Create Dataset
--------------
------------
Train & Test
------------
AutoQEncoder(
  (encoder_layer): EncoderLayer(
    (cnn_layer): Sequential(
      (0): Conv2d(5, 32, kernel_size=(3, 3), stride=(1, 1), padding=(1, 1), padding_mode=circular)
      (1): BatchNorm2d(32, eps=1e-05, momentum=0.1, affine=True, track_running_stats=True)
      (2): ReLU()
      (3): Conv2d(32, 64, kernel_size=(3, 3), stride=(1, 1))
      (4): BatchNorm2d(64, eps=1e-05, momentum=0.1, affine=True, track_running_stats=True)
      (5): ReLU()
      (6): Conv2d(64, 128, kernel_size=(3, 3), stride=(1, 1))
      (7): BatchNorm2d(128, eps=1e-05, momentum=0.1, affine=True, track_running_stats=True)
      (8): ReLU()
      (9): Conv2d(128, 128, kernel_size=(3, 3), stride=(1, 1))
      (10): BatchNorm2d(128, eps=1e-05, momentum=0.1, affine=True, track_running_stats=True)
      (11): ReLU()
      (12): MaxPool2d(kernel_size=4, stride=4, padding=0, dilation=1, ceil_mode=False)
    )
    (linear_encoder): Sequential(
      (0): Dropout(p=0.5, inplace=False)
      (1): Linear(in_features=128, out_features=100, bias=True)
      (2): LeakyReLU(negative_slope=0.01)
      (3): Linear(in_features=100, out_features=100, bias=True)
      (4): LeakyReLU(negative_slope=0.01)
      (5): Linear(in_features=100, out_features=2, bias=True)
      (6): LeakyReLU(negative_slope=0.01)
    )
  )
  (quantizer_layer): QuantizerLayer()
  (decoder_layer): DecoderLayer(
    (linear_decoder): Sequential(
      (0): Linear(in_features=2, out_features=100, bias=True)
      (1): LeakyReLU(negative_slope=0.01)
      (2): Linear(in_features=100, out_features=100, bias=True)
      (3): LeakyReLU(negative_slope=0.01)
      (4): Linear(in_features=100, out_features=128, bias=True)
      (5): LeakyReLU(negative_slope=0.01)
    )
    (cnn_layer): Sequential(
      (0): Upsample(scale_factor=4.0, mode='nearest')
      (1): ConvTranspose2d(128, 128, kernel_size=(3, 3), stride=(1, 1), padding=(1, 1))
      (2): ReLU()
      (3): BatchNorm2d(128, eps=1e-05, momentum=0.1, affine=True, track_running_stats=True)
      (4): ConvTranspose2d(128, 64, kernel_size=(3, 3), stride=(1, 1), padding=(1, 1))
      (5): ReLU()
      (6): BatchNorm2d(64, eps=1e-05, momentum=0.1, affine=True, track_running_stats=True)
      (7): ConvTranspose2d(64, 32, kernel_size=(3, 3), stride=(1, 1))
      (8): ReLU()
      (9): BatchNorm2d(32, eps=1e-05, momentum=0.1, affine=True, track_running_stats=True)
      (10): ConvTranspose2d(32, 1, kernel_size=(3, 3), stride=(1, 1))
      (11): ReLU()
      (12): BatchNorm2d(1, eps=1e-05, momentum=0.1, affine=True, track_running_stats=True)
    )
    (out_layer): Sequential(
      (0): Linear(in_features=64, out_features=100, bias=True)
      (1): LeakyReLU(negative_slope=0.01)
    )
  )
)
Number of parameters: 535742
LinearQuantizer(
  (encoder_layer): Linear(in_features=100, out_features=2, bias=True)
  (quantizer_layer): QuantizerLayer()
  (decoder_layer): Linear(in_features=2, out_features=100, bias=True)
)
Number of parameters: 523
  0%|          | 0/500 [00:00<?, ?it/s]
 0.001 -> 0.001

Epoch: 0 	Training Loss: -0.0016087593 	Validation Loss: -0.0061356264
Validation loss same/decreased (inf --> -0.0061356264)... saving model.
  0%|          | 1/500 [00:26<3:37:05, 26.10s/it]
 0.001 -> 0.001

Epoch: 1 	Training Loss: -0.0016950508 	Validation Loss: -0.0062567496
…
100%|█████████▉| 498/500 [2:01:45<00:29, 14.51s/it]
 1.0000000000000004e-08 -> 1.0000000000000004e-08

Epoch: 498 	Training Loss: -0.0017334879 	Validation Loss: -0.0063477673
100%|█████████▉| 499/500 [2:01:59<00:14, 14.52s/it]
 1.0000000000000004e-08 -> 1.0000000000000004e-08

Epoch: 499 	Training Loss: -0.0017334879 	Validation Loss: -0.0063477673
Validation early stop running loss decreased (-0.6347764439 --> -0.6347765970).
100%|██████████| 500/500 [2:02:14<00:00, 14.53s/it]100%|██████████| 500/500 [2:02:14<00:00, 14.67s/it]
AutoQEncoder(
  (encoder_layer): EncoderLayer(
    (cnn_layer): Sequential(
      (0): Conv2d(5, 32, kernel_size=(3, 3), stride=(1, 1), padding=(1, 1), padding_mode=circular)
      (1): BatchNorm2d(32, eps=1e-05, momentum=0.1, affine=True, track_running_stats=True)
      (2): ReLU()
      (3): Conv2d(32, 64, kernel_size=(3, 3), stride=(1, 1))
      (4): BatchNorm2d(64, eps=1e-05, momentum=0.1, affine=True, track_running_stats=True)
      (5): ReLU()
      (6): Conv2d(64, 128, kernel_size=(3, 3), stride=(1, 1))
      (7): BatchNorm2d(128, eps=1e-05, momentum=0.1, affine=True, track_running_stats=True)
      (8): ReLU()
      (9): Conv2d(128, 128, kernel_size=(3, 3), stride=(1, 1))
      (10): BatchNorm2d(128, eps=1e-05, momentum=0.1, affine=True, track_running_stats=True)
      (11): ReLU()
      (12): MaxPool2d(kernel_size=4, stride=4, padding=0, dilation=1, ceil_mode=False)
    )
    (linear_encoder): Sequential(
      (0): Dropout(p=0.5, inplace=False)
      (1): Linear(in_features=128, out_features=100, bias=True)
      (2): LeakyReLU(negative_slope=0.01)
      (3): Linear(in_features=100, out_features=100, bias=True)
      (4): LeakyReLU(negative_slope=0.01)
      (5): Linear(in_features=100, out_features=2, bias=True)
      (6): LeakyReLU(negative_slope=0.01)
    )
  )
  (quantizer_layer): QuantizerLayer()
  (decoder_layer): DecoderLayer(
    (linear_decoder): Sequential(
      (0): Linear(in_features=2, out_features=100, bias=True)
      (1): LeakyReLU(negative_slope=0.01)
      (2): Linear(in_features=100, out_features=100, bias=True)
      (3): LeakyReLU(negative_slope=0.01)
      (4): Linear(in_features=100, out_features=128, bias=True)
      (5): LeakyReLU(negative_slope=0.01)
    )
    (cnn_layer): Sequential(
      (0): Upsample(scale_factor=4.0, mode='nearest')
      (1): ConvTranspose2d(128, 128, kernel_size=(3, 3), stride=(1, 1), padding=(1, 1))
      (2): ReLU()
      (3): BatchNorm2d(128, eps=1e-05, momentum=0.1, affine=True, track_running_stats=True)
      (4): ConvTranspose2d(128, 64, kernel_size=(3, 3), stride=(1, 1), padding=(1, 1))
      (5): ReLU()
      (6): BatchNorm2d(64, eps=1e-05, momentum=0.1, affine=True, track_running_stats=True)
      (7): ConvTranspose2d(64, 32, kernel_size=(3, 3), stride=(1, 1))
      (8): ReLU()
      (9): BatchNorm2d(32, eps=1e-05, momentum=0.1, affine=True, track_running_stats=True)
      (10): ConvTranspose2d(32, 1, kernel_size=(3, 3), stride=(1, 1))
      (11): ReLU()
      (12): BatchNorm2d(1, eps=1e-05, momentum=0.1, affine=True, track_running_stats=True)
    )
    (out_layer): Sequential(
      (0): Linear(in_features=64, out_features=100, bias=True)
      (1): LeakyReLU(negative_slope=0.01)
    )
  )
)
Number of parameters: 535742
Training Model parameters:
{'C_code_words': 8,
 'N_RIS': 100,
 'Nc_RIS': 2,
 'Nc_RIS_compressed_ratio': 0.02,
 'Nh_RIS': 10,
 'Nw_RIS': 10,
 'Q_bits': 3,
 'batch_size': 256,
 'epoch_echo': True,
 'epoch_val': 100,
 'epochs': 500,
 'lr': 0.001,
 'mc_runs': 1000000,
 'momentum': 0.9,
 'overall_bits': 6,
 'snr_dB': -5,
 'step_size': 10,
 'train_test_split': 0.8,
 'train_val_split': 0.8}
Achievable Rate (bps/Hz) using RIS phase shifts with Transmit power SNR -5 dB:
optimum:  12.528217315673828
AQE net:  6.230350971221924
lin Q:    6.070522308349609
random:   5.520191192626953
AutoQEncoder(
  (encoder_layer): EncoderLayer(
    (cnn_layer): Sequential(
      (0): Conv2d(5, 32, kernel_size=(3, 3), stride=(1, 1), padding=(1, 1), padding_mode=circular)
      (1): BatchNorm2d(32, eps=1e-05, momentum=0.1, affine=True, track_running_stats=True)
      (2): ReLU()
      (3): Conv2d(32, 64, kernel_size=(3, 3), stride=(1, 1))
      (4): BatchNorm2d(64, eps=1e-05, momentum=0.1, affine=True, track_running_stats=True)
      (5): ReLU()
      (6): Conv2d(64, 128, kernel_size=(3, 3), stride=(1, 1))
      (7): BatchNorm2d(128, eps=1e-05, momentum=0.1, affine=True, track_running_stats=True)
      (8): ReLU()
      (9): Conv2d(128, 128, kernel_size=(3, 3), stride=(1, 1))
      (10): BatchNorm2d(128, eps=1e-05, momentum=0.1, affine=True, track_running_stats=True)
      (11): ReLU()
      (12): MaxPool2d(kernel_size=4, stride=4, padding=0, dilation=1, ceil_mode=False)
    )
    (linear_encoder): Sequential(
      (0): Dropout(p=0.5, inplace=False)
      (1): Linear(in_features=128, out_features=100, bias=True)
      (2): LeakyReLU(negative_slope=0.01)
      (3): Linear(in_features=100, out_features=100, bias=True)
      (4): LeakyReLU(negative_slope=0.01)
      (5): Linear(in_features=100, out_features=4, bias=True)
      (6): LeakyReLU(negative_slope=0.01)
    )
  )
  (quantizer_layer): QuantizerLayer()
  (decoder_layer): DecoderLayer(
    (linear_decoder): Sequential(
      (0): Linear(in_features=4, out_features=100, bias=True)
      (1): LeakyReLU(negative_slope=0.01)
      (2): Linear(in_features=100, out_features=100, bias=True)
      (3): LeakyReLU(negative_slope=0.01)
      (4): Linear(in_features=100, out_features=128, bias=True)
      (5): LeakyReLU(negative_slope=0.01)
    )
    (cnn_layer): Sequential(
      (0): Upsample(scale_factor=4.0, mode='nearest')
      (1): ConvTranspose2d(128, 128, kernel_size=(3, 3), stride=(1, 1), padding=(1, 1))
      (2): ReLU()
      (3): BatchNorm2d(128, eps=1e-05, momentum=0.1, affine=True, track_running_stats=True)
      (4): ConvTranspose2d(128, 64, kernel_size=(3, 3), stride=(1, 1), padding=(1, 1))
      (5): ReLU()
      (6): BatchNorm2d(64, eps=1e-05, momentum=0.1, affine=True, track_running_stats=True)
      (7): ConvTranspose2d(64, 32, kernel_size=(3, 3), stride=(1, 1))
      (8): ReLU()
      (9): BatchNorm2d(32, eps=1e-05, momentum=0.1, affine=True, track_running_stats=True)
      (10): ConvTranspose2d(32, 1, kernel_size=(3, 3), stride=(1, 1))
      (11): ReLU()
      (12): BatchNorm2d(1, eps=1e-05, momentum=0.1, affine=True, track_running_stats=True)
    )
    (out_layer): Sequential(
      (0): Linear(in_features=64, out_features=100, bias=True)
      (1): LeakyReLU(negative_slope=0.01)
    )
  )
)
Number of parameters: 536144
LinearQuantizer(
  (encoder_layer): Linear(in_features=100, out_features=4, bias=True)
  (quantizer_layer): QuantizerLayer()
  (decoder_layer): Linear(in_features=4, out_features=100, bias=True)
)
Number of parameters: 925
  0%|          | 0/500 [00:00<?, ?it/s]
 0.001 -> 0.001

Epoch: 0 	Training Loss: -0.0016740885 	Validation Loss: -0.0061176669
Validation loss same/decreased (inf --> -0.0061176669)... saving model.
  0%|          | 1/500 [00:23<3:18:06, 23.82s/it]
 0.001 -> 0.001

Epoch: 1 	Training Loss: -0.0017178637 	Validation Loss: -0.0062705667
…
Epoch: 197 	Training Loss: -0.0018135190 	Validation Loss: -0.0064838281
 40%|███▉      | 198/500 [48:07<1:13:24, 14.59s/it]
 1.0000000000000002e-06 -> 1.0000000000000002e-06

Epoch: 198 	Training Loss: -0.0018135198 	Validation Loss: -0.0064837654
 40%|███▉      | 199/500 [48:21<1:13:10, 14.59s/it]
 1.0000000000000002e-06 -> 1.0000000000000002e-06

Epoch: 199 	Training Loss: -0.0018135205 	Validation Loss: -0.0064837029
No Validation early stop loss decrease (-0.6582670380 --> -0.6490700601). Early Stopping
 40%|███▉      | 199/500 [48:36<1:13:31, 14.65s/it]
AutoQEncoder(
  (encoder_layer): EncoderLayer(
    (cnn_layer): Sequential(
      (0): Conv2d(5, 32, kernel_size=(3, 3), stride=(1, 1), padding=(1, 1), padding_mode=circular)
      (1): BatchNorm2d(32, eps=1e-05, momentum=0.1, affine=True, track_running_stats=True)
      (2): ReLU()
      (3): Conv2d(32, 64, kernel_size=(3, 3), stride=(1, 1))
      (4): BatchNorm2d(64, eps=1e-05, momentum=0.1, affine=True, track_running_stats=True)
      (5): ReLU()
      (6): Conv2d(64, 128, kernel_size=(3, 3), stride=(1, 1))
      (7): BatchNorm2d(128, eps=1e-05, momentum=0.1, affine=True, track_running_stats=True)
      (8): ReLU()
      (9): Conv2d(128, 128, kernel_size=(3, 3), stride=(1, 1))
      (10): BatchNorm2d(128, eps=1e-05, momentum=0.1, affine=True, track_running_stats=True)
      (11): ReLU()
      (12): MaxPool2d(kernel_size=4, stride=4, padding=0, dilation=1, ceil_mode=False)
    )
    (linear_encoder): Sequential(
      (0): Dropout(p=0.5, inplace=False)
      (1): Linear(in_features=128, out_features=100, bias=True)
      (2): LeakyReLU(negative_slope=0.01)
      (3): Linear(in_features=100, out_features=100, bias=True)
      (4): LeakyReLU(negative_slope=0.01)
      (5): Linear(in_features=100, out_features=4, bias=True)
      (6): LeakyReLU(negative_slope=0.01)
    )
  )
  (quantizer_layer): QuantizerLayer()
  (decoder_layer): DecoderLayer(
    (linear_decoder): Sequential(
      (0): Linear(in_features=4, out_features=100, bias=True)
      (1): LeakyReLU(negative_slope=0.01)
      (2): Linear(in_features=100, out_features=100, bias=True)
      (3): LeakyReLU(negative_slope=0.01)
      (4): Linear(in_features=100, out_features=128, bias=True)
      (5): LeakyReLU(negative_slope=0.01)
    )
    (cnn_layer): Sequential(
      (0): Upsample(scale_factor=4.0, mode='nearest')
      (1): ConvTranspose2d(128, 128, kernel_size=(3, 3), stride=(1, 1), padding=(1, 1))
      (2): ReLU()
      (3): BatchNorm2d(128, eps=1e-05, momentum=0.1, affine=True, track_running_stats=True)
      (4): ConvTranspose2d(128, 64, kernel_size=(3, 3), stride=(1, 1), padding=(1, 1))
      (5): ReLU()
      (6): BatchNorm2d(64, eps=1e-05, momentum=0.1, affine=True, track_running_stats=True)
      (7): ConvTranspose2d(64, 32, kernel_size=(3, 3), stride=(1, 1))
      (8): ReLU()
      (9): BatchNorm2d(32, eps=1e-05, momentum=0.1, affine=True, track_running_stats=True)
      (10): ConvTranspose2d(32, 1, kernel_size=(3, 3), stride=(1, 1))
      (11): ReLU()
      (12): BatchNorm2d(1, eps=1e-05, momentum=0.1, affine=True, track_running_stats=True)
    )
    (out_layer): Sequential(
      (0): Linear(in_features=64, out_features=100, bias=True)
      (1): LeakyReLU(negative_slope=0.01)
    )
  )
)
Number of parameters: 536144
Training Model parameters:
{'C_code_words': 8,
 'N_RIS': 100,
 'Nc_RIS': 4,
 'Nc_RIS_compressed_ratio': 0.04,
 'Nh_RIS': 10,
 'Nw_RIS': 10,
 'Q_bits': 3,
 'batch_size': 256,
 'epoch_echo': True,
 'epoch_val': 100,
 'epochs': 500,
 'lr': 0.001,
 'mc_runs': 1000000,
 'momentum': 0.9,
 'overall_bits': 12,
 'snr_dB': -5,
 'step_size': 10,
 'train_test_split': 0.8,
 'train_val_split': 0.8}
Achievable Rate (bps/Hz) using RIS phase shifts with Transmit power SNR -5 dB:
optimum:  12.528217315673828
AQE net:  6.528834819793701
lin Q:    6.194953441619873
random:   5.5220513343811035
AutoQEncoder(
  (encoder_layer): EncoderLayer(
    (cnn_layer): Sequential(
      (0): Conv2d(5, 32, kernel_size=(3, 3), stride=(1, 1), padding=(1, 1), padding_mode=circular)
      (1): BatchNorm2d(32, eps=1e-05, momentum=0.1, affine=True, track_running_stats=True)
      (2): ReLU()
      (3): Conv2d(32, 64, kernel_size=(3, 3), stride=(1, 1))
      (4): BatchNorm2d(64, eps=1e-05, momentum=0.1, affine=True, track_running_stats=True)
      (5): ReLU()
      (6): Conv2d(64, 128, kernel_size=(3, 3), stride=(1, 1))
      (7): BatchNorm2d(128, eps=1e-05, momentum=0.1, affine=True, track_running_stats=True)
      (8): ReLU()
      (9): Conv2d(128, 128, kernel_size=(3, 3), stride=(1, 1))
      (10): BatchNorm2d(128, eps=1e-05, momentum=0.1, affine=True, track_running_stats=True)
      (11): ReLU()
      (12): MaxPool2d(kernel_size=4, stride=4, padding=0, dilation=1, ceil_mode=False)
    )
    (linear_encoder): Sequential(
      (0): Dropout(p=0.5, inplace=False)
      (1): Linear(in_features=128, out_features=100, bias=True)
      (2): LeakyReLU(negative_slope=0.01)
      (3): Linear(in_features=100, out_features=100, bias=True)
      (4): LeakyReLU(negative_slope=0.01)
      (5): Linear(in_features=100, out_features=8, bias=True)
      (6): LeakyReLU(negative_slope=0.01)
    )
  )
  (quantizer_layer): QuantizerLayer()
  (decoder_layer): DecoderLayer(
    (linear_decoder): Sequential(
      (0): Linear(in_features=8, out_features=100, bias=True)
      (1): LeakyReLU(negative_slope=0.01)
      (2): Linear(in_features=100, out_features=100, bias=True)
      (3): LeakyReLU(negative_slope=0.01)
      (4): Linear(in_features=100, out_features=128, bias=True)
      (5): LeakyReLU(negative_slope=0.01)
    )
    (cnn_layer): Sequential(
      (0): Upsample(scale_factor=4.0, mode='nearest')
      (1): ConvTranspose2d(128, 128, kernel_size=(3, 3), stride=(1, 1), padding=(1, 1))
      (2): ReLU()
      (3): BatchNorm2d(128, eps=1e-05, momentum=0.1, affine=True, track_running_stats=True)
      (4): ConvTranspose2d(128, 64, kernel_size=(3, 3), stride=(1, 1), padding=(1, 1))
      (5): ReLU()
      (6): BatchNorm2d(64, eps=1e-05, momentum=0.1, affine=True, track_running_stats=True)
      (7): ConvTranspose2d(64, 32, kernel_size=(3, 3), stride=(1, 1))
      (8): ReLU()
      (9): BatchNorm2d(32, eps=1e-05, momentum=0.1, affine=True, track_running_stats=True)
      (10): ConvTranspose2d(32, 1, kernel_size=(3, 3), stride=(1, 1))
      (11): ReLU()
      (12): BatchNorm2d(1, eps=1e-05, momentum=0.1, affine=True, track_running_stats=True)
    )
    (out_layer): Sequential(
      (0): Linear(in_features=64, out_features=100, bias=True)
      (1): LeakyReLU(negative_slope=0.01)
    )
  )
)
Number of parameters: 536948
LinearQuantizer(
  (encoder_layer): Linear(in_features=100, out_features=8, bias=True)
  (quantizer_layer): QuantizerLayer()
  (decoder_layer): Linear(in_features=8, out_features=100, bias=True)
)
Number of parameters: 1729
  0%|          | 0/500 [00:00<?, ?it/s]
 0.001 -> 0.001

Epoch: 0 	Training Loss: -0.0016161933 	Validation Loss: -0.0059701555
Validation loss same/decreased (inf --> -0.0059701555)... saving model.
  0%|          | 1/500 [00:23<3:17:52, 23.79s/it]
 0.001 -> 0.001

Epoch: 1 	Training Loss: -0.0016501088 	Validation Loss: -0.0062071083
…
Epoch: 197 	Training Loss: -0.0018618595 	Validation Loss: -0.0064786102
 40%|███▉      | 198/500 [48:22<1:13:34, 14.62s/it]
 1.0000000000000002e-06 -> 1.0000000000000002e-06

Epoch: 198 	Training Loss: -0.0018618594 	Validation Loss: -0.0064785729
 40%|███▉      | 199/500 [48:37<1:13:20, 14.62s/it]
 1.0000000000000002e-06 -> 1.0000000000000002e-06

Epoch: 199 	Training Loss: -0.0018618593 	Validation Loss: -0.0064785358
No Validation early stop loss decrease (-0.6708407076 --> -0.6478368054). Early Stopping
 40%|███▉      | 199/500 [48:51<1:13:54, 14.73s/it]
AutoQEncoder(
  (encoder_layer): EncoderLayer(
    (cnn_layer): Sequential(
      (0): Conv2d(5, 32, kernel_size=(3, 3), stride=(1, 1), padding=(1, 1), padding_mode=circular)
      (1): BatchNorm2d(32, eps=1e-05, momentum=0.1, affine=True, track_running_stats=True)
      (2): ReLU()
      (3): Conv2d(32, 64, kernel_size=(3, 3), stride=(1, 1))
      (4): BatchNorm2d(64, eps=1e-05, momentum=0.1, affine=True, track_running_stats=True)
      (5): ReLU()
      (6): Conv2d(64, 128, kernel_size=(3, 3), stride=(1, 1))
      (7): BatchNorm2d(128, eps=1e-05, momentum=0.1, affine=True, track_running_stats=True)
      (8): ReLU()
      (9): Conv2d(128, 128, kernel_size=(3, 3), stride=(1, 1))
      (10): BatchNorm2d(128, eps=1e-05, momentum=0.1, affine=True, track_running_stats=True)
      (11): ReLU()
      (12): MaxPool2d(kernel_size=4, stride=4, padding=0, dilation=1, ceil_mode=False)
    )
    (linear_encoder): Sequential(
      (0): Dropout(p=0.5, inplace=False)
      (1): Linear(in_features=128, out_features=100, bias=True)
      (2): LeakyReLU(negative_slope=0.01)
      (3): Linear(in_features=100, out_features=100, bias=True)
      (4): LeakyReLU(negative_slope=0.01)
      (5): Linear(in_features=100, out_features=8, bias=True)
      (6): LeakyReLU(negative_slope=0.01)
    )
  )
  (quantizer_layer): QuantizerLayer()
  (decoder_layer): DecoderLayer(
    (linear_decoder): Sequential(
      (0): Linear(in_features=8, out_features=100, bias=True)
      (1): LeakyReLU(negative_slope=0.01)
      (2): Linear(in_features=100, out_features=100, bias=True)
      (3): LeakyReLU(negative_slope=0.01)
      (4): Linear(in_features=100, out_features=128, bias=True)
      (5): LeakyReLU(negative_slope=0.01)
    )
    (cnn_layer): Sequential(
      (0): Upsample(scale_factor=4.0, mode='nearest')
      (1): ConvTranspose2d(128, 128, kernel_size=(3, 3), stride=(1, 1), padding=(1, 1))
      (2): ReLU()
      (3): BatchNorm2d(128, eps=1e-05, momentum=0.1, affine=True, track_running_stats=True)
      (4): ConvTranspose2d(128, 64, kernel_size=(3, 3), stride=(1, 1), padding=(1, 1))
      (5): ReLU()
      (6): BatchNorm2d(64, eps=1e-05, momentum=0.1, affine=True, track_running_stats=True)
      (7): ConvTranspose2d(64, 32, kernel_size=(3, 3), stride=(1, 1))
      (8): ReLU()
      (9): BatchNorm2d(32, eps=1e-05, momentum=0.1, affine=True, track_running_stats=True)
      (10): ConvTranspose2d(32, 1, kernel_size=(3, 3), stride=(1, 1))
      (11): ReLU()
      (12): BatchNorm2d(1, eps=1e-05, momentum=0.1, affine=True, track_running_stats=True)
    )
    (out_layer): Sequential(
      (0): Linear(in_features=64, out_features=100, bias=True)
      (1): LeakyReLU(negative_slope=0.01)
    )
  )
)
Number of parameters: 536948
Training Model parameters:
{'C_code_words': 8,
 'N_RIS': 100,
 'Nc_RIS': 8,
 'Nc_RIS_compressed_ratio': 0.08,
 'Nh_RIS': 10,
 'Nw_RIS': 10,
 'Q_bits': 3,
 'batch_size': 256,
 'epoch_echo': True,
 'epoch_val': 100,
 'epochs': 500,
 'lr': 0.001,
 'mc_runs': 1000000,
 'momentum': 0.9,
 'overall_bits': 24,
 'snr_dB': -5,
 'step_size': 10,
 'train_test_split': 0.8,
 'train_val_split': 0.8}
Achievable Rate (bps/Hz) using RIS phase shifts with Transmit power SNR -5 dB:
optimum:  12.528217315673828
AQE net:  6.935511112213135
lin Q:    6.844179630279541
random:   5.526237487792969
AutoQEncoder(
  (encoder_layer): EncoderLayer(
    (cnn_layer): Sequential(
      (0): Conv2d(5, 32, kernel_size=(3, 3), stride=(1, 1), padding=(1, 1), padding_mode=circular)
      (1): BatchNorm2d(32, eps=1e-05, momentum=0.1, affine=True, track_running_stats=True)
      (2): ReLU()
      (3): Conv2d(32, 64, kernel_size=(3, 3), stride=(1, 1))
      (4): BatchNorm2d(64, eps=1e-05, momentum=0.1, affine=True, track_running_stats=True)
      (5): ReLU()
      (6): Conv2d(64, 128, kernel_size=(3, 3), stride=(1, 1))
      (7): BatchNorm2d(128, eps=1e-05, momentum=0.1, affine=True, track_running_stats=True)
      (8): ReLU()
      (9): Conv2d(128, 128, kernel_size=(3, 3), stride=(1, 1))
      (10): BatchNorm2d(128, eps=1e-05, momentum=0.1, affine=True, track_running_stats=True)
      (11): ReLU()
      (12): MaxPool2d(kernel_size=4, stride=4, padding=0, dilation=1, ceil_mode=False)
    )
    (linear_encoder): Sequential(
      (0): Dropout(p=0.5, inplace=False)
      (1): Linear(in_features=128, out_features=100, bias=True)
      (2): LeakyReLU(negative_slope=0.01)
      (3): Linear(in_features=100, out_features=100, bias=True)
      (4): LeakyReLU(negative_slope=0.01)
      (5): Linear(in_features=100, out_features=16, bias=True)
      (6): LeakyReLU(negative_slope=0.01)
    )
  )
  (quantizer_layer): QuantizerLayer()
  (decoder_layer): DecoderLayer(
    (linear_decoder): Sequential(
      (0): Linear(in_features=16, out_features=100, bias=True)
      (1): LeakyReLU(negative_slope=0.01)
      (2): Linear(in_features=100, out_features=100, bias=True)
      (3): LeakyReLU(negative_slope=0.01)
      (4): Linear(in_features=100, out_features=128, bias=True)
      (5): LeakyReLU(negative_slope=0.01)
    )
    (cnn_layer): Sequential(
      (0): Upsample(scale_factor=4.0, mode='nearest')
      (1): ConvTranspose2d(128, 128, kernel_size=(3, 3), stride=(1, 1), padding=(1, 1))
      (2): ReLU()
      (3): BatchNorm2d(128, eps=1e-05, momentum=0.1, affine=True, track_running_stats=True)
      (4): ConvTranspose2d(128, 64, kernel_size=(3, 3), stride=(1, 1), padding=(1, 1))
      (5): ReLU()
      (6): BatchNorm2d(64, eps=1e-05, momentum=0.1, affine=True, track_running_stats=True)
      (7): ConvTranspose2d(64, 32, kernel_size=(3, 3), stride=(1, 1))
      (8): ReLU()
      (9): BatchNorm2d(32, eps=1e-05, momentum=0.1, affine=True, track_running_stats=True)
      (10): ConvTranspose2d(32, 1, kernel_size=(3, 3), stride=(1, 1))
      (11): ReLU()
      (12): BatchNorm2d(1, eps=1e-05, momentum=0.1, affine=True, track_running_stats=True)
    )
    (out_layer): Sequential(
      (0): Linear(in_features=64, out_features=100, bias=True)
      (1): LeakyReLU(negative_slope=0.01)
    )
  )
)
Number of parameters: 538556
LinearQuantizer(
  (encoder_layer): Linear(in_features=100, out_features=16, bias=True)
  (quantizer_layer): QuantizerLayer()
  (decoder_layer): Linear(in_features=16, out_features=100, bias=True)
)
Number of parameters: 3337
  0%|          | 0/500 [00:00<?, ?it/s]
 0.001 -> 0.001

Epoch: 0 	Training Loss: -0.0016803640 	Validation Loss: -0.0060322658
Validation loss same/decreased (inf --> -0.0060322658)... saving model.
  0%|          | 1/500 [00:23<3:18:25, 23.86s/it]
 0.001 -> 0.001

Epoch: 1 	Training Loss: -0.0017442352 	Validation Loss: -0.0062291760
…
Epoch: 197 	Training Loss: -0.0019957491 	Validation Loss: -0.0064917328
 40%|███▉      | 198/500 [48:23<1:13:27, 14.59s/it]
 1.0000000000000002e-06 -> 1.0000000000000002e-06

Epoch: 198 	Training Loss: -0.0019957489 	Validation Loss: -0.0064908962
 40%|███▉      | 199/500 [48:37<1:13:13, 14.60s/it]
 1.0000000000000002e-06 -> 1.0000000000000002e-06

Epoch: 199 	Training Loss: -0.0019957487 	Validation Loss: -0.0064908577
No Validation early stop loss decrease (-0.6871331040 --> -0.6491268850). Early Stopping
 40%|███▉      | 199/500 [48:52<1:13:55, 14.74s/it]
AutoQEncoder(
  (encoder_layer): EncoderLayer(
    (cnn_layer): Sequential(
      (0): Conv2d(5, 32, kernel_size=(3, 3), stride=(1, 1), padding=(1, 1), padding_mode=circular)
      (1): BatchNorm2d(32, eps=1e-05, momentum=0.1, affine=True, track_running_stats=True)
      (2): ReLU()
      (3): Conv2d(32, 64, kernel_size=(3, 3), stride=(1, 1))
      (4): BatchNorm2d(64, eps=1e-05, momentum=0.1, affine=True, track_running_stats=True)
      (5): ReLU()
      (6): Conv2d(64, 128, kernel_size=(3, 3), stride=(1, 1))
      (7): BatchNorm2d(128, eps=1e-05, momentum=0.1, affine=True, track_running_stats=True)
      (8): ReLU()
      (9): Conv2d(128, 128, kernel_size=(3, 3), stride=(1, 1))
      (10): BatchNorm2d(128, eps=1e-05, momentum=0.1, affine=True, track_running_stats=True)
      (11): ReLU()
      (12): MaxPool2d(kernel_size=4, stride=4, padding=0, dilation=1, ceil_mode=False)
    )
    (linear_encoder): Sequential(
      (0): Dropout(p=0.5, inplace=False)
      (1): Linear(in_features=128, out_features=100, bias=True)
      (2): LeakyReLU(negative_slope=0.01)
      (3): Linear(in_features=100, out_features=100, bias=True)
      (4): LeakyReLU(negative_slope=0.01)
      (5): Linear(in_features=100, out_features=16, bias=True)
      (6): LeakyReLU(negative_slope=0.01)
    )
  )
  (quantizer_layer): QuantizerLayer()
  (decoder_layer): DecoderLayer(
    (linear_decoder): Sequential(
      (0): Linear(in_features=16, out_features=100, bias=True)
      (1): LeakyReLU(negative_slope=0.01)
      (2): Linear(in_features=100, out_features=100, bias=True)
      (3): LeakyReLU(negative_slope=0.01)
      (4): Linear(in_features=100, out_features=128, bias=True)
      (5): LeakyReLU(negative_slope=0.01)
    )
    (cnn_layer): Sequential(
      (0): Upsample(scale_factor=4.0, mode='nearest')
      (1): ConvTranspose2d(128, 128, kernel_size=(3, 3), stride=(1, 1), padding=(1, 1))
      (2): ReLU()
      (3): BatchNorm2d(128, eps=1e-05, momentum=0.1, affine=True, track_running_stats=True)
      (4): ConvTranspose2d(128, 64, kernel_size=(3, 3), stride=(1, 1), padding=(1, 1))
      (5): ReLU()
      (6): BatchNorm2d(64, eps=1e-05, momentum=0.1, affine=True, track_running_stats=True)
      (7): ConvTranspose2d(64, 32, kernel_size=(3, 3), stride=(1, 1))
      (8): ReLU()
      (9): BatchNorm2d(32, eps=1e-05, momentum=0.1, affine=True, track_running_stats=True)
      (10): ConvTranspose2d(32, 1, kernel_size=(3, 3), stride=(1, 1))
      (11): ReLU()
      (12): BatchNorm2d(1, eps=1e-05, momentum=0.1, affine=True, track_running_stats=True)
    )
    (out_layer): Sequential(
      (0): Linear(in_features=64, out_features=100, bias=True)
      (1): LeakyReLU(negative_slope=0.01)
    )
  )
)
Number of parameters: 538556
Training Model parameters:
{'C_code_words': 8,
 'N_RIS': 100,
 'Nc_RIS': 16,
 'Nc_RIS_compressed_ratio': 0.16,
 'Nh_RIS': 10,
 'Nw_RIS': 10,
 'Q_bits': 3,
 'batch_size': 256,
 'epoch_echo': True,
 'epoch_val': 100,
 'epochs': 500,
 'lr': 0.001,
 'mc_runs': 1000000,
 'momentum': 0.9,
 'overall_bits': 48,
 'snr_dB': -5,
 'step_size': 10,
 'train_test_split': 0.8,
 'train_val_split': 0.8}
Achievable Rate (bps/Hz) using RIS phase shifts with Transmit power SNR -5 dB:
optimum:  12.528217315673828
AQE net:  7.349802494049072
lin Q:    7.596809387207031
random:   5.525693416595459
AutoQEncoder(
  (encoder_layer): EncoderLayer(
    (cnn_layer): Sequential(
      (0): Conv2d(5, 32, kernel_size=(3, 3), stride=(1, 1), padding=(1, 1), padding_mode=circular)
      (1): BatchNorm2d(32, eps=1e-05, momentum=0.1, affine=True, track_running_stats=True)
      (2): ReLU()
      (3): Conv2d(32, 64, kernel_size=(3, 3), stride=(1, 1))
      (4): BatchNorm2d(64, eps=1e-05, momentum=0.1, affine=True, track_running_stats=True)
      (5): ReLU()
      (6): Conv2d(64, 128, kernel_size=(3, 3), stride=(1, 1))
      (7): BatchNorm2d(128, eps=1e-05, momentum=0.1, affine=True, track_running_stats=True)
      (8): ReLU()
      (9): Conv2d(128, 128, kernel_size=(3, 3), stride=(1, 1))
      (10): BatchNorm2d(128, eps=1e-05, momentum=0.1, affine=True, track_running_stats=True)
      (11): ReLU()
      (12): MaxPool2d(kernel_size=4, stride=4, padding=0, dilation=1, ceil_mode=False)
    )
    (linear_encoder): Sequential(
      (0): Dropout(p=0.5, inplace=False)
      (1): Linear(in_features=128, out_features=100, bias=True)
      (2): LeakyReLU(negative_slope=0.01)
      (3): Linear(in_features=100, out_features=100, bias=True)
      (4): LeakyReLU(negative_slope=0.01)
      (5): Linear(in_features=100, out_features=32, bias=True)
      (6): LeakyReLU(negative_slope=0.01)
    )
  )
  (quantizer_layer): QuantizerLayer()
  (decoder_layer): DecoderLayer(
    (linear_decoder): Sequential(
      (0): Linear(in_features=32, out_features=100, bias=True)
      (1): LeakyReLU(negative_slope=0.01)
      (2): Linear(in_features=100, out_features=100, bias=True)
      (3): LeakyReLU(negative_slope=0.01)
      (4): Linear(in_features=100, out_features=128, bias=True)
      (5): LeakyReLU(negative_slope=0.01)
    )
    (cnn_layer): Sequential(
      (0): Upsample(scale_factor=4.0, mode='nearest')
      (1): ConvTranspose2d(128, 128, kernel_size=(3, 3), stride=(1, 1), padding=(1, 1))
      (2): ReLU()
      (3): BatchNorm2d(128, eps=1e-05, momentum=0.1, affine=True, track_running_stats=True)
      (4): ConvTranspose2d(128, 64, kernel_size=(3, 3), stride=(1, 1), padding=(1, 1))
      (5): ReLU()
      (6): BatchNorm2d(64, eps=1e-05, momentum=0.1, affine=True, track_running_stats=True)
      (7): ConvTranspose2d(64, 32, kernel_size=(3, 3), stride=(1, 1))
      (8): ReLU()
      (9): BatchNorm2d(32, eps=1e-05, momentum=0.1, affine=True, track_running_stats=True)
      (10): ConvTranspose2d(32, 1, kernel_size=(3, 3), stride=(1, 1))
      (11): ReLU()
      (12): BatchNorm2d(1, eps=1e-05, momentum=0.1, affine=True, track_running_stats=True)
    )
    (out_layer): Sequential(
      (0): Linear(in_features=64, out_features=100, bias=True)
      (1): LeakyReLU(negative_slope=0.01)
    )
  )
)
Number of parameters: 541772
LinearQuantizer(
  (encoder_layer): Linear(in_features=100, out_features=32, bias=True)
  (quantizer_layer): QuantizerLayer()
  (decoder_layer): Linear(in_features=32, out_features=100, bias=True)
)
Number of parameters: 6553
  0%|          | 0/500 [00:00<?, ?it/s]
 0.001 -> 0.001

Epoch: 0 	Training Loss: -0.0017137046 	Validation Loss: -0.0060743823
Validation loss same/decreased (inf --> -0.0060743823)... saving model.
  0%|          | 1/500 [00:23<3:18:44, 23.90s/it]
 0.001 -> 0.001

Epoch: 1 	Training Loss: -0.0018014905 	Validation Loss: -0.0063739480
…
Epoch: 197 	Training Loss: -0.0021318071 	Validation Loss: -0.0058029960
 40%|███▉      | 198/500 [48:23<1:13:22, 14.58s/it]
 1.0000000000000002e-06 -> 1.0000000000000002e-06

Epoch: 198 	Training Loss: -0.0021318079 	Validation Loss: -0.0058020728
 40%|███▉      | 199/500 [48:38<1:13:06, 14.57s/it]
 1.0000000000000002e-06 -> 1.0000000000000002e-06

Epoch: 199 	Training Loss: -0.0021318086 	Validation Loss: -0.0058015787
No Validation early stop loss decrease (-0.6587692235 --> -0.5800308042). Early Stopping
 40%|███▉      | 199/500 [48:52<1:13:56, 14.74s/it]
AutoQEncoder(
  (encoder_layer): EncoderLayer(
    (cnn_layer): Sequential(
      (0): Conv2d(5, 32, kernel_size=(3, 3), stride=(1, 1), padding=(1, 1), padding_mode=circular)
      (1): BatchNorm2d(32, eps=1e-05, momentum=0.1, affine=True, track_running_stats=True)
      (2): ReLU()
      (3): Conv2d(32, 64, kernel_size=(3, 3), stride=(1, 1))
      (4): BatchNorm2d(64, eps=1e-05, momentum=0.1, affine=True, track_running_stats=True)
      (5): ReLU()
      (6): Conv2d(64, 128, kernel_size=(3, 3), stride=(1, 1))
      (7): BatchNorm2d(128, eps=1e-05, momentum=0.1, affine=True, track_running_stats=True)
      (8): ReLU()
      (9): Conv2d(128, 128, kernel_size=(3, 3), stride=(1, 1))
      (10): BatchNorm2d(128, eps=1e-05, momentum=0.1, affine=True, track_running_stats=True)
      (11): ReLU()
      (12): MaxPool2d(kernel_size=4, stride=4, padding=0, dilation=1, ceil_mode=False)
    )
    (linear_encoder): Sequential(
      (0): Dropout(p=0.5, inplace=False)
      (1): Linear(in_features=128, out_features=100, bias=True)
      (2): LeakyReLU(negative_slope=0.01)
      (3): Linear(in_features=100, out_features=100, bias=True)
      (4): LeakyReLU(negative_slope=0.01)
      (5): Linear(in_features=100, out_features=32, bias=True)
      (6): LeakyReLU(negative_slope=0.01)
    )
  )
  (quantizer_layer): QuantizerLayer()
  (decoder_layer): DecoderLayer(
    (linear_decoder): Sequential(
      (0): Linear(in_features=32, out_features=100, bias=True)
      (1): LeakyReLU(negative_slope=0.01)
      (2): Linear(in_features=100, out_features=100, bias=True)
      (3): LeakyReLU(negative_slope=0.01)
      (4): Linear(in_features=100, out_features=128, bias=True)
      (5): LeakyReLU(negative_slope=0.01)
    )
    (cnn_layer): Sequential(
      (0): Upsample(scale_factor=4.0, mode='nearest')
      (1): ConvTranspose2d(128, 128, kernel_size=(3, 3), stride=(1, 1), padding=(1, 1))
      (2): ReLU()
      (3): BatchNorm2d(128, eps=1e-05, momentum=0.1, affine=True, track_running_stats=True)
      (4): ConvTranspose2d(128, 64, kernel_size=(3, 3), stride=(1, 1), padding=(1, 1))
      (5): ReLU()
      (6): BatchNorm2d(64, eps=1e-05, momentum=0.1, affine=True, track_running_stats=True)
      (7): ConvTranspose2d(64, 32, kernel_size=(3, 3), stride=(1, 1))
      (8): ReLU()
      (9): BatchNorm2d(32, eps=1e-05, momentum=0.1, affine=True, track_running_stats=True)
      (10): ConvTranspose2d(32, 1, kernel_size=(3, 3), stride=(1, 1))
      (11): ReLU()
      (12): BatchNorm2d(1, eps=1e-05, momentum=0.1, affine=True, track_running_stats=True)
    )
    (out_layer): Sequential(
      (0): Linear(in_features=64, out_features=100, bias=True)
      (1): LeakyReLU(negative_slope=0.01)
    )
  )
)
Number of parameters: 541772
Training Model parameters:
{'C_code_words': 8,
 'N_RIS': 100,
 'Nc_RIS': 32,
 'Nc_RIS_compressed_ratio': 0.32,
 'Nh_RIS': 10,
 'Nw_RIS': 10,
 'Q_bits': 3,
 'batch_size': 256,
 'epoch_echo': True,
 'epoch_val': 100,
 'epochs': 500,
 'lr': 0.001,
 'mc_runs': 1000000,
 'momentum': 0.9,
 'overall_bits': 96,
 'snr_dB': -5,
 'step_size': 10,
 'train_test_split': 0.8,
 'train_val_split': 0.8}
Achievable Rate (bps/Hz) using RIS phase shifts with Transmit power SNR -5 dB:
optimum:  12.528217315673828
AQE net:  7.393363952636719
lin Q:    8.516457557678223
random:   5.529662132263184
AutoQEncoder(
  (encoder_layer): EncoderLayer(
    (cnn_layer): Sequential(
      (0): Conv2d(5, 32, kernel_size=(3, 3), stride=(1, 1), padding=(1, 1), padding_mode=circular)
      (1): BatchNorm2d(32, eps=1e-05, momentum=0.1, affine=True, track_running_stats=True)
      (2): ReLU()
      (3): Conv2d(32, 64, kernel_size=(3, 3), stride=(1, 1))
      (4): BatchNorm2d(64, eps=1e-05, momentum=0.1, affine=True, track_running_stats=True)
      (5): ReLU()
      (6): Conv2d(64, 128, kernel_size=(3, 3), stride=(1, 1))
      (7): BatchNorm2d(128, eps=1e-05, momentum=0.1, affine=True, track_running_stats=True)
      (8): ReLU()
      (9): Conv2d(128, 128, kernel_size=(3, 3), stride=(1, 1))
      (10): BatchNorm2d(128, eps=1e-05, momentum=0.1, affine=True, track_running_stats=True)
      (11): ReLU()
      (12): MaxPool2d(kernel_size=4, stride=4, padding=0, dilation=1, ceil_mode=False)
    )
    (linear_encoder): Sequential(
      (0): Dropout(p=0.5, inplace=False)
      (1): Linear(in_features=128, out_features=100, bias=True)
      (2): LeakyReLU(negative_slope=0.01)
      (3): Linear(in_features=100, out_features=100, bias=True)
      (4): LeakyReLU(negative_slope=0.01)
      (5): Linear(in_features=100, out_features=64, bias=True)
      (6): LeakyReLU(negative_slope=0.01)
    )
  )
  (quantizer_layer): QuantizerLayer()
  (decoder_layer): DecoderLayer(
    (linear_decoder): Sequential(
      (0): Linear(in_features=64, out_features=100, bias=True)
      (1): LeakyReLU(negative_slope=0.01)
      (2): Linear(in_features=100, out_features=100, bias=True)
      (3): LeakyReLU(negative_slope=0.01)
      (4): Linear(in_features=100, out_features=128, bias=True)
      (5): LeakyReLU(negative_slope=0.01)
    )
    (cnn_layer): Sequential(
      (0): Upsample(scale_factor=4.0, mode='nearest')
      (1): ConvTranspose2d(128, 128, kernel_size=(3, 3), stride=(1, 1), padding=(1, 1))
      (2): ReLU()
      (3): BatchNorm2d(128, eps=1e-05, momentum=0.1, affine=True, track_running_stats=True)
      (4): ConvTranspose2d(128, 64, kernel_size=(3, 3), stride=(1, 1), padding=(1, 1))
      (5): ReLU()
      (6): BatchNorm2d(64, eps=1e-05, momentum=0.1, affine=True, track_running_stats=True)
      (7): ConvTranspose2d(64, 32, kernel_size=(3, 3), stride=(1, 1))
      (8): ReLU()
      (9): BatchNorm2d(32, eps=1e-05, momentum=0.1, affine=True, track_running_stats=True)
      (10): ConvTranspose2d(32, 1, kernel_size=(3, 3), stride=(1, 1))
      (11): ReLU()
      (12): BatchNorm2d(1, eps=1e-05, momentum=0.1, affine=True, track_running_stats=True)
    )
    (out_layer): Sequential(
      (0): Linear(in_features=64, out_features=100, bias=True)
      (1): LeakyReLU(negative_slope=0.01)
    )
  )
)
Number of parameters: 548204
LinearQuantizer(
  (encoder_layer): Linear(in_features=100, out_features=64, bias=True)
  (quantizer_layer): QuantizerLayer()
  (decoder_layer): Linear(in_features=64, out_features=100, bias=True)
)
Number of parameters: 12985
  0%|          | 0/500 [00:00<?, ?it/s]
 0.001 -> 0.001

Epoch: 0 	Training Loss: -0.0017126104 	Validation Loss: -0.0060251412
Validation loss same/decreased (inf --> -0.0060251412)... saving model.
  0%|          | 1/500 [00:23<3:18:30, 23.87s/it]
 0.001 -> 0.001

Epoch: 1 	Training Loss: -0.0017730495 	Validation Loss: -0.0062764813
…
Epoch: 197 	Training Loss: -0.0023570964 	Validation Loss: -0.0060407228
 40%|███▉      | 198/500 [48:36<1:13:43, 14.65s/it]
 1.0000000000000002e-06 -> 1.0000000000000002e-06

Epoch: 198 	Training Loss: -0.0023570970 	Validation Loss: -0.0060406568
 40%|███▉      | 199/500 [48:51<1:13:26, 14.64s/it]
 1.0000000000000002e-06 -> 1.0000000000000002e-06

Epoch: 199 	Training Loss: -0.0023570976 	Validation Loss: -0.0060405909
No Validation early stop loss decrease (-0.7001479983 --> -0.6041790342). Early Stopping
 40%|███▉      | 199/500 [49:05<1:14:15, 14.80s/it]
AutoQEncoder(
  (encoder_layer): EncoderLayer(
    (cnn_layer): Sequential(
      (0): Conv2d(5, 32, kernel_size=(3, 3), stride=(1, 1), padding=(1, 1), padding_mode=circular)
      (1): BatchNorm2d(32, eps=1e-05, momentum=0.1, affine=True, track_running_stats=True)
      (2): ReLU()
      (3): Conv2d(32, 64, kernel_size=(3, 3), stride=(1, 1))
      (4): BatchNorm2d(64, eps=1e-05, momentum=0.1, affine=True, track_running_stats=True)
      (5): ReLU()
      (6): Conv2d(64, 128, kernel_size=(3, 3), stride=(1, 1))
      (7): BatchNorm2d(128, eps=1e-05, momentum=0.1, affine=True, track_running_stats=True)
      (8): ReLU()
      (9): Conv2d(128, 128, kernel_size=(3, 3), stride=(1, 1))
      (10): BatchNorm2d(128, eps=1e-05, momentum=0.1, affine=True, track_running_stats=True)
      (11): ReLU()
      (12): MaxPool2d(kernel_size=4, stride=4, padding=0, dilation=1, ceil_mode=False)
    )
    (linear_encoder): Sequential(
      (0): Dropout(p=0.5, inplace=False)
      (1): Linear(in_features=128, out_features=100, bias=True)
      (2): LeakyReLU(negative_slope=0.01)
      (3): Linear(in_features=100, out_features=100, bias=True)
      (4): LeakyReLU(negative_slope=0.01)
      (5): Linear(in_features=100, out_features=64, bias=True)
      (6): LeakyReLU(negative_slope=0.01)
    )
  )
  (quantizer_layer): QuantizerLayer()
  (decoder_layer): DecoderLayer(
    (linear_decoder): Sequential(
      (0): Linear(in_features=64, out_features=100, bias=True)
      (1): LeakyReLU(negative_slope=0.01)
      (2): Linear(in_features=100, out_features=100, bias=True)
      (3): LeakyReLU(negative_slope=0.01)
      (4): Linear(in_features=100, out_features=128, bias=True)
      (5): LeakyReLU(negative_slope=0.01)
    )
    (cnn_layer): Sequential(
      (0): Upsample(scale_factor=4.0, mode='nearest')
      (1): ConvTranspose2d(128, 128, kernel_size=(3, 3), stride=(1, 1), padding=(1, 1))
      (2): ReLU()
      (3): BatchNorm2d(128, eps=1e-05, momentum=0.1, affine=True, track_running_stats=True)
      (4): ConvTranspose2d(128, 64, kernel_size=(3, 3), stride=(1, 1), padding=(1, 1))
      (5): ReLU()
      (6): BatchNorm2d(64, eps=1e-05, momentum=0.1, affine=True, track_running_stats=True)
      (7): ConvTranspose2d(64, 32, kernel_size=(3, 3), stride=(1, 1))
      (8): ReLU()
      (9): BatchNorm2d(32, eps=1e-05, momentum=0.1, affine=True, track_running_stats=True)
      (10): ConvTranspose2d(32, 1, kernel_size=(3, 3), stride=(1, 1))
      (11): ReLU()
      (12): BatchNorm2d(1, eps=1e-05, momentum=0.1, affine=True, track_running_stats=True)
    )
    (out_layer): Sequential(
      (0): Linear(in_features=64, out_features=100, bias=True)
      (1): LeakyReLU(negative_slope=0.01)
    )
  )
)
Number of parameters: 548204
Training Model parameters:
{'C_code_words': 8,
 'N_RIS': 100,
 'Nc_RIS': 64,
 'Nc_RIS_compressed_ratio': 0.64,
 'Nh_RIS': 10,
 'Nw_RIS': 10,
 'Q_bits': 3,
 'batch_size': 256,
 'epoch_echo': True,
 'epoch_val': 100,
 'epochs': 500,
 'lr': 0.001,
 'mc_runs': 1000000,
 'momentum': 0.9,
 'overall_bits': 192,
 'snr_dB': -5,
 'step_size': 10,
 'train_test_split': 0.8,
 'train_val_split': 0.8}
Achievable Rate (bps/Hz) using RIS phase shifts with Transmit power SNR -5 dB:
optimum:  12.528217315673828
AQE net:  7.552627086639404
lin Q:    9.594141960144043
random:   5.519748687744141
AutoQEncoder(
  (encoder_layer): EncoderLayer(
    (cnn_layer): Sequential(
      (0): Conv2d(5, 32, kernel_size=(3, 3), stride=(1, 1), padding=(1, 1), padding_mode=circular)
      (1): BatchNorm2d(32, eps=1e-05, momentum=0.1, affine=True, track_running_stats=True)
      (2): ReLU()
      (3): Conv2d(32, 64, kernel_size=(3, 3), stride=(1, 1))
      (4): BatchNorm2d(64, eps=1e-05, momentum=0.1, affine=True, track_running_stats=True)
      (5): ReLU()
      (6): Conv2d(64, 128, kernel_size=(3, 3), stride=(1, 1))
      (7): BatchNorm2d(128, eps=1e-05, momentum=0.1, affine=True, track_running_stats=True)
      (8): ReLU()
      (9): Conv2d(128, 128, kernel_size=(3, 3), stride=(1, 1))
      (10): BatchNorm2d(128, eps=1e-05, momentum=0.1, affine=True, track_running_stats=True)
      (11): ReLU()
      (12): MaxPool2d(kernel_size=4, stride=4, padding=0, dilation=1, ceil_mode=False)
    )
    (linear_encoder): Sequential(
      (0): Dropout(p=0.5, inplace=False)
      (1): Linear(in_features=128, out_features=100, bias=True)
      (2): LeakyReLU(negative_slope=0.01)
      (3): Linear(in_features=100, out_features=100, bias=True)
      (4): LeakyReLU(negative_slope=0.01)
      (5): Linear(in_features=100, out_features=128, bias=True)
      (6): LeakyReLU(negative_slope=0.01)
    )
  )
  (quantizer_layer): QuantizerLayer()
  (decoder_layer): DecoderLayer(
    (linear_decoder): Sequential(
      (0): Linear(in_features=128, out_features=100, bias=True)
      (1): LeakyReLU(negative_slope=0.01)
      (2): Linear(in_features=100, out_features=100, bias=True)
      (3): LeakyReLU(negative_slope=0.01)
      (4): Linear(in_features=100, out_features=128, bias=True)
      (5): LeakyReLU(negative_slope=0.01)
    )
    (cnn_layer): Sequential(
      (0): Upsample(scale_factor=4.0, mode='nearest')
      (1): ConvTranspose2d(128, 128, kernel_size=(3, 3), stride=(1, 1), padding=(1, 1))
      (2): ReLU()
      (3): BatchNorm2d(128, eps=1e-05, momentum=0.1, affine=True, track_running_stats=True)
      (4): ConvTranspose2d(128, 64, kernel_size=(3, 3), stride=(1, 1), padding=(1, 1))
      (5): ReLU()
      (6): BatchNorm2d(64, eps=1e-05, momentum=0.1, affine=True, track_running_stats=True)
      (7): ConvTranspose2d(64, 32, kernel_size=(3, 3), stride=(1, 1))
      (8): ReLU()
      (9): BatchNorm2d(32, eps=1e-05, momentum=0.1, affine=True, track_running_stats=True)
      (10): ConvTranspose2d(32, 1, kernel_size=(3, 3), stride=(1, 1))
      (11): ReLU()
      (12): BatchNorm2d(1, eps=1e-05, momentum=0.1, affine=True, track_running_stats=True)
    )
    (out_layer): Sequential(
      (0): Linear(in_features=64, out_features=100, bias=True)
      (1): LeakyReLU(negative_slope=0.01)
    )
  )
)
Number of parameters: 561068
LinearQuantizer(
  (encoder_layer): Linear(in_features=100, out_features=128, bias=True)
  (quantizer_layer): QuantizerLayer()
  (decoder_layer): Linear(in_features=128, out_features=100, bias=True)
)
Number of parameters: 25849
  0%|          | 0/500 [00:00<?, ?it/s]
 0.001 -> 0.001

Epoch: 0 	Training Loss: -0.0016332253 	Validation Loss: -0.0061727170
Validation loss same/decreased (inf --> -0.0061727170)... saving model.
  0%|          | 1/500 [00:23<3:18:47, 23.90s/it]
 0.001 -> 0.001

Epoch: 1 	Training Loss: -0.0017398413 	Validation Loss: -0.0064109813
…
Epoch: 197 	Training Loss: -0.0024914560 	Validation Loss: -0.0075294155
 40%|███▉      | 198/500 [48:30<1:13:34, 14.62s/it]
 1.0000000000000002e-06 -> 1.0000000000000002e-06

Epoch: 198 	Training Loss: -0.0024914565 	Validation Loss: -0.0075295736
 40%|███▉      | 199/500 [48:45<1:13:18, 14.61s/it]
 1.0000000000000002e-06 -> 1.0000000000000002e-06

Epoch: 199 	Training Loss: -0.0024914570 	Validation Loss: -0.0075293590
No Validation early stop loss decrease (-0.8058062426 --> -0.7533064645). Early Stopping
 40%|███▉      | 199/500 [48:59<1:14:06, 14.77s/it]
AutoQEncoder(
  (encoder_layer): EncoderLayer(
    (cnn_layer): Sequential(
      (0): Conv2d(5, 32, kernel_size=(3, 3), stride=(1, 1), padding=(1, 1), padding_mode=circular)
      (1): BatchNorm2d(32, eps=1e-05, momentum=0.1, affine=True, track_running_stats=True)
      (2): ReLU()
      (3): Conv2d(32, 64, kernel_size=(3, 3), stride=(1, 1))
      (4): BatchNorm2d(64, eps=1e-05, momentum=0.1, affine=True, track_running_stats=True)
      (5): ReLU()
      (6): Conv2d(64, 128, kernel_size=(3, 3), stride=(1, 1))
      (7): BatchNorm2d(128, eps=1e-05, momentum=0.1, affine=True, track_running_stats=True)
      (8): ReLU()
      (9): Conv2d(128, 128, kernel_size=(3, 3), stride=(1, 1))
      (10): BatchNorm2d(128, eps=1e-05, momentum=0.1, affine=True, track_running_stats=True)
      (11): ReLU()
      (12): MaxPool2d(kernel_size=4, stride=4, padding=0, dilation=1, ceil_mode=False)
    )
    (linear_encoder): Sequential(
      (0): Dropout(p=0.5, inplace=False)
      (1): Linear(in_features=128, out_features=100, bias=True)
      (2): LeakyReLU(negative_slope=0.01)
      (3): Linear(in_features=100, out_features=100, bias=True)
      (4): LeakyReLU(negative_slope=0.01)
      (5): Linear(in_features=100, out_features=128, bias=True)
      (6): LeakyReLU(negative_slope=0.01)
    )
  )
  (quantizer_layer): QuantizerLayer()
  (decoder_layer): DecoderLayer(
    (linear_decoder): Sequential(
      (0): Linear(in_features=128, out_features=100, bias=True)
      (1): LeakyReLU(negative_slope=0.01)
      (2): Linear(in_features=100, out_features=100, bias=True)
      (3): LeakyReLU(negative_slope=0.01)
      (4): Linear(in_features=100, out_features=128, bias=True)
      (5): LeakyReLU(negative_slope=0.01)
    )
    (cnn_layer): Sequential(
      (0): Upsample(scale_factor=4.0, mode='nearest')
      (1): ConvTranspose2d(128, 128, kernel_size=(3, 3), stride=(1, 1), padding=(1, 1))
      (2): ReLU()
      (3): BatchNorm2d(128, eps=1e-05, momentum=0.1, affine=True, track_running_stats=True)
      (4): ConvTranspose2d(128, 64, kernel_size=(3, 3), stride=(1, 1), padding=(1, 1))
      (5): ReLU()
      (6): BatchNorm2d(64, eps=1e-05, momentum=0.1, affine=True, track_running_stats=True)
      (7): ConvTranspose2d(64, 32, kernel_size=(3, 3), stride=(1, 1))
      (8): ReLU()
      (9): BatchNorm2d(32, eps=1e-05, momentum=0.1, affine=True, track_running_stats=True)
      (10): ConvTranspose2d(32, 1, kernel_size=(3, 3), stride=(1, 1))
      (11): ReLU()
      (12): BatchNorm2d(1, eps=1e-05, momentum=0.1, affine=True, track_running_stats=True)
    )
    (out_layer): Sequential(
      (0): Linear(in_features=64, out_features=100, bias=True)
      (1): LeakyReLU(negative_slope=0.01)
    )
  )
)
Number of parameters: 561068
Training Model parameters:
{'C_code_words': 8,
 'N_RIS': 100,
 'Nc_RIS': 128,
 'Nc_RIS_compressed_ratio': 1.28,
 'Nh_RIS': 10,
 'Nw_RIS': 10,
 'Q_bits': 3,
 'batch_size': 256,
 'epoch_echo': True,
 'epoch_val': 100,
 'epochs': 500,
 'lr': 0.001,
 'mc_runs': 1000000,
 'momentum': 0.9,
…
