…
0000 [00:11<00:00, 10163.03it/s] 94%|█████████▍| 94384/100000 [00:11<00:00, 10172.18it/s] 95%|█████████▌| 95405/100000 [00:11<00:00, 10182.41it/s] 96%|█████████▋| 96434/100000 [00:11<00:00, 10214.05it/s] 97%|█████████▋| 97457/100000 [00:11<00:00, 4084.07it/s]  98%|█████████▊| 98477/100000 [00:12<00:00, 4977.06it/s] 99%|█████████▉| 99498/100000 [00:12<00:00, 5880.17it/s]100%|██████████| 100000/100000 [00:12<00:00, 8195.49it/s]
------------
Train & Test
------------
AQE Number of parameters: 16550192
AutoQEncoder(
  (encoder_layer): EncoderLayer(
    (linear_encoder): Sequential(
      (0): Linear(in_features=1548, out_features=3968, bias=True)
      (1): ReLU()
      (2): Dropout(p=0.5, inplace=False)
      (3): BatchNorm1d(3968, eps=1e-05, momentum=0.1, affine=True, track_running_stats=True)
      (4): Linear(in_features=3968, out_features=1984, bias=True)
      (5): ReLU()
      (6): Dropout(p=0.5, inplace=False)
      (7): BatchNorm1d(1984, eps=1e-05, momentum=0.1, affine=True, track_running_stats=True)
      (8): Linear(in_features=1984, out_features=992, bias=True)
      (9): ReLU()
      (10): Dropout(p=0.5, inplace=False)
      (11): BatchNorm1d(992, eps=1e-05, momentum=0.1, affine=True, track_running_stats=True)
      (12): Linear(in_features=992, out_features=496, bias=True)
      (13): ReLU()
      (14): Dropout(p=0.5, inplace=False)
      (15): BatchNorm1d(496, eps=1e-05, momentum=0.1, affine=True, track_running_stats=True)
      (16): Linear(in_features=496, out_features=32, bias=True)
    )
  )
  (quantizer_layer): QuantizerLayer()
  (decoder_layer): DecoderLayer(
    (linear_decoder): Sequential(
      (0): Linear(in_features=8, out_features=100, bias=True)
      (1): ReLU()
      (2): Linear(in_features=100, out_features=100, bias=True)
      (3): ReLU()
    )
    (out_layer): Sequential(
      (0): Linear(in_features=100, out_features=100, bias=True)
    )
  )
  (w_update_layer): WupdateLayer(
    (linear_W): Sequential(
      (0): Linear(in_features=48, out_features=48, bias=True)
      (1): ReLU()
      (2): Dropout(p=0.5, inplace=False)
      (3): Linear(in_features=48, out_features=48, bias=True)
      (4): ReLU()
      (5): Dropout(p=0.5, inplace=False)
      (6): Linear(in_features=48, out_features=48, bias=True)
      (7): ReLU()
      (8): Dropout(p=0.5, inplace=False)
      (9): Linear(in_features=48, out_features=24, bias=True)
    )
    (linear_UL): Sequential(
      (0): Linear(in_features=48, out_features=48, bias=True)
      (1): ReLU()
      (2): Dropout(p=0.5, inplace=False)
      (3): Linear(in_features=48, out_features=48, bias=True)
      (4): ReLU()
      (5): Dropout(p=0.5, inplace=False)
      (6): Linear(in_features=48, out_features=48, bias=True)
      (7): ReLU()
      (8): Dropout(p=0.5, inplace=False)
      (9): Linear(in_features=48, out_features=9, bias=True)
    )
  )
)
ACF Number of parameters: 16174069
ACFNet(
  (mapping_network): DNN(
    (linear_encoder): Sequential(
      (0): Linear(in_features=1424, out_features=3968, bias=True)
      (1): ReLU()
      (2): Dropout(p=0.5, inplace=False)
      (3): BatchNorm1d(3968, eps=1e-05, momentum=0.1, affine=True, track_running_stats=True)
      (4): Linear(in_features=3968, out_features=1984, bias=True)
      (5): ReLU()
      (6): Dropout(p=0.5, inplace=False)
      (7): BatchNorm1d(1984, eps=1e-05, momentum=0.1, affine=True, track_running_stats=True)
      (8): Linear(in_features=1984, out_features=992, bias=True)
      (9): ReLU()
      (10): Dropout(p=0.5, inplace=False)
      (11): BatchNorm1d(992, eps=1e-05, momentum=0.1, affine=True, track_running_stats=True)
      (12): Linear(in_features=992, out_features=496, bias=True)
      (13): ReLU()
      (14): Dropout(p=0.5, inplace=False)
      (15): BatchNorm1d(496, eps=1e-05, momentum=0.1, affine=True, track_running_stats=True)
      (16): Linear(in_features=496, out_features=124, bias=True)
    )
  )
  (compression_network): ACFNetCompressionNetwork(
    (convolution_layer): Sequential(
      (0): Conv2d(1, 3, kernel_size=(2, 2), stride=(1, 1))
      (1): ReLU()
    )
    (dense_layer): Sequential(
      (0): Linear(in_features=297, out_features=8, bias=True)
    )
  )
  (quantizer_layer): QuantizerLayer()
  (decoder_network): ACFNetDecoderNetwork(
    (dense_layer1): Sequential(
      (0): Linear(in_features=8, out_features=200, bias=True)
    )
    (convolution_layer): Sequential(
      (0): Conv2d(1, 3, kernel_size=(2, 2), stride=(1, 1))
      (1): ReLU()
    )
    (dense_layer2): Sequential(
      (0): Linear(in_features=513, out_features=200, bias=True)
    )
  )
)
linQ Number of parameters: 2311
LinearQuantizer(
  (precoder_layer): Linear(in_features=24, out_features=24, bias=True)
  (encoder_layer): Linear(in_features=100, out_features=8, bias=True)
  (quantizer_layer): QuantizerLayer()
  (decoder_layer): Linear(in_features=8, out_features=100, bias=True)
)
  0%|          | 0/1000 [00:00<?, ?it/s]0.001 -> 0.001
Epoch: 0 	Training Loss: -0.0096769874 	Validation Loss: -0.0334056367 	Best Validation Loss: inf
### Validation loss same/decreased (inf --> -0.0334056367)... saving model. ###
  0%|          | 1/1000 [00:10<2:49:45, 10.20s/it]0.001 -> 0.001
Epoch: 1 	Training Loss: -0.0104119770 	Validation Loss: -0.0326280305 	Best Validation Loss: -0.0334056367
…
 'train_test_split': 0.9,
 'train_val_split': 0.9}
Achievable Rate (bps/Hz) using RIS phase shifts with Transmit power SNR 60.60 dB:
optimum:    14.802499771118164
AQE net:    6.865495204925537
ACF net:    5.214789867401123
linQ net:   4.411264419555664
opt rand:   2.6972835063934326
AQE rand:   2.635122537612915
ACF rand:   3.320694923400879
linQ rand:  3.067789077758789
-------------------------------------------------------------------------------------------------------


AQE Number of parameters: 16554968
AutoQEncoder(
  (encoder_layer): EncoderLayer(
    (linear_encoder): Sequential(
      (0): Linear(in_features=1548, out_features=3968, bias=True)
      (1): ReLU()
      (2): Dropout(p=0.5, inplace=False)
      (3): BatchNorm1d(3968, eps=1e-05, momentum=0.1, affine=True, track_running_stats=True)
      (4): Linear(in_features=3968, out_features=1984, bias=True)
      (5): ReLU()
      (6): Dropout(p=0.5, inplace=False)
      (7): BatchNorm1d(1984, eps=1e-05, momentum=0.1, affine=True, track_running_stats=True)
      (8): Linear(in_features=1984, out_features=992, bias=True)
      (9): ReLU()
      (10): Dropout(p=0.5, inplace=False)
      (11): BatchNorm1d(992, eps=1e-05, momentum=0.1, affine=True, track_running_stats=True)
      (12): Linear(in_features=992, out_features=496, bias=True)
      (13): ReLU()
      (14): Dropout(p=0.5, inplace=False)
      (15): BatchNorm1d(496, eps=1e-05, momentum=0.1, affine=True, track_running_stats=True)
      (16): Linear(in_features=496, out_features=40, bias=True)
    )
  )
  (quantizer_layer): QuantizerLayer()
  (decoder_layer): DecoderLayer(
    (linear_decoder): Sequential(
      (0): Linear(in_features=16, out_features=100, bias=True)
      (1): ReLU()
      (2): Linear(in_features=100, out_features=100, bias=True)
      (3): ReLU()
    )
    (out_layer): Sequential(
      (0): Linear(in_features=100, out_features=100, bias=True)
    )
  )
  (w_update_layer): WupdateLayer(
    (linear_W): Sequential(
      (0): Linear(in_features=48, out_features=48, bias=True)
      (1): ReLU()
      (2): Dropout(p=0.5, inplace=False)
      (3): Linear(in_features=48, out_features=48, bias=True)
      (4): ReLU()
      (5): Dropout(p=0.5, inplace=False)
      (6): Linear(in_features=48, out_features=48, bias=True)
      (7): ReLU()
      (8): Dropout(p=0.5, inplace=False)
      (9): Linear(in_features=48, out_features=24, bias=True)
    )
    (linear_UL): Sequential(
      (0): Linear(in_features=48, out_features=48, bias=True)
      (1): ReLU()
      (2): Dropout(p=0.5, inplace=False)
      (3): Linear(in_features=48, out_features=48, bias=True)
      (4): ReLU()
      (5): Dropout(p=0.5, inplace=False)
      (6): Linear(in_features=48, out_features=48, bias=True)
      (7): ReLU()
      (8): Dropout(p=0.5, inplace=False)
      (9): Linear(in_features=48, out_features=9, bias=True)
    )
  )
)
ACF Number of parameters: 16178053
ACFNet(
  (mapping_network): DNN(
    (linear_encoder): Sequential(
      (0): Linear(in_features=1424, out_features=3968, bias=True)
      (1): ReLU()
      (2): Dropout(p=0.5, inplace=False)
      (3): BatchNorm1d(3968, eps=1e-05, momentum=0.1, affine=True, track_running_stats=True)
      (4): Linear(in_features=3968, out_features=1984, bias=True)
      (5): ReLU()
      (6): Dropout(p=0.5, inplace=False)
      (7): BatchNorm1d(1984, eps=1e-05, momentum=0.1, affine=True, track_running_stats=True)
      (8): Linear(in_features=1984, out_features=992, bias=True)
      (9): ReLU()
      (10): Dropout(p=0.5, inplace=False)
      (11): BatchNorm1d(992, eps=1e-05, momentum=0.1, affine=True, track_running_stats=True)
      (12): Linear(in_features=992, out_features=496, bias=True)
      (13): ReLU()
      (14): Dropout(p=0.5, inplace=False)
      (15): BatchNorm1d(496, eps=1e-05, momentum=0.1, affine=True, track_running_stats=True)
      (16): Linear(in_features=496, out_features=124, bias=True)
    )
  )
  (compression_network): ACFNetCompressionNetwork(
    (convolution_layer): Sequential(
      (0): Conv2d(1, 3, kernel_size=(2, 2), stride=(1, 1))
      (1): ReLU()
    )
    (dense_layer): Sequential(
      (0): Linear(in_features=297, out_features=16, bias=True)
    )
  )
  (quantizer_layer): QuantizerLayer()
  (decoder_network): ACFNetDecoderNetwork(
    (dense_layer1): Sequential(
      (0): Linear(in_features=16, out_features=200, bias=True)
    )
    (convolution_layer): Sequential(
      (0): Conv2d(1, 3, kernel_size=(2, 2), stride=(1, 1))
      (1): ReLU()
    )
    (dense_layer2): Sequential(
      (0): Linear(in_features=513, out_features=200, bias=True)
    )
  )
)
linQ Number of parameters: 3919
LinearQuantizer(
  (precoder_layer): Linear(in_features=24, out_features=24, bias=True)
  (encoder_layer): Linear(in_features=100, out_features=16, bias=True)
  (quantizer_layer): QuantizerLayer()
  (decoder_layer): Linear(in_features=16, out_features=100, bias=True)
)
  0%|          | 0/1000 [00:00<?, ?it/s]0.001 -> 0.001
Epoch: 0 	Training Loss: -0.0093986076 	Validation Loss: -0.0332207372 	Best Validation Loss: inf
### Validation loss same/decreased (inf --> -0.0332207372)... saving model. ###
  0%|          | 1/1000 [00:09<2:36:08,  9.38s/it]0.001 -> 0.001
Epoch: 1 	Training Loss: -0.0104400233 	Validation Loss: -0.0358118314 	Best Validation Loss: -0.0332207372
…
 'train_test_split': 0.9,
 'train_val_split': 0.9}
Achievable Rate (bps/Hz) using RIS phase shifts with Transmit power SNR 60.60 dB:
optimum:    14.802499771118164
AQE net:    8.232274055480957
ACF net:    5.875237941741943
linQ net:   4.860907077789307
opt rand:   2.694293975830078
AQE rand:   2.7497305870056152
ACF rand:   3.337463617324829
linQ rand:  3.0921437740325928
-------------------------------------------------------------------------------------------------------


AQE Number of parameters: 16564520
AutoQEncoder(
  (encoder_layer): EncoderLayer(
    (linear_encoder): Sequential(
      (0): Linear(in_features=1548, out_features=3968, bias=True)
      (1): ReLU()
      (2): Dropout(p=0.5, inplace=False)
      (3): BatchNorm1d(3968, eps=1e-05, momentum=0.1, affine=True, track_running_stats=True)
      (4): Linear(in_features=3968, out_features=1984, bias=True)
      (5): ReLU()
      (6): Dropout(p=0.5, inplace=False)
      (7): BatchNorm1d(1984, eps=1e-05, momentum=0.1, affine=True, track_running_stats=True)
      (8): Linear(in_features=1984, out_features=992, bias=True)
      (9): ReLU()
      (10): Dropout(p=0.5, inplace=False)
      (11): BatchNorm1d(992, eps=1e-05, momentum=0.1, affine=True, track_running_stats=True)
      (12): Linear(in_features=992, out_features=496, bias=True)
      (13): ReLU()
      (14): Dropout(p=0.5, inplace=False)
      (15): BatchNorm1d(496, eps=1e-05, momentum=0.1, affine=True, track_running_stats=True)
      (16): Linear(in_features=496, out_features=56, bias=True)
    )
  )
  (quantizer_layer): QuantizerLayer()
  (decoder_layer): DecoderLayer(
    (linear_decoder): Sequential(
      (0): Linear(in_features=32, out_features=100, bias=True)
      (1): ReLU()
      (2): Linear(in_features=100, out_features=100, bias=True)
      (3): ReLU()
    )
    (out_layer): Sequential(
      (0): Linear(in_features=100, out_features=100, bias=True)
    )
  )
  (w_update_layer): WupdateLayer(
    (linear_W): Sequential(
      (0): Linear(in_features=48, out_features=48, bias=True)
      (1): ReLU()
      (2): Dropout(p=0.5, inplace=False)
      (3): Linear(in_features=48, out_features=48, bias=True)
      (4): ReLU()
      (5): Dropout(p=0.5, inplace=False)
      (6): Linear(in_features=48, out_features=48, bias=True)
      (7): ReLU()
      (8): Dropout(p=0.5, inplace=False)
      (9): Linear(in_features=48, out_features=24, bias=True)
    )
    (linear_UL): Sequential(
      (0): Linear(in_features=48, out_features=48, bias=True)
      (1): ReLU()
      (2): Dropout(p=0.5, inplace=False)
      (3): Linear(in_features=48, out_features=48, bias=True)
      (4): ReLU()
      (5): Dropout(p=0.5, inplace=False)
      (6): Linear(in_features=48, out_features=48, bias=True)
      (7): ReLU()
      (8): Dropout(p=0.5, inplace=False)
      (9): Linear(in_features=48, out_features=9, bias=True)
    )
  )
)
ACF Number of parameters: 16186021
ACFNet(
  (mapping_network): DNN(
    (linear_encoder): Sequential(
      (0): Linear(in_features=1424, out_features=3968, bias=True)
      (1): ReLU()
      (2): Dropout(p=0.5, inplace=False)
      (3): BatchNorm1d(3968, eps=1e-05, momentum=0.1, affine=True, track_running_stats=True)
      (4): Linear(in_features=3968, out_features=1984, bias=True)
      (5): ReLU()
      (6): Dropout(p=0.5, inplace=False)
      (7): BatchNorm1d(1984, eps=1e-05, momentum=0.1, affine=True, track_running_stats=True)
      (8): Linear(in_features=1984, out_features=992, bias=True)
      (9): ReLU()
      (10): Dropout(p=0.5, inplace=False)
      (11): BatchNorm1d(992, eps=1e-05, momentum=0.1, affine=True, track_running_stats=True)
      (12): Linear(in_features=992, out_features=496, bias=True)
      (13): ReLU()
      (14): Dropout(p=0.5, inplace=False)
      (15): BatchNorm1d(496, eps=1e-05, momentum=0.1, affine=True, track_running_stats=True)
      (16): Linear(in_features=496, out_features=124, bias=True)
    )
  )
  (compression_network): ACFNetCompressionNetwork(
    (convolution_layer): Sequential(
      (0): Conv2d(1, 3, kernel_size=(2, 2), stride=(1, 1))
      (1): ReLU()
    )
    (dense_layer): Sequential(
      (0): Linear(in_features=297, out_features=32, bias=True)
    )
  )
  (quantizer_layer): QuantizerLayer()
  (decoder_network): ACFNetDecoderNetwork(
    (dense_layer1): Sequential(
      (0): Linear(in_features=32, out_features=200, bias=True)
    )
    (convolution_layer): Sequential(
      (0): Conv2d(1, 3, kernel_size=(2, 2), stride=(1, 1))
      (1): ReLU()
    )
    (dense_layer2): Sequential(
      (0): Linear(in_features=513, out_features=200, bias=True)
    )
  )
)
linQ Number of parameters: 7135
LinearQuantizer(
  (precoder_layer): Linear(in_features=24, out_features=24, bias=True)
  (encoder_layer): Linear(in_features=100, out_features=32, bias=True)
  (quantizer_layer): QuantizerLayer()
  (decoder_layer): Linear(in_features=32, out_features=100, bias=True)
)
  0%|          | 0/1000 [00:00<?, ?it/s]0.001 -> 0.001
Epoch: 0 	Training Loss: -0.0096493144 	Validation Loss: -0.0342089541 	Best Validation Loss: inf
### Validation loss same/decreased (inf --> -0.0342089541)... saving model. ###
  0%|          | 1/1000 [00:09<2:37:16,  9.45s/it]0.001 -> 0.001
Epoch: 1 	Training Loss: -0.0105644580 	Validation Loss: -0.0376180262 	Best Validation Loss: -0.0342089541
…
 'train_test_split': 0.9,
 'train_val_split': 0.9}
Achievable Rate (bps/Hz) using RIS phase shifts with Transmit power SNR 60.60 dB:
optimum:    14.802499771118164
AQE net:    9.595857620239258
ACF net:    6.05649471282959
linQ net:   5.336611747741699
opt rand:   2.7138307094573975
AQE rand:   2.8007559776306152
ACF rand:   3.304455280303955
linQ rand:  3.069748878479004
-------------------------------------------------------------------------------------------------------


AQE Number of parameters: 16583624
AutoQEncoder(
  (encoder_layer): EncoderLayer(
    (linear_encoder): Sequential(
      (0): Linear(in_features=1548, out_features=3968, bias=True)
      (1): ReLU()
      (2): Dropout(p=0.5, inplace=False)
      (3): BatchNorm1d(3968, eps=1e-05, momentum=0.1, affine=True, track_running_stats=True)
      (4): Linear(in_features=3968, out_features=1984, bias=True)
      (5): ReLU()
      (6): Dropout(p=0.5, inplace=False)
      (7): BatchNorm1d(1984, eps=1e-05, momentum=0.1, affine=True, track_running_stats=True)
      (8): Linear(in_features=1984, out_features=992, bias=True)
      (9): ReLU()
      (10): Dropout(p=0.5, inplace=False)
      (11): BatchNorm1d(992, eps=1e-05, momentum=0.1, affine=True, track_running_stats=True)
      (12): Linear(in_features=992, out_features=496, bias=True)
      (13): ReLU()
      (14): Dropout(p=0.5, inplace=False)
      (15): BatchNorm1d(496, eps=1e-05, momentum=0.1, affine=True, track_running_stats=True)
      (16): Linear(in_features=496, out_features=88, bias=True)
    )
  )
  (quantizer_layer): QuantizerLayer()
  (decoder_layer): DecoderLayer(
    (linear_decoder): Sequential(
      (0): Linear(in_features=64, out_features=100, bias=True)
      (1): ReLU()
      (2): Linear(in_features=100, out_features=100, bias=True)
      (3): ReLU()
    )
    (out_layer): Sequential(
      (0): Linear(in_features=100, out_features=100, bias=True)
    )
  )
  (w_update_layer): WupdateLayer(
    (linear_W): Sequential(
      (0): Linear(in_features=48, out_features=48, bias=True)
      (1): ReLU()
      (2): Dropout(p=0.5, inplace=False)
      (3): Linear(in_features=48, out_features=48, bias=True)
      (4): ReLU()
      (5): Dropout(p=0.5, inplace=False)
      (6): Linear(in_features=48, out_features=48, bias=True)
      (7): ReLU()
      (8): Dropout(p=0.5, inplace=False)
      (9): Linear(in_features=48, out_features=24, bias=True)
    )
    (linear_UL): Sequential(
      (0): Linear(in_features=48, out_features=48, bias=True)
      (1): ReLU()
      (2): Dropout(p=0.5, inplace=False)
      (3): Linear(in_features=48, out_features=48, bias=True)
      (4): ReLU()
      (5): Dropout(p=0.5, inplace=False)
      (6): Linear(in_features=48, out_features=48, bias=True)
      (7): ReLU()
      (8): Dropout(p=0.5, inplace=False)
      (9): Linear(in_features=48, out_features=9, bias=True)
    )
  )
)
ACF Number of parameters: 16201957
ACFNet(
  (mapping_network): DNN(
    (linear_encoder): Sequential(
      (0): Linear(in_features=1424, out_features=3968, bias=True)
      (1): ReLU()
      (2): Dropout(p=0.5, inplace=False)
      (3): BatchNorm1d(3968, eps=1e-05, momentum=0.1, affine=True, track_running_stats=True)
      (4): Linear(in_features=3968, out_features=1984, bias=True)
      (5): ReLU()
      (6): Dropout(p=0.5, inplace=False)
      (7): BatchNorm1d(1984, eps=1e-05, momentum=0.1, affine=True, track_running_stats=True)
      (8): Linear(in_features=1984, out_features=992, bias=True)
      (9): ReLU()
      (10): Dropout(p=0.5, inplace=False)
      (11): BatchNorm1d(992, eps=1e-05, momentum=0.1, affine=True, track_running_stats=True)
      (12): Linear(in_features=992, out_features=496, bias=True)
      (13): ReLU()
      (14): Dropout(p=0.5, inplace=False)
      (15): BatchNorm1d(496, eps=1e-05, momentum=0.1, affine=True, track_running_stats=True)
      (16): Linear(in_features=496, out_features=124, bias=True)
    )
  )
  (compression_network): ACFNetCompressionNetwork(
    (convolution_layer): Sequential(
      (0): Conv2d(1, 3, kernel_size=(2, 2), stride=(1, 1))
      (1): ReLU()
    )
    (dense_layer): Sequential(
      (0): Linear(in_features=297, out_features=64, bias=True)
    )
  )
  (quantizer_layer): QuantizerLayer()
  (decoder_network): ACFNetDecoderNetwork(
    (dense_layer1): Sequential(
      (0): Linear(in_features=64, out_features=200, bias=True)
    )
    (convolution_layer): Sequential(
      (0): Conv2d(1, 3, kernel_size=(2, 2), stride=(1, 1))
      (1): ReLU()
    )
    (dense_layer2): Sequential(
      (0): Linear(in_features=513, out_features=200, bias=True)
    )
  )
)
linQ Number of parameters: 13567
LinearQuantizer(
  (precoder_layer): Linear(in_features=24, out_features=24, bias=True)
  (encoder_layer): Linear(in_features=100, out_features=64, bias=True)
  (quantizer_layer): QuantizerLayer()
  (decoder_layer): Linear(in_features=64, out_features=100, bias=True)
)
  0%|          | 0/1000 [00:00<?, ?it/s]0.001 -> 0.001
Epoch: 0 	Training Loss: -0.0094417928 	Validation Loss: -0.0322478923 	Best Validation Loss: inf
### Validation loss same/decreased (inf --> -0.0322478923)... saving model. ###
  0%|          | 1/1000 [00:09<2:35:52,  9.36s/it]0.001 -> 0.001
Epoch: 1 	Training Loss: -0.0103414783 	Validation Loss: -0.0366235629 	Best Validation Loss: -0.0322478923
…
 'train_test_split': 0.9,
 'train_val_split': 0.9}
Achievable Rate (bps/Hz) using RIS phase shifts with Transmit power SNR 60.60 dB:
optimum:    14.802499771118164
AQE net:    11.03000545501709
ACF net:    6.697483539581299
linQ net:   5.9282965660095215
opt rand:   2.712580680847168
AQE rand:   2.7421982288360596
ACF rand:   3.3401694297790527
linQ rand:  3.086491823196411
-------------------------------------------------------------------------------------------------------


AQE Number of parameters: 16605116
AutoQEncoder(
  (encoder_layer): EncoderLayer(
    (linear_encoder): Sequential(
      (0): Linear(in_features=1548, out_features=3968, bias=True)
      (1): ReLU()
      (2): Dropout(p=0.5, inplace=False)
      (3): BatchNorm1d(3968, eps=1e-05, momentum=0.1, affine=True, track_running_stats=True)
      (4): Linear(in_features=3968, out_features=1984, bias=True)
      (5): ReLU()
      (6): Dropout(p=0.5, inplace=False)
      (7): BatchNorm1d(1984, eps=1e-05, momentum=0.1, affine=True, track_running_stats=True)
      (8): Linear(in_features=1984, out_features=992, bias=True)
      (9): ReLU()
      (10): Dropout(p=0.5, inplace=False)
      (11): BatchNorm1d(992, eps=1e-05, momentum=0.1, affine=True, track_running_stats=True)
      (12): Linear(in_features=992, out_features=496, bias=True)
      (13): ReLU()
      (14): Dropout(p=0.5, inplace=False)
      (15): BatchNorm1d(496, eps=1e-05, momentum=0.1, affine=True, track_running_stats=True)
      (16): Linear(in_features=496, out_features=124, bias=True)
    )
  )
  (quantizer_layer): QuantizerLayer()
  (decoder_layer): DecoderLayer(
    (linear_decoder): Sequential(
      (0): Linear(in_features=100, out_features=100, bias=True)
      (1): ReLU()
      (2): Linear(in_features=100, out_features=100, bias=True)
      (3): ReLU()
    )
    (out_layer): Sequential(
      (0): Linear(in_features=100, out_features=100, bias=True)
    )
  )
  (w_update_layer): WupdateLayer(
    (linear_W): Sequential(
      (0): Linear(in_features=48, out_features=48, bias=True)
      (1): ReLU()
      (2): Dropout(p=0.5, inplace=False)
      (3): Linear(in_features=48, out_features=48, bias=True)
      (4): ReLU()
      (5): Dropout(p=0.5, inplace=False)
      (6): Linear(in_features=48, out_features=48, bias=True)
      (7): ReLU()
      (8): Dropout(p=0.5, inplace=False)
      (9): Linear(in_features=48, out_features=24, bias=True)
    )
    (linear_UL): Sequential(
      (0): Linear(in_features=48, out_features=48, bias=True)
      (1): ReLU()
      (2): Dropout(p=0.5, inplace=False)
      (3): Linear(in_features=48, out_features=48, bias=True)
      (4): ReLU()
      (5): Dropout(p=0.5, inplace=False)
      (6): Linear(in_features=48, out_features=48, bias=True)
      (7): ReLU()
      (8): Dropout(p=0.5, inplace=False)
      (9): Linear(in_features=48, out_features=9, bias=True)
    )
  )
)
ACF Number of parameters: 16219885
ACFNet(
  (mapping_network): DNN(
    (linear_encoder): Sequential(
      (0): Linear(in_features=1424, out_features=3968, bias=True)
      (1): ReLU()
      (2): Dropout(p=0.5, inplace=False)
      (3): BatchNorm1d(3968, eps=1e-05, momentum=0.1, affine=True, track_running_stats=True)
      (4): Linear(in_features=3968, out_features=1984, bias=True)
      (5): ReLU()
      (6): Dropout(p=0.5, inplace=False)
      (7): BatchNorm1d(1984, eps=1e-05, momentum=0.1, affine=True, track_running_stats=True)
      (8): Linear(in_features=1984, out_features=992, bias=True)
      (9): ReLU()
      (10): Dropout(p=0.5, inplace=False)
      (11): BatchNorm1d(992, eps=1e-05, momentum=0.1, affine=True, track_running_stats=True)
      (12): Linear(in_features=992, out_features=496, bias=True)
      (13): ReLU()
      (14): Dropout(p=0.5, inplace=False)
      (15): BatchNorm1d(496, eps=1e-05, momentum=0.1, affine=True, track_running_stats=True)
      (16): Linear(in_features=496, out_features=124, bias=True)
    )
  )
  (compression_network): ACFNetCompressionNetwork(
    (convolution_layer): Sequential(
      (0): Conv2d(1, 3, kernel_size=(2, 2), stride=(1, 1))
      (1): ReLU()
    )
    (dense_layer): Sequential(
      (0): Linear(in_features=297, out_features=100, bias=True)
    )
  )
  (quantizer_layer): QuantizerLayer()
  (decoder_network): ACFNetDecoderNetwork(
    (dense_layer1): Sequential(
      (0): Linear(in_features=100, out_features=200, bias=True)
    )
    (convolution_layer): Sequential(
      (0): Conv2d(1, 3, kernel_size=(2, 2), stride=(1, 1))
      (1): ReLU()
    )
    (dense_layer2): Sequential(
      (0): Linear(in_features=513, out_features=200, bias=True)
    )
  )
)
DQNN Number of parameters: 16067055
DQNN(
  (DNN_layer): DNN(
    (linear_encoder): Sequential(
      (0): Linear(in_features=1424, out_features=3968, bias=True)
      (1): ReLU()
      (2): Dropout(p=0.5, inplace=False)
      (3): BatchNorm1d(3968, eps=1e-05, momentum=0.1, affine=True, track_running_stats=True)
      (4): Linear(in_features=3968, out_features=1984, bias=True)
      (5): ReLU()
      (6): Dropout(p=0.5, inplace=False)
      (7): BatchNorm1d(1984, eps=1e-05, momentum=0.1, affine=True, track_running_stats=True)
      (8): Linear(in_features=1984, out_features=992, bias=True)
      (9): ReLU()
      (10): Dropout(p=0.5, inplace=False)
      (11): BatchNorm1d(992, eps=1e-05, momentum=0.1, affine=True, track_running_stats=True)
      (12): Linear(in_features=992, out_features=496, bias=True)
      (13): ReLU()
      (14): Dropout(p=0.5, inplace=False)
      (15): BatchNorm1d(496, eps=1e-05, momentum=0.1, affine=True, track_running_stats=True)
      (16): Linear(in_features=496, out_features=124, bias=True)
    )
  )
  (quantizer_layer): QuantizerLayer()
)
linQ Number of parameters: 20803
LinearQuantizer(
  (precoder_layer): Linear(in_features=24, out_features=24, bias=True)
  (encoder_layer): Linear(in_features=100, out_features=100, bias=True)
  (quantizer_layer): QuantizerLayer()
  (decoder_layer): Linear(in_features=100, out_features=100, bias=True)
)
  0%|          | 0/1000 [00:00<?, ?it/s]0.001 -> 0.001
Epoch: 0 	Training Loss: -0.0098091667 	Validation Loss: -0.0343625720 	Best Validation Loss: inf
### Validation loss same/decreased (inf --> -0.0343625720)... saving model. ###
  0%|          | 1/1000 [00:09<2:34:37,  9.29s/it]0.001 -> 0.001
Epoch: 1 	Training Loss: -0.0107990627 	Validation Loss: -0.0380990170 	Best Validation Loss: -0.0343625720
…
Achievable Rate (bps/Hz) using RIS phase shifts with Transmit power SNR 60.60 dB:
optimum:    14.802499771118164
AQE net:    10.668978691101074
ACF net:    7.317216396331787
DQNN net:   7.139721870422363
linQ net:   6.361948490142822
opt rand:   2.6989669799804688
AQE rand:   2.8770108222961426
ACF rand:   3.3562636375427246
DQNN rand:  3.3450443744659424
linQ rand:  3.111691951751709
-------------------------------------------------------------------------------------------------------


AQE Number of parameters: 16621832
AutoQEncoder(
  (encoder_layer): EncoderLayer(
    (linear_encoder): Sequential(
      (0): Linear(in_features=1548, out_features=3968, bias=True)
      (1): ReLU()
      (2): Dropout(p=0.5, inplace=False)
      (3): BatchNorm1d(3968, eps=1e-05, momentum=0.1, affine=True, track_running_stats=True)
      (4): Linear(in_features=3968, out_features=1984, bias=True)
      (5): ReLU()
      (6): Dropout(p=0.5, inplace=False)
      (7): BatchNorm1d(1984, eps=1e-05, momentum=0.1, affine=True, track_running_stats=True)
      (8): Linear(in_features=1984, out_features=992, bias=True)
      (9): ReLU()
      (10): Dropout(p=0.5, inplace=False)
      (11): BatchNorm1d(992, eps=1e-05, momentum=0.1, affine=True, track_running_stats=True)
      (12): Linear(in_features=992, out_features=496, bias=True)
      (13): ReLU()
      (14): Dropout(p=0.5, inplace=False)
      (15): BatchNorm1d(496, eps=1e-05, momentum=0.1, affine=True, track_running_stats=True)
      (16): Linear(in_features=496, out_features=152, bias=True)
    )
  )
  (quantizer_layer): QuantizerLayer()
  (decoder_layer): DecoderLayer(
    (linear_decoder): Sequential(
      (0): Linear(in_features=128, out_features=100, bias=True)
      (1): ReLU()
      (2): Linear(in_features=100, out_features=100, bias=True)
      (3): ReLU()
    )
    (out_layer): Sequential(
      (0): Linear(in_features=100, out_features=100, bias=True)
    )
  )
  (w_update_layer): WupdateLayer(
    (linear_W): Sequential(
      (0): Linear(in_features=48, out_features=48, bias=True)
      (1): ReLU()
      (2): Dropout(p=0.5, inplace=False)
      (3): Linear(in_features=48, out_features=48, bias=True)
      (4): ReLU()
      (5): Dropout(p=0.5, inplace=False)
      (6): Linear(in_features=48, out_features=48, bias=True)
      (7): ReLU()
      (8): Dropout(p=0.5, inplace=False)
      (9): Linear(in_features=48, out_features=24, bias=True)
    )
    (linear_UL): Sequential(
      (0): Linear(in_features=48, out_features=48, bias=True)
      (1): ReLU()
      (2): Dropout(p=0.5, inplace=False)
      (3): Linear(in_features=48, out_features=48, bias=True)
      (4): ReLU()
      (5): Dropout(p=0.5, inplace=False)
      (6): Linear(in_features=48, out_features=48, bias=True)
      (7): ReLU()
      (8): Dropout(p=0.5, inplace=False)
      (9): Linear(in_features=48, out_features=9, bias=True)
    )
  )
)
ACF Number of parameters: 16233829
ACFNet(
  (mapping_network): DNN(
    (linear_encoder): Sequential(
      (0): Linear(in_features=1424, out_features=3968, bias=True)
      (1): ReLU()
      (2): Dropout(p=0.5, inplace=False)
      (3): BatchNorm1d(3968, eps=1e-05, momentum=0.1, affine=True, track_running_stats=True)
      (4): Linear(in_features=3968, out_features=1984, bias=True)
      (5): ReLU()
      (6): Dropout(p=0.5, inplace=False)
      (7): BatchNorm1d(1984, eps=1e-05, momentum=0.1, affine=True, track_running_stats=True)
      (8): Linear(in_features=1984, out_features=992, bias=True)
      (9): ReLU()
      (10): Dropout(p=0.5, inplace=False)
      (11): BatchNorm1d(992, eps=1e-05, momentum=0.1, affine=True, track_running_stats=True)
      (12): Linear(in_features=992, out_features=496, bias=True)
      (13): ReLU()
      (14): Dropout(p=0.5, inplace=False)
      (15): BatchNorm1d(496, eps=1e-05, momentum=0.1, affine=True, track_running_stats=True)
      (16): Linear(in_features=496, out_features=124, bias=True)
    )
  )
  (compression_network): ACFNetCompressionNetwork(
    (convolution_layer): Sequential(
      (0): Conv2d(1, 3, kernel_size=(2, 2), stride=(1, 1))
      (1): ReLU()
    )
    (dense_layer): Sequential(
      (0): Linear(in_features=297, out_features=128, bias=True)
    )
  )
  (quantizer_layer): QuantizerLayer()
  (decoder_network): ACFNetDecoderNetwork(
    (dense_layer1): Sequential(
      (0): Linear(in_features=128, out_features=200, bias=True)
    )
    (convolution_layer): Sequential(
      (0): Conv2d(1, 3, kernel_size=(2, 2), stride=(1, 1))
      (1): ReLU()
    )
    (dense_layer2): Sequential(
      (0): Linear(in_features=513, out_features=200, bias=True)
    )
  )
)
linQ Number of parameters: 26431
LinearQuantizer(
  (precoder_layer): Linear(in_features=24, out_features=24, bias=True)
  (encoder_layer): Linear(in_features=100, out_features=128, bias=True)
  (quantizer_layer): QuantizerLayer()
  (decoder_layer): Linear(in_features=128, out_features=100, bias=True)
)
  0%|          | 0/1000 [00:00<?, ?it/s]0.001 -> 0.001
Epoch: 0 	Training Loss: -0.0097929108 	Validation Loss: -0.0349345944 	Best Validation Loss: inf
### Validation loss same/decreased (inf --> -0.0349345944)... saving model. ###
  0%|          | 1/1000 [00:09<2:32:05,  9.13s/it]0.001 -> 0.001
Epoch: 1 	Training Loss: -0.0107364790 	Validation Loss: -0.0396998540 	Best Validation Loss: -0.0349345944
…
