…
<00:00, 9941.63it/s] 95%|█████████▍| 94793/100000 [00:11<00:00, 10048.70it/s] 96%|█████████▌| 95818/100000 [00:11<00:00, 10106.27it/s] 97%|█████████▋| 96849/100000 [00:11<00:00, 10165.82it/s] 98%|█████████▊| 97869/100000 [00:11<00:00, 4112.11it/s]  99%|█████████▉| 98874/100000 [00:11<00:00, 4981.57it/s]100%|█████████▉| 99906/100000 [00:12<00:00, 5904.91it/s]100%|██████████| 100000/100000 [00:12<00:00, 8292.49it/s]
------------
Train & Test
------------
AQEnoW Number of parameters: 16535657
AutoQEncoderNoWupdate(
  (encoder_layer): EncoderLayer(
    (linear_encoder): Sequential(
      (0): Linear(in_features=1548, out_features=3968, bias=True)
      (1): ReLU()
      (2): Dropout(p=0.5, inplace=False)
      (3): BatchNorm1d(3968, eps=1e-05, momentum=0.1, affine=True, track_running_stats=True)
      (4): Linear(in_features=3968, out_features=1984, bias=True)
      (5): ReLU()
      (6): Dropout(p=0.5, inplace=False)
      (7): BatchNorm1d(1984, eps=1e-05, momentum=0.1, affine=True, track_running_stats=True)
      (8): Linear(in_features=1984, out_features=992, bias=True)
      (9): ReLU()
      (10): Dropout(p=0.5, inplace=False)
      (11): BatchNorm1d(992, eps=1e-05, momentum=0.1, affine=True, track_running_stats=True)
      (12): Linear(in_features=992, out_features=496, bias=True)
      (13): ReLU()
      (14): Dropout(p=0.5, inplace=False)
      (15): BatchNorm1d(496, eps=1e-05, momentum=0.1, affine=True, track_running_stats=True)
      (16): Linear(in_features=496, out_features=34, bias=True)
    )
  )
  (quantizer_layer): QuantizerLayer()
  (decoder_layer): DecoderLayer(
    (linear_decoder): Sequential(
      (0): Linear(in_features=10, out_features=100, bias=True)
      (1): ReLU()
      (2): Linear(in_features=100, out_features=100, bias=True)
      (3): ReLU()
    )
    (out_layer): Sequential(
      (0): Linear(in_features=100, out_features=100, bias=True)
    )
  )
)
  0%|          | 0/1000 [00:00<?, ?it/s]0.001 -> 0.001
Epoch: 0 	Training Loss: -0.0036764505 	Validation Loss: -0.0155375666 	Best Validation Loss: inf
### Validation loss same/decreased (inf --> -0.0155375666)... saving model. ###
  0%|          | 1/1000 [00:09<2:40:11,  9.62s/it]0.001 -> 0.001
Epoch: 1 	Training Loss: -0.0047058334 	Validation Loss: -0.0185334638 	Best Validation Loss: -0.0155375666
…
 'epoch_patience': 20,
 'epoch_val': 50,
 'epochs': 1000,
 'lr': 0.001,
 'mc_runs': 100000,
 'overall_bits': 10,
 'snr_dB': 50.6,
 'train_test_split': 0.8,
 'train_val_split': 0.8}
Achievable Rate (bps/Hz) using RIS phase shifts with Transmit power SNR 50.60 dB:
optimum:    7.039030075073242
AQEnoW net:    2.342827558517456
AQEnoW rand:   1.0844084024429321
-------------------------------------------------------------------------------------------------------


AQEnoW Number of parameters: 16541627
AutoQEncoderNoWupdate(
  (encoder_layer): EncoderLayer(
    (linear_encoder): Sequential(
      (0): Linear(in_features=1548, out_features=3968, bias=True)
      (1): ReLU()
      (2): Dropout(p=0.5, inplace=False)
      (3): BatchNorm1d(3968, eps=1e-05, momentum=0.1, affine=True, track_running_stats=True)
      (4): Linear(in_features=3968, out_features=1984, bias=True)
      (5): ReLU()
      (6): Dropout(p=0.5, inplace=False)
      (7): BatchNorm1d(1984, eps=1e-05, momentum=0.1, affine=True, track_running_stats=True)
      (8): Linear(in_features=1984, out_features=992, bias=True)
      (9): ReLU()
      (10): Dropout(p=0.5, inplace=False)
      (11): BatchNorm1d(992, eps=1e-05, momentum=0.1, affine=True, track_running_stats=True)
      (12): Linear(in_features=992, out_features=496, bias=True)
      (13): ReLU()
      (14): Dropout(p=0.5, inplace=False)
      (15): BatchNorm1d(496, eps=1e-05, momentum=0.1, affine=True, track_running_stats=True)
      (16): Linear(in_features=496, out_features=44, bias=True)
    )
  )
  (quantizer_layer): QuantizerLayer()
  (decoder_layer): DecoderLayer(
    (linear_decoder): Sequential(
      (0): Linear(in_features=20, out_features=100, bias=True)
      (1): ReLU()
      (2): Linear(in_features=100, out_features=100, bias=True)
      (3): ReLU()
    )
    (out_layer): Sequential(
      (0): Linear(in_features=100, out_features=100, bias=True)
    )
  )
)
  0%|          | 0/1000 [00:00<?, ?it/s]0.001 -> 0.001
Epoch: 0 	Training Loss: -0.0036609156 	Validation Loss: -0.0156429416 	Best Validation Loss: inf
### Validation loss same/decreased (inf --> -0.0156429416)... saving model. ###
  0%|          | 1/1000 [00:09<2:42:52,  9.78s/it]0.001 -> 0.001
Epoch: 1 	Training Loss: -0.0043487477 	Validation Loss: -0.0184781928 	Best Validation Loss: -0.0156429416
…
 'epoch_patience': 20,
 'epoch_val': 50,
 'epochs': 1000,
 'lr': 0.001,
 'mc_runs': 100000,
 'overall_bits': 20,
 'snr_dB': 50.6,
 'train_test_split': 0.8,
 'train_val_split': 0.8}
Achievable Rate (bps/Hz) using RIS phase shifts with Transmit power SNR 50.60 dB:
optimum:    7.039030075073242
AQEnoW net:    3.114929437637329
AQEnoW rand:   1.1692384481430054
-------------------------------------------------------------------------------------------------------


AQEnoW Number of parameters: 16547597
AutoQEncoderNoWupdate(
  (encoder_layer): EncoderLayer(
    (linear_encoder): Sequential(
      (0): Linear(in_features=1548, out_features=3968, bias=True)
      (1): ReLU()
      (2): Dropout(p=0.5, inplace=False)
      (3): BatchNorm1d(3968, eps=1e-05, momentum=0.1, affine=True, track_running_stats=True)
      (4): Linear(in_features=3968, out_features=1984, bias=True)
      (5): ReLU()
      (6): Dropout(p=0.5, inplace=False)
      (7): BatchNorm1d(1984, eps=1e-05, momentum=0.1, affine=True, track_running_stats=True)
      (8): Linear(in_features=1984, out_features=992, bias=True)
      (9): ReLU()
      (10): Dropout(p=0.5, inplace=False)
      (11): BatchNorm1d(992, eps=1e-05, momentum=0.1, affine=True, track_running_stats=True)
      (12): Linear(in_features=992, out_features=496, bias=True)
      (13): ReLU()
      (14): Dropout(p=0.5, inplace=False)
      (15): BatchNorm1d(496, eps=1e-05, momentum=0.1, affine=True, track_running_stats=True)
      (16): Linear(in_features=496, out_features=54, bias=True)
    )
  )
  (quantizer_layer): QuantizerLayer()
  (decoder_layer): DecoderLayer(
    (linear_decoder): Sequential(
      (0): Linear(in_features=30, out_features=100, bias=True)
      (1): ReLU()
      (2): Linear(in_features=100, out_features=100, bias=True)
      (3): ReLU()
    )
    (out_layer): Sequential(
      (0): Linear(in_features=100, out_features=100, bias=True)
    )
  )
)
  0%|          | 0/1000 [00:00<?, ?it/s]0.001 -> 0.001
Epoch: 0 	Training Loss: -0.0035967321 	Validation Loss: -0.0154151854 	Best Validation Loss: inf
### Validation loss same/decreased (inf --> -0.0154151854)... saving model. ###
  0%|          | 1/1000 [00:09<2:45:56,  9.97s/it]0.001 -> 0.001
Epoch: 1 	Training Loss: -0.0045030429 	Validation Loss: -0.0188577188 	Best Validation Loss: -0.0154151854
…
 'epoch_patience': 20,
 'epoch_val': 50,
 'epochs': 1000,
 'lr': 0.001,
 'mc_runs': 100000,
 'overall_bits': 30,
 'snr_dB': 50.6,
 'train_test_split': 0.8,
 'train_val_split': 0.8}
Achievable Rate (bps/Hz) using RIS phase shifts with Transmit power SNR 50.60 dB:
optimum:    7.039030075073242
AQEnoW net:    3.354445695877075
AQEnoW rand:   1.0980520248413086
-------------------------------------------------------------------------------------------------------


AQEnoW Number of parameters: 16553567
AutoQEncoderNoWupdate(
  (encoder_layer): EncoderLayer(
    (linear_encoder): Sequential(
      (0): Linear(in_features=1548, out_features=3968, bias=True)
      (1): ReLU()
      (2): Dropout(p=0.5, inplace=False)
      (3): BatchNorm1d(3968, eps=1e-05, momentum=0.1, affine=True, track_running_stats=True)
      (4): Linear(in_features=3968, out_features=1984, bias=True)
      (5): ReLU()
      (6): Dropout(p=0.5, inplace=False)
      (7): BatchNorm1d(1984, eps=1e-05, momentum=0.1, affine=True, track_running_stats=True)
      (8): Linear(in_features=1984, out_features=992, bias=True)
      (9): ReLU()
      (10): Dropout(p=0.5, inplace=False)
      (11): BatchNorm1d(992, eps=1e-05, momentum=0.1, affine=True, track_running_stats=True)
      (12): Linear(in_features=992, out_features=496, bias=True)
      (13): ReLU()
      (14): Dropout(p=0.5, inplace=False)
      (15): BatchNorm1d(496, eps=1e-05, momentum=0.1, affine=True, track_running_stats=True)
      (16): Linear(in_features=496, out_features=64, bias=True)
    )
  )
  (quantizer_layer): QuantizerLayer()
  (decoder_layer): DecoderLayer(
    (linear_decoder): Sequential(
      (0): Linear(in_features=40, out_features=100, bias=True)
      (1): ReLU()
      (2): Linear(in_features=100, out_features=100, bias=True)
      (3): ReLU()
    )
    (out_layer): Sequential(
      (0): Linear(in_features=100, out_features=100, bias=True)
    )
  )
)
  0%|          | 0/1000 [00:00<?, ?it/s]0.001 -> 0.001
Epoch: 0 	Training Loss: -0.0037887945 	Validation Loss: -0.0163107964 	Best Validation Loss: inf
### Validation loss same/decreased (inf --> -0.0163107964)... saving model. ###
  0%|          | 1/1000 [00:09<2:36:21,  9.39s/it]0.001 -> 0.001
Epoch: 1 	Training Loss: -0.0046641430 	Validation Loss: -0.0202588407 	Best Validation Loss: -0.0163107964
…
 'epoch_patience': 20,
 'epoch_val': 50,
 'epochs': 1000,
 'lr': 0.001,
 'mc_runs': 100000,
 'overall_bits': 40,
 'snr_dB': 50.6,
 'train_test_split': 0.8,
 'train_val_split': 0.8}
Achievable Rate (bps/Hz) using RIS phase shifts with Transmit power SNR 50.60 dB:
optimum:    7.039030075073242
AQEnoW net:    3.5274651050567627
AQEnoW rand:   1.183445692062378
-------------------------------------------------------------------------------------------------------


AQEnoW Number of parameters: 16559537
AutoQEncoderNoWupdate(
  (encoder_layer): EncoderLayer(
    (linear_encoder): Sequential(
      (0): Linear(in_features=1548, out_features=3968, bias=True)
      (1): ReLU()
      (2): Dropout(p=0.5, inplace=False)
      (3): BatchNorm1d(3968, eps=1e-05, momentum=0.1, affine=True, track_running_stats=True)
      (4): Linear(in_features=3968, out_features=1984, bias=True)
      (5): ReLU()
      (6): Dropout(p=0.5, inplace=False)
      (7): BatchNorm1d(1984, eps=1e-05, momentum=0.1, affine=True, track_running_stats=True)
      (8): Linear(in_features=1984, out_features=992, bias=True)
      (9): ReLU()
      (10): Dropout(p=0.5, inplace=False)
      (11): BatchNorm1d(992, eps=1e-05, momentum=0.1, affine=True, track_running_stats=True)
      (12): Linear(in_features=992, out_features=496, bias=True)
      (13): ReLU()
      (14): Dropout(p=0.5, inplace=False)
      (15): BatchNorm1d(496, eps=1e-05, momentum=0.1, affine=True, track_running_stats=True)
      (16): Linear(in_features=496, out_features=74, bias=True)
    )
  )
  (quantizer_layer): QuantizerLayer()
  (decoder_layer): DecoderLayer(
    (linear_decoder): Sequential(
      (0): Linear(in_features=50, out_features=100, bias=True)
      (1): ReLU()
      (2): Linear(in_features=100, out_features=100, bias=True)
      (3): ReLU()
    )
    (out_layer): Sequential(
      (0): Linear(in_features=100, out_features=100, bias=True)
    )
  )
)
  0%|          | 0/1000 [00:00<?, ?it/s]0.001 -> 0.001
Epoch: 0 	Training Loss: -0.0036863716 	Validation Loss: -0.0160108259 	Best Validation Loss: inf
### Validation loss same/decreased (inf --> -0.0160108259)... saving model. ###
  0%|          | 1/1000 [00:09<2:36:57,  9.43s/it]0.001 -> 0.001
Epoch: 1 	Training Loss: -0.0044953885 	Validation Loss: -0.0195066871 	Best Validation Loss: -0.0160108259
…
 'epoch_patience': 20,
 'epoch_val': 50,
 'epochs': 1000,
 'lr': 0.001,
 'mc_runs': 100000,
 'overall_bits': 50,
 'snr_dB': 50.6,
 'train_test_split': 0.8,
 'train_val_split': 0.8}
Achievable Rate (bps/Hz) using RIS phase shifts with Transmit power SNR 50.60 dB:
optimum:    7.039030075073242
AQEnoW net:    3.7563164234161377
AQEnoW rand:   1.1950371265411377
-------------------------------------------------------------------------------------------------------


AQEnoW Number of parameters: 16565507
AutoQEncoderNoWupdate(
  (encoder_layer): EncoderLayer(
    (linear_encoder): Sequential(
      (0): Linear(in_features=1548, out_features=3968, bias=True)
      (1): ReLU()
      (2): Dropout(p=0.5, inplace=False)
      (3): BatchNorm1d(3968, eps=1e-05, momentum=0.1, affine=True, track_running_stats=True)
      (4): Linear(in_features=3968, out_features=1984, bias=True)
      (5): ReLU()
      (6): Dropout(p=0.5, inplace=False)
      (7): BatchNorm1d(1984, eps=1e-05, momentum=0.1, affine=True, track_running_stats=True)
      (8): Linear(in_features=1984, out_features=992, bias=True)
      (9): ReLU()
      (10): Dropout(p=0.5, inplace=False)
      (11): BatchNorm1d(992, eps=1e-05, momentum=0.1, affine=True, track_running_stats=True)
      (12): Linear(in_features=992, out_features=496, bias=True)
      (13): ReLU()
      (14): Dropout(p=0.5, inplace=False)
      (15): BatchNorm1d(496, eps=1e-05, momentum=0.1, affine=True, track_running_stats=True)
      (16): Linear(in_features=496, out_features=84, bias=True)
    )
  )
  (quantizer_layer): QuantizerLayer()
  (decoder_layer): DecoderLayer(
    (linear_decoder): Sequential(
      (0): Linear(in_features=60, out_features=100, bias=True)
      (1): ReLU()
      (2): Linear(in_features=100, out_features=100, bias=True)
      (3): ReLU()
    )
    (out_layer): Sequential(
      (0): Linear(in_features=100, out_features=100, bias=True)
    )
  )
)
  0%|          | 0/1000 [00:00<?, ?it/s]0.001 -> 0.001
Epoch: 0 	Training Loss: -0.0037982563 	Validation Loss: -0.0162174808 	Best Validation Loss: inf
### Validation loss same/decreased (inf --> -0.0162174808)... saving model. ###
  0%|          | 1/1000 [00:09<2:37:21,  9.45s/it]0.001 -> 0.001
Epoch: 1 	Training Loss: -0.0045797588 	Validation Loss: -0.0204928196 	Best Validation Loss: -0.0162174808
…
 'epoch_patience': 20,
 'epoch_val': 50,
 'epochs': 1000,
 'lr': 0.001,
 'mc_runs': 100000,
 'overall_bits': 60,
 'snr_dB': 50.6,
 'train_test_split': 0.8,
 'train_val_split': 0.8}
Achievable Rate (bps/Hz) using RIS phase shifts with Transmit power SNR 50.60 dB:
optimum:    7.039030075073242
AQEnoW net:    3.7570366859436035
AQEnoW rand:   1.0952792167663574
-------------------------------------------------------------------------------------------------------


AQEnoW Number of parameters: 16571477
AutoQEncoderNoWupdate(
  (encoder_layer): EncoderLayer(
    (linear_encoder): Sequential(
      (0): Linear(in_features=1548, out_features=3968, bias=True)
      (1): ReLU()
      (2): Dropout(p=0.5, inplace=False)
      (3): BatchNorm1d(3968, eps=1e-05, momentum=0.1, affine=True, track_running_stats=True)
      (4): Linear(in_features=3968, out_features=1984, bias=True)
      (5): ReLU()
      (6): Dropout(p=0.5, inplace=False)
      (7): BatchNorm1d(1984, eps=1e-05, momentum=0.1, affine=True, track_running_stats=True)
      (8): Linear(in_features=1984, out_features=992, bias=True)
      (9): ReLU()
      (10): Dropout(p=0.5, inplace=False)
      (11): BatchNorm1d(992, eps=1e-05, momentum=0.1, affine=True, track_running_stats=True)
      (12): Linear(in_features=992, out_features=496, bias=True)
      (13): ReLU()
      (14): Dropout(p=0.5, inplace=False)
      (15): BatchNorm1d(496, eps=1e-05, momentum=0.1, affine=True, track_running_stats=True)
      (16): Linear(in_features=496, out_features=94, bias=True)
    )
  )
  (quantizer_layer): QuantizerLayer()
  (decoder_layer): DecoderLayer(
    (linear_decoder): Sequential(
      (0): Linear(in_features=70, out_features=100, bias=True)
      (1): ReLU()
      (2): Linear(in_features=100, out_features=100, bias=True)
      (3): ReLU()
    )
    (out_layer): Sequential(
      (0): Linear(in_features=100, out_features=100, bias=True)
    )
  )
)
  0%|          | 0/1000 [00:00<?, ?it/s]0.001 -> 0.001
Epoch: 0 	Training Loss: -0.0036625497 	Validation Loss: -0.0156437307 	Best Validation Loss: inf
### Validation loss same/decreased (inf --> -0.0156437307)... saving model. ###
  0%|          | 1/1000 [00:09<2:37:55,  9.48s/it]0.001 -> 0.001
Epoch: 1 	Training Loss: -0.0045095461 	Validation Loss: -0.0189375781 	Best Validation Loss: -0.0156437307
…
 'epoch_patience': 20,
 'epoch_val': 50,
 'epochs': 1000,
 'lr': 0.001,
 'mc_runs': 100000,
 'overall_bits': 70,
 'snr_dB': 50.6,
 'train_test_split': 0.8,
 'train_val_split': 0.8}
Achievable Rate (bps/Hz) using RIS phase shifts with Transmit power SNR 50.60 dB:
optimum:    7.039030075073242
AQEnoW net:    3.7784643173217773
AQEnoW rand:   1.177478313446045
-------------------------------------------------------------------------------------------------------


AQEnoW Number of parameters: 16577447
AutoQEncoderNoWupdate(
  (encoder_layer): EncoderLayer(
    (linear_encoder): Sequential(
      (0): Linear(in_features=1548, out_features=3968, bias=True)
      (1): ReLU()
      (2): Dropout(p=0.5, inplace=False)
      (3): BatchNorm1d(3968, eps=1e-05, momentum=0.1, affine=True, track_running_stats=True)
      (4): Linear(in_features=3968, out_features=1984, bias=True)
      (5): ReLU()
      (6): Dropout(p=0.5, inplace=False)
      (7): BatchNorm1d(1984, eps=1e-05, momentum=0.1, affine=True, track_running_stats=True)
      (8): Linear(in_features=1984, out_features=992, bias=True)
      (9): ReLU()
      (10): Dropout(p=0.5, inplace=False)
      (11): BatchNorm1d(992, eps=1e-05, momentum=0.1, affine=True, track_running_stats=True)
      (12): Linear(in_features=992, out_features=496, bias=True)
      (13): ReLU()
      (14): Dropout(p=0.5, inplace=False)
      (15): BatchNorm1d(496, eps=1e-05, momentum=0.1, affine=True, track_running_stats=True)
      (16): Linear(in_features=496, out_features=104, bias=True)
    )
  )
  (quantizer_layer): QuantizerLayer()
  (decoder_layer): DecoderLayer(
    (linear_decoder): Sequential(
      (0): Linear(in_features=80, out_features=100, bias=True)
      (1): ReLU()
      (2): Linear(in_features=100, out_features=100, bias=True)
      (3): ReLU()
    )
    (out_layer): Sequential(
      (0): Linear(in_features=100, out_features=100, bias=True)
    )
  )
)
  0%|          | 0/1000 [00:00<?, ?it/s]0.001 -> 0.001
Epoch: 0 	Training Loss: -0.0041356542 	Validation Loss: -0.0176808975 	Best Validation Loss: inf
### Validation loss same/decreased (inf --> -0.0176808975)... saving model. ###
  0%|          | 1/1000 [00:09<2:34:39,  9.29s/it]0.001 -> 0.001
Epoch: 1 	Training Loss: -0.0048765027 	Validation Loss: -0.0214381474 	Best Validation Loss: -0.0176808975
…
 'epoch_patience': 20,
 'epoch_val': 50,
 'epochs': 1000,
 'lr': 0.001,
 'mc_runs': 100000,
 'overall_bits': 80,
 'snr_dB': 50.6,
 'train_test_split': 0.8,
 'train_val_split': 0.8}
Achievable Rate (bps/Hz) using RIS phase shifts with Transmit power SNR 50.60 dB:
optimum:    7.039030075073242
AQEnoW net:    3.8548433780670166
AQEnoW rand:   1.2167277336120605
-------------------------------------------------------------------------------------------------------


AQEnoW Number of parameters: 16583417
AutoQEncoderNoWupdate(
  (encoder_layer): EncoderLayer(
    (linear_encoder): Sequential(
      (0): Linear(in_features=1548, out_features=3968, bias=True)
      (1): ReLU()
      (2): Dropout(p=0.5, inplace=False)
      (3): BatchNorm1d(3968, eps=1e-05, momentum=0.1, affine=True, track_running_stats=True)
      (4): Linear(in_features=3968, out_features=1984, bias=True)
      (5): ReLU()
      (6): Dropout(p=0.5, inplace=False)
      (7): BatchNorm1d(1984, eps=1e-05, momentum=0.1, affine=True, track_running_stats=True)
      (8): Linear(in_features=1984, out_features=992, bias=True)
      (9): ReLU()
      (10): Dropout(p=0.5, inplace=False)
      (11): BatchNorm1d(992, eps=1e-05, momentum=0.1, affine=True, track_running_stats=True)
      (12): Linear(in_features=992, out_features=496, bias=True)
      (13): ReLU()
      (14): Dropout(p=0.5, inplace=False)
      (15): BatchNorm1d(496, eps=1e-05, momentum=0.1, affine=True, track_running_stats=True)
      (16): Linear(in_features=496, out_features=114, bias=True)
    )
  )
  (quantizer_layer): QuantizerLayer()
  (decoder_layer): DecoderLayer(
    (linear_decoder): Sequential(
      (0): Linear(in_features=90, out_features=100, bias=True)
      (1): ReLU()
      (2): Linear(in_features=100, out_features=100, bias=True)
      (3): ReLU()
    )
    (out_layer): Sequential(
      (0): Linear(in_features=100, out_features=100, bias=True)
    )
  )
)
  0%|          | 0/1000 [00:00<?, ?it/s]0.001 -> 0.001
Epoch: 0 	Training Loss: -0.0036229418 	Validation Loss: -0.0153810075 	Best Validation Loss: inf
### Validation loss same/decreased (inf --> -0.0153810075)... saving model. ###
  0%|          | 1/1000 [00:09<2:35:30,  9.34s/it]0.001 -> 0.001
Epoch: 1 	Training Loss: -0.0045608031 	Validation Loss: -0.0197589101 	Best Validation Loss: -0.0153810075
…
 'epoch_patience': 20,
 'epoch_val': 50,
 'epochs': 1000,
 'lr': 0.001,
 'mc_runs': 100000,
 'overall_bits': 90,
 'snr_dB': 50.6,
 'train_test_split': 0.8,
 'train_val_split': 0.8}
Achievable Rate (bps/Hz) using RIS phase shifts with Transmit power SNR 50.60 dB:
optimum:    7.039030075073242
AQEnoW net:    3.9076483249664307
AQEnoW rand:   1.0893930196762085
-------------------------------------------------------------------------------------------------------


AQEnoW Number of parameters: 16589387
AutoQEncoderNoWupdate(
  (encoder_layer): EncoderLayer(
    (linear_encoder): Sequential(
      (0): Linear(in_features=1548, out_features=3968, bias=True)
      (1): ReLU()
      (2): Dropout(p=0.5, inplace=False)
      (3): BatchNorm1d(3968, eps=1e-05, momentum=0.1, affine=True, track_running_stats=True)
      (4): Linear(in_features=3968, out_features=1984, bias=True)
      (5): ReLU()
      (6): Dropout(p=0.5, inplace=False)
      (7): BatchNorm1d(1984, eps=1e-05, momentum=0.1, affine=True, track_running_stats=True)
      (8): Linear(in_features=1984, out_features=992, bias=True)
      (9): ReLU()
      (10): Dropout(p=0.5, inplace=False)
      (11): BatchNorm1d(992, eps=1e-05, momentum=0.1, affine=True, track_running_stats=True)
      (12): Linear(in_features=992, out_features=496, bias=True)
      (13): ReLU()
      (14): Dropout(p=0.5, inplace=False)
      (15): BatchNorm1d(496, eps=1e-05, momentum=0.1, affine=True, track_running_stats=True)
      (16): Linear(in_features=496, out_features=124, bias=True)
    )
  )
  (quantizer_layer): QuantizerLayer()
  (decoder_layer): DecoderLayer(
    (linear_decoder): Sequential(
      (0): Linear(in_features=100, out_features=100, bias=True)
      (1): ReLU()
      (2): Linear(in_features=100, out_features=100, bias=True)
      (3): ReLU()
    )
    (out_layer): Sequential(
      (0): Linear(in_features=100, out_features=100, bias=True)
    )
  )
)
  0%|          | 0/1000 [00:00<?, ?it/s]0.001 -> 0.001
Epoch: 0 	Training Loss: -0.0037248201 	Validation Loss: -0.0157406958 	Best Validation Loss: inf
### Validation loss same/decreased (inf --> -0.0157406958)... saving model. ###
  0%|          | 1/1000 [00:09<2:34:44,  9.29s/it]0.001 -> 0.001
Epoch: 1 	Training Loss: -0.0046602105 	Validation Loss: -0.0199107826 	Best Validation Loss: -0.0157406958
…
