…
| 100000/100000 [00:13<00:00, 7489.64it/s]
------------
Train & Test
------------
Training Model parameters:
{'K_UE': 3,
 'M_AP': 4,
 'N_RIS': 25,
 'N_dBm': -30.6,
 'Nh_RIS': 5,
 'Nw_RIS': 5,
 'P_dBm': 35.0,
 'Q_bits': 1,
 'batch_size': 512,
 'epoch_echo': True,
 'epoch_patience': 20,
 'epoch_val': 50,
 'epochs': 1000,
 'lr': 0.001,
 'mc_runs': 100000,
 'nmse_Har': 0.0,
 'nmse_Hau': 0.0,
 'nmse_Hru': 0.0,
 'snr_dB': 65.6,
 'train_test_split': 0.8,
 'train_val_split': 0.8}
AQE Number of parameters: 2304833
AutoQEncoder(
  (encoder_layer): EncoderLayer(
    (linear_encoder): Sequential(
      (0): Linear(in_features=423, out_features=1568, bias=True)
      (1): ReLU()
      (2): Dropout(p=0.5, inplace=False)
      (3): BatchNorm1d(1568, eps=1e-05, momentum=0.1, affine=True, track_running_stats=True)
      (4): Linear(in_features=1568, out_features=784, bias=True)
      (5): ReLU()
      (6): Dropout(p=0.5, inplace=False)
      (7): BatchNorm1d(784, eps=1e-05, momentum=0.1, affine=True, track_running_stats=True)
      (8): Linear(in_features=784, out_features=392, bias=True)
      (9): ReLU()
      (10): Dropout(p=0.5, inplace=False)
      (11): BatchNorm1d(392, eps=1e-05, momentum=0.1, affine=True, track_running_stats=True)
      (12): Linear(in_features=392, out_features=196, bias=True)
      (13): ReLU()
      (14): Dropout(p=0.5, inplace=False)
      (15): BatchNorm1d(196, eps=1e-05, momentum=0.1, affine=True, track_running_stats=True)
      (16): Linear(in_features=196, out_features=10, bias=True)
    )
  )
  (quantizer_layer): QuantizerLayer()
  (decoder_layer): DecoderLayer(
    (linear_decoder): Sequential(
      (0): Linear(in_features=10, out_features=25, bias=True)
      (1): ReLU()
      (2): Linear(in_features=25, out_features=25, bias=True)
      (3): ReLU()
    )
    (out_layer): Sequential(
      (0): Linear(in_features=25, out_features=25, bias=True)
    )
  )
  (w_update_layer): WupdateLayer(
    (linear_W): Sequential(
      (0): Linear(in_features=48, out_features=48, bias=True)
      (1): ReLU()
      (2): Dropout(p=0.5, inplace=False)
      (3): Linear(in_features=48, out_features=48, bias=True)
      (4): ReLU()
      (5): Dropout(p=0.5, inplace=False)
      (6): Linear(in_features=48, out_features=48, bias=True)
      (7): ReLU()
      (8): Dropout(p=0.5, inplace=False)
      (9): Linear(in_features=48, out_features=24, bias=True)
    )
    (linear_UL): Sequential(
      (0): Linear(in_features=48, out_features=48, bias=True)
      (1): ReLU()
      (2): Dropout(p=0.5, inplace=False)
      (3): Linear(in_features=48, out_features=48, bias=True)
      (4): ReLU()
      (5): Dropout(p=0.5, inplace=False)
      (6): Linear(in_features=48, out_features=48, bias=True)
      (7): ReLU()
      (8): Dropout(p=0.5, inplace=False)
      (9): Linear(in_features=48, out_features=9, bias=True)
    )
  )
)
AQEnoW Number of parameters: 2289104
AutoQEncoderNoWupdate(
  (encoder_layer): EncoderLayer(
    (linear_encoder): Sequential(
      (0): Linear(in_features=423, out_features=1568, bias=True)
      (1): ReLU()
      (2): Dropout(p=0.5, inplace=False)
      (3): BatchNorm1d(1568, eps=1e-05, momentum=0.1, affine=True, track_running_stats=True)
      (4): Linear(in_features=1568, out_features=784, bias=True)
      (5): ReLU()
      (6): Dropout(p=0.5, inplace=False)
      (7): BatchNorm1d(784, eps=1e-05, momentum=0.1, affine=True, track_running_stats=True)
      (8): Linear(in_features=784, out_features=392, bias=True)
      (9): ReLU()
      (10): Dropout(p=0.5, inplace=False)
      (11): BatchNorm1d(392, eps=1e-05, momentum=0.1, affine=True, track_running_stats=True)
      (12): Linear(in_features=392, out_features=196, bias=True)
      (13): ReLU()
      (14): Dropout(p=0.5, inplace=False)
      (15): BatchNorm1d(196, eps=1e-05, momentum=0.1, affine=True, track_running_stats=True)
      (16): Linear(in_features=196, out_features=10, bias=True)
    )
  )
  (quantizer_layer): QuantizerLayer()
  (decoder_layer): DecoderLayer(
    (linear_decoder): Sequential(
      (0): Linear(in_features=10, out_features=25, bias=True)
      (1): ReLU()
      (2): Linear(in_features=25, out_features=25, bias=True)
      (3): ReLU()
    )
    (out_layer): Sequential(
      (0): Linear(in_features=25, out_features=25, bias=True)
    )
  )
)
ACF Number of parameters: 2225140
ACFNet(
  (mapping_network): DNN(
    (linear_encoder): Sequential(
      (0): Linear(in_features=374, out_features=1568, bias=True)
      (1): ReLU()
      (2): Dropout(p=0.5, inplace=False)
      (3): BatchNorm1d(1568, eps=1e-05, momentum=0.1, affine=True, track_running_stats=True)
      (4): Linear(in_features=1568, out_features=784, bias=True)
      (5): ReLU()
      (6): Dropout(p=0.5, inplace=False)
      (7): BatchNorm1d(784, eps=1e-05, momentum=0.1, affine=True, track_running_stats=True)
      (8): Linear(in_features=784, out_features=392, bias=True)
      (9): ReLU()
      (10): Dropout(p=0.5, inplace=False)
      (11): BatchNorm1d(392, eps=1e-05, momentum=0.1, affine=True, track_running_stats=True)
      (12): Linear(in_features=392, out_features=196, bias=True)
      (13): ReLU()
      (14): Dropout(p=0.5, inplace=False)
      (15): BatchNorm1d(196, eps=1e-05, momentum=0.1, affine=True, track_running_stats=True)
      (16): Linear(in_features=196, out_features=49, bias=True)
    )
  )
  (compression_network): ACFNetCompressionNetwork(
    (convolution_layer): Sequential(
      (0): Conv2d(1, 3, kernel_size=(2, 2), stride=(1, 1))
      (1): ReLU()
    )
    (dense_layer): Sequential(
      (0): Linear(in_features=72, out_features=10, bias=True)
    )
  )
  (quantizer_layer): QuantizerLayer()
  (decoder_network): ACFNetDecoderNetwork(
    (dense_layer1): Sequential(
      (0): Linear(in_features=10, out_features=50, bias=True)
    )
    (convolution_layer): Sequential(
      (0): Conv2d(1, 3, kernel_size=(2, 2), stride=(1, 1))
      (1): ReLU()
    )
    (dense_layer2): Sequential(
      (0): Linear(in_features=108, out_features=50, bias=True)
    )
  )
)
linQ Number of parameters: 1138
LinearQuantizer(
  (precoder_layer): Linear(in_features=24, out_features=24, bias=True)
  (encoder_layer): Linear(in_features=25, out_features=10, bias=True)
  (quantizer_layer): QuantizerLayer()
  (decoder_layer): Linear(in_features=10, out_features=25, bias=True)
)
  0%|          | 0/1000 [00:00<?, ?it/s]0.001 -> 0.001
Epoch: 0 	Training Loss: -0.1026195002 	Validation Loss: -0.0990695236 	Best Validation Loss: inf
### Validation loss same/decreased (inf --> -0.0990695236)... saving model. ###
  0%|          | 1/1000 [00:03<50:00,  3.00s/it]0.001 -> 0.001
Epoch: 1 	Training Loss: -0.1021063439 	Validation Loss: -0.0990860321 	Best Validation Loss: -0.0990695236
…
