…
T              101
K                1
M                1
N              100
Nw              10
Nh              10
mc_runs    1000000
Name: 0, dtype: int64
Training Model parameters:
{'N_RIS': 100,
 'Nh_RIS': 10,
 'Nw_RIS': 10,
 'Q_bits': 1,
 'batch_size': 512,
 'epoch_echo': True,
 'epoch_val': 100,
 'epochs': 500,
 'lr': 0.001,
 'mc_runs': 1000000,
 'momentum': 0.9,
 'snr_dB': -5,
 'train_test_split': 0.8,
 'train_val_split': 0.8}
--------------
Create Dataset
--------------
------------
Train & Test
------------
AutoQEncoder(
  (encoder_layer): EncoderLayer(
    (linear_theta): Sequential(
      (0): Linear(in_features=100, out_features=100, bias=True)
      (1): LeakyReLU(negative_slope=0.01)
      (2): Dropout(p=0.2, inplace=False)
      (3): Linear(in_features=100, out_features=1, bias=True)
      (4): LeakyReLU(negative_slope=0.01)
    )
    (linear_hra_mag): Sequential(
      (0): Linear(in_features=100, out_features=100, bias=True)
      (1): LeakyReLU(negative_slope=0.01)
      (2): Dropout(p=0.2, inplace=False)
      (3): Linear(in_features=100, out_features=1, bias=True)
      (4): LeakyReLU(negative_slope=0.01)
    )
    (linear_hra_ang): Sequential(
      (0): Linear(in_features=100, out_features=100, bias=True)
      (1): LeakyReLU(negative_slope=0.01)
      (2): Dropout(p=0.2, inplace=False)
      (3): Linear(in_features=100, out_features=1, bias=True)
      (4): LeakyReLU(negative_slope=0.01)
    )
    (linear_hur_mag): Sequential(
      (0): Linear(in_features=100, out_features=100, bias=True)
      (1): LeakyReLU(negative_slope=0.01)
      (2): Dropout(p=0.2, inplace=False)
      (3): Linear(in_features=100, out_features=1, bias=True)
      (4): LeakyReLU(negative_slope=0.01)
    )
    (linear_hur_ang): Sequential(
      (0): Linear(in_features=100, out_features=100, bias=True)
      (1): LeakyReLU(negative_slope=0.01)
      (2): Dropout(p=0.2, inplace=False)
      (3): Linear(in_features=100, out_features=1, bias=True)
      (4): LeakyReLU(negative_slope=0.01)
    )
    (linear_encoder): Sequential(
      (0): Linear(in_features=5, out_features=1, bias=True)
      (1): LeakyReLU(negative_slope=0.01)
    )
  )
  (quantizer_layer): QuantizerLayer()
  (decoder_layer): DecoderLayer(
    (linear_decoder): Sequential(
      (0): Linear(in_features=1, out_features=100, bias=True)
      (1): LeakyReLU(negative_slope=0.01)
    )
    (out_layer): Sequential(
      (0): Linear(in_features=100, out_features=100, bias=True)
    )
  )
)
Number of parameters: 61314
LinearQuantizer(
  (encoder_layer): Linear(in_features=100, out_features=1, bias=True)
  (quantizer_layer): QuantizerLayer()
  (decoder_layer): Linear(in_features=1, out_features=100, bias=True)
)
Number of parameters: 304
  0%|          | 0/500 [00:00<?, ?it/s]
 0.001 -> 0.001

Epoch: 0 	Training Loss: 0.0003374598 	Validation Loss: 0.0014344436
Validation loss same/decreased (inf --> 0.0014344436)... saving model.
  0%|          | 1/500 [00:06<54:31,  6.56s/it]
 0.001 -> 0.001

Epoch: 1 	Training Loss: 0.0003365207 	Validation Loss: 0.0014134661
…
 'batch_size': 512,
 'epoch_echo': True,
 'epoch_val': 100,
 'epochs': 500,
 'lr': 0.001,
 'mc_runs': 1000000,
 'momentum': 0.9,
 'overall_bits': 1,
 'snr_dB': -5,
 'train_test_split': 0.8,
 'train_val_split': 0.8}
Achievable Rate (bps/Hz) using RIS phase shifts with Transmit power SNR -5 dB:
optimum:  12.528217315673828
AQE net:  6.159181118011475
lin Q:    5.970800876617432
random:   5.529367446899414
-------------------------------------------------------------------------------------------------------


AutoQEncoder(
  (encoder_layer): EncoderLayer(
    (linear_theta): Sequential(
      (0): Linear(in_features=100, out_features=100, bias=True)
      (1): LeakyReLU(negative_slope=0.01)
      (2): Dropout(p=0.2, inplace=False)
      (3): Linear(in_features=100, out_features=2, bias=True)
      (4): LeakyReLU(negative_slope=0.01)
    )
    (linear_hra_mag): Sequential(
      (0): Linear(in_features=100, out_features=100, bias=True)
      (1): LeakyReLU(negative_slope=0.01)
      (2): Dropout(p=0.2, inplace=False)
      (3): Linear(in_features=100, out_features=2, bias=True)
      (4): LeakyReLU(negative_slope=0.01)
    )
    (linear_hra_ang): Sequential(
      (0): Linear(in_features=100, out_features=100, bias=True)
      (1): LeakyReLU(negative_slope=0.01)
      (2): Dropout(p=0.2, inplace=False)
      (3): Linear(in_features=100, out_features=2, bias=True)
      (4): LeakyReLU(negative_slope=0.01)
    )
    (linear_hur_mag): Sequential(
      (0): Linear(in_features=100, out_features=100, bias=True)
      (1): LeakyReLU(negative_slope=0.01)
      (2): Dropout(p=0.2, inplace=False)
      (3): Linear(in_features=100, out_features=2, bias=True)
      (4): LeakyReLU(negative_slope=0.01)
    )
    (linear_hur_ang): Sequential(
      (0): Linear(in_features=100, out_features=100, bias=True)
      (1): LeakyReLU(negative_slope=0.01)
      (2): Dropout(p=0.2, inplace=False)
      (3): Linear(in_features=100, out_features=2, bias=True)
      (4): LeakyReLU(negative_slope=0.01)
    )
    (linear_encoder): Sequential(
      (0): Linear(in_features=10, out_features=2, bias=True)
      (1): LeakyReLU(negative_slope=0.01)
    )
  )
  (quantizer_layer): QuantizerLayer()
  (decoder_layer): DecoderLayer(
    (linear_decoder): Sequential(
      (0): Linear(in_features=2, out_features=100, bias=True)
      (1): LeakyReLU(negative_slope=0.01)
    )
    (out_layer): Sequential(
      (0): Linear(in_features=100, out_features=100, bias=True)
    )
  )
)
Number of parameters: 61935
LinearQuantizer(
  (encoder_layer): Linear(in_features=100, out_features=2, bias=True)
  (quantizer_layer): QuantizerLayer()
  (decoder_layer): Linear(in_features=2, out_features=100, bias=True)
)
Number of parameters: 505
  0%|          | 0/500 [00:00<?, ?it/s]
 0.001 -> 0.001

Epoch: 0 	Training Loss: 0.0003330353 	Validation Loss: 0.0014386038
Validation loss same/decreased (inf --> 0.0014386038)... saving model.
  0%|          | 1/500 [00:06<56:14,  6.76s/it]
 0.001 -> 0.001

Epoch: 1 	Training Loss: 0.0003317492 	Validation Loss: 0.0014321221
…
 'batch_size': 512,
 'epoch_echo': True,
 'epoch_val': 100,
 'epochs': 500,
 'lr': 0.001,
 'mc_runs': 1000000,
 'momentum': 0.9,
 'overall_bits': 2,
 'snr_dB': -5,
 'train_test_split': 0.8,
 'train_val_split': 0.8}
Achievable Rate (bps/Hz) using RIS phase shifts with Transmit power SNR -5 dB:
optimum:  12.528217315673828
AQE net:  6.442647457122803
lin Q:    6.078545570373535
random:   5.524831771850586
-------------------------------------------------------------------------------------------------------


AutoQEncoder(
  (encoder_layer): EncoderLayer(
    (linear_theta): Sequential(
      (0): Linear(in_features=100, out_features=100, bias=True)
      (1): LeakyReLU(negative_slope=0.01)
      (2): Dropout(p=0.2, inplace=False)
      (3): Linear(in_features=100, out_features=4, bias=True)
      (4): LeakyReLU(negative_slope=0.01)
    )
    (linear_hra_mag): Sequential(
      (0): Linear(in_features=100, out_features=100, bias=True)
      (1): LeakyReLU(negative_slope=0.01)
      (2): Dropout(p=0.2, inplace=False)
      (3): Linear(in_features=100, out_features=4, bias=True)
      (4): LeakyReLU(negative_slope=0.01)
    )
    (linear_hra_ang): Sequential(
      (0): Linear(in_features=100, out_features=100, bias=True)
      (1): LeakyReLU(negative_slope=0.01)
      (2): Dropout(p=0.2, inplace=False)
      (3): Linear(in_features=100, out_features=4, bias=True)
      (4): LeakyReLU(negative_slope=0.01)
    )
    (linear_hur_mag): Sequential(
      (0): Linear(in_features=100, out_features=100, bias=True)
      (1): LeakyReLU(negative_slope=0.01)
      (2): Dropout(p=0.2, inplace=False)
      (3): Linear(in_features=100, out_features=4, bias=True)
      (4): LeakyReLU(negative_slope=0.01)
    )
    (linear_hur_ang): Sequential(
      (0): Linear(in_features=100, out_features=100, bias=True)
      (1): LeakyReLU(negative_slope=0.01)
      (2): Dropout(p=0.2, inplace=False)
      (3): Linear(in_features=100, out_features=4, bias=True)
      (4): LeakyReLU(negative_slope=0.01)
    )
    (linear_encoder): Sequential(
      (0): Linear(in_features=20, out_features=4, bias=True)
      (1): LeakyReLU(negative_slope=0.01)
    )
  )
  (quantizer_layer): QuantizerLayer()
  (decoder_layer): DecoderLayer(
    (linear_decoder): Sequential(
      (0): Linear(in_features=4, out_features=100, bias=True)
      (1): LeakyReLU(negative_slope=0.01)
    )
    (out_layer): Sequential(
      (0): Linear(in_features=100, out_features=100, bias=True)
    )
  )
)
Number of parameters: 63207
LinearQuantizer(
  (encoder_layer): Linear(in_features=100, out_features=4, bias=True)
  (quantizer_layer): QuantizerLayer()
  (decoder_layer): Linear(in_features=4, out_features=100, bias=True)
)
Number of parameters: 907
  0%|          | 0/500 [00:00<?, ?it/s]
 0.001 -> 0.001

Epoch: 0 	Training Loss: 0.0003276672 	Validation Loss: 0.0013731609
Validation loss same/decreased (inf --> 0.0013731609)... saving model.
  0%|          | 1/500 [00:06<56:31,  6.80s/it]
 0.001 -> 0.001

Epoch: 1 	Training Loss: 0.0003218160 	Validation Loss: 0.0013560151
…
 'batch_size': 512,
 'epoch_echo': True,
 'epoch_val': 100,
 'epochs': 500,
 'lr': 0.001,
 'mc_runs': 1000000,
 'momentum': 0.9,
 'overall_bits': 4,
 'snr_dB': -5,
 'train_test_split': 0.8,
 'train_val_split': 0.8}
Achievable Rate (bps/Hz) using RIS phase shifts with Transmit power SNR -5 dB:
optimum:  12.528217315673828
AQE net:  6.881126880645752
lin Q:    6.438978672027588
random:   5.517940521240234
-------------------------------------------------------------------------------------------------------


AutoQEncoder(
  (encoder_layer): EncoderLayer(
    (linear_theta): Sequential(
      (0): Linear(in_features=100, out_features=100, bias=True)
      (1): LeakyReLU(negative_slope=0.01)
      (2): Dropout(p=0.2, inplace=False)
      (3): Linear(in_features=100, out_features=8, bias=True)
      (4): LeakyReLU(negative_slope=0.01)
    )
    (linear_hra_mag): Sequential(
      (0): Linear(in_features=100, out_features=100, bias=True)
      (1): LeakyReLU(negative_slope=0.01)
      (2): Dropout(p=0.2, inplace=False)
      (3): Linear(in_features=100, out_features=8, bias=True)
      (4): LeakyReLU(negative_slope=0.01)
    )
    (linear_hra_ang): Sequential(
      (0): Linear(in_features=100, out_features=100, bias=True)
      (1): LeakyReLU(negative_slope=0.01)
      (2): Dropout(p=0.2, inplace=False)
      (3): Linear(in_features=100, out_features=8, bias=True)
      (4): LeakyReLU(negative_slope=0.01)
    )
    (linear_hur_mag): Sequential(
      (0): Linear(in_features=100, out_features=100, bias=True)
      (1): LeakyReLU(negative_slope=0.01)
      (2): Dropout(p=0.2, inplace=False)
      (3): Linear(in_features=100, out_features=8, bias=True)
      (4): LeakyReLU(negative_slope=0.01)
    )
    (linear_hur_ang): Sequential(
      (0): Linear(in_features=100, out_features=100, bias=True)
      (1): LeakyReLU(negative_slope=0.01)
      (2): Dropout(p=0.2, inplace=False)
      (3): Linear(in_features=100, out_features=8, bias=True)
      (4): LeakyReLU(negative_slope=0.01)
    )
    (linear_encoder): Sequential(
      (0): Linear(in_features=40, out_features=8, bias=True)
      (1): LeakyReLU(negative_slope=0.01)
    )
  )
  (quantizer_layer): QuantizerLayer()
  (decoder_layer): DecoderLayer(
    (linear_decoder): Sequential(
      (0): Linear(in_features=8, out_features=100, bias=True)
      (1): LeakyReLU(negative_slope=0.01)
    )
    (out_layer): Sequential(
      (0): Linear(in_features=100, out_features=100, bias=True)
    )
  )
)
Number of parameters: 65871
LinearQuantizer(
  (encoder_layer): Linear(in_features=100, out_features=8, bias=True)
  (quantizer_layer): QuantizerLayer()
  (decoder_layer): Linear(in_features=8, out_features=100, bias=True)
)
Number of parameters: 1711
  0%|          | 0/500 [00:00<?, ?it/s]
 0.001 -> 0.001

Epoch: 0 	Training Loss: 0.0003121545 	Validation Loss: 0.0013415767
Validation loss same/decreased (inf --> 0.0013415767)... saving model.
  0%|          | 1/500 [00:06<56:33,  6.80s/it]
 0.001 -> 0.001

Epoch: 1 	Training Loss: 0.0003058589 	Validation Loss: 0.0013068970
…
 'Q_bits': 1,
 'batch_size': 512,
 'epoch_echo': True,
 'epoch_val': 100,
 'epochs': 500,
 'lr': 0.001,
 'mc_runs': 1000000,
 'momentum': 0.9,
 'overall_bits': 8,
 'snr_dB': -5,
 'train_test_split': 0.8,
 'train_val_split': 0.8}
Achievable Rate (bps/Hz) using RIS phase shifts with Transmit power SNR -5 dB:
optimum:  12.528217315673828
AQE net:  7.709794044494629
lin Q:    6.951276779174805
random:   5.52740478515625
-------------------------------------------------------------------------------------------------------


AutoQEncoder(
  (encoder_layer): EncoderLayer(
    (linear_theta): Sequential(
      (0): Linear(in_features=100, out_features=100, bias=True)
      (1): LeakyReLU(negative_slope=0.01)
      (2): Dropout(p=0.2, inplace=False)
      (3): Linear(in_features=100, out_features=16, bias=True)
      (4): LeakyReLU(negative_slope=0.01)
    )
    (linear_hra_mag): Sequential(
      (0): Linear(in_features=100, out_features=100, bias=True)
      (1): LeakyReLU(negative_slope=0.01)
      (2): Dropout(p=0.2, inplace=False)
      (3): Linear(in_features=100, out_features=16, bias=True)
      (4): LeakyReLU(negative_slope=0.01)
    )
    (linear_hra_ang): Sequential(
      (0): Linear(in_features=100, out_features=100, bias=True)
      (1): LeakyReLU(negative_slope=0.01)
      (2): Dropout(p=0.2, inplace=False)
      (3): Linear(in_features=100, out_features=16, bias=True)
      (4): LeakyReLU(negative_slope=0.01)
    )
    (linear_hur_mag): Sequential(
      (0): Linear(in_features=100, out_features=100, bias=True)
      (1): LeakyReLU(negative_slope=0.01)
      (2): Dropout(p=0.2, inplace=False)
      (3): Linear(in_features=100, out_features=16, bias=True)
      (4): LeakyReLU(negative_slope=0.01)
    )
    (linear_hur_ang): Sequential(
      (0): Linear(in_features=100, out_features=100, bias=True)
      (1): LeakyReLU(negative_slope=0.01)
      (2): Dropout(p=0.2, inplace=False)
      (3): Linear(in_features=100, out_features=16, bias=True)
      (4): LeakyReLU(negative_slope=0.01)
    )
    (linear_encoder): Sequential(
      (0): Linear(in_features=80, out_features=16, bias=True)
      (1): LeakyReLU(negative_slope=0.01)
    )
  )
  (quantizer_layer): QuantizerLayer()
  (decoder_layer): DecoderLayer(
    (linear_decoder): Sequential(
      (0): Linear(in_features=16, out_features=100, bias=True)
      (1): LeakyReLU(negative_slope=0.01)
    )
    (out_layer): Sequential(
      (0): Linear(in_features=100, out_features=100, bias=True)
    )
  )
)
Number of parameters: 71679
LinearQuantizer(
  (encoder_layer): Linear(in_features=100, out_features=16, bias=True)
  (quantizer_layer): QuantizerLayer()
  (decoder_layer): Linear(in_features=16, out_features=100, bias=True)
)
Number of parameters: 3319
  0%|          | 0/500 [00:00<?, ?it/s]
 0.001 -> 0.001

Epoch: 0 	Training Loss: 0.0002849776 	Validation Loss: 0.0012193666
Validation loss same/decreased (inf --> 0.0012193666)... saving model.
  0%|          | 1/500 [00:06<55:47,  6.71s/it]
 0.001 -> 0.001

Epoch: 1 	Training Loss: 0.0002808309 	Validation Loss: 0.0011982311
…
 'batch_size': 512,
 'epoch_echo': True,
 'epoch_val': 100,
 'epochs': 500,
 'lr': 0.001,
 'mc_runs': 1000000,
 'momentum': 0.9,
 'overall_bits': 16,
 'snr_dB': -5,
 'train_test_split': 0.8,
 'train_val_split': 0.8}
Achievable Rate (bps/Hz) using RIS phase shifts with Transmit power SNR -5 dB:
optimum:  12.528217315673828
AQE net:  8.72683334350586
lin Q:    7.744010925292969
random:   5.520458698272705
-------------------------------------------------------------------------------------------------------


AutoQEncoder(
  (encoder_layer): EncoderLayer(
    (linear_theta): Sequential(
      (0): Linear(in_features=100, out_features=100, bias=True)
      (1): LeakyReLU(negative_slope=0.01)
      (2): Dropout(p=0.2, inplace=False)
      (3): Linear(in_features=100, out_features=32, bias=True)
      (4): LeakyReLU(negative_slope=0.01)
    )
    (linear_hra_mag): Sequential(
      (0): Linear(in_features=100, out_features=100, bias=True)
      (1): LeakyReLU(negative_slope=0.01)
      (2): Dropout(p=0.2, inplace=False)
      (3): Linear(in_features=100, out_features=32, bias=True)
      (4): LeakyReLU(negative_slope=0.01)
    )
    (linear_hra_ang): Sequential(
      (0): Linear(in_features=100, out_features=100, bias=True)
      (1): LeakyReLU(negative_slope=0.01)
      (2): Dropout(p=0.2, inplace=False)
      (3): Linear(in_features=100, out_features=32, bias=True)
      (4): LeakyReLU(negative_slope=0.01)
    )
    (linear_hur_mag): Sequential(
      (0): Linear(in_features=100, out_features=100, bias=True)
      (1): LeakyReLU(negative_slope=0.01)
      (2): Dropout(p=0.2, inplace=False)
      (3): Linear(in_features=100, out_features=32, bias=True)
      (4): LeakyReLU(negative_slope=0.01)
    )
    (linear_hur_ang): Sequential(
      (0): Linear(in_features=100, out_features=100, bias=True)
      (1): LeakyReLU(negative_slope=0.01)
      (2): Dropout(p=0.2, inplace=False)
      (3): Linear(in_features=100, out_features=32, bias=True)
      (4): LeakyReLU(negative_slope=0.01)
    )
    (linear_encoder): Sequential(
      (0): Linear(in_features=160, out_features=32, bias=True)
      (1): LeakyReLU(negative_slope=0.01)
    )
  )
  (quantizer_layer): QuantizerLayer()
  (decoder_layer): DecoderLayer(
    (linear_decoder): Sequential(
      (0): Linear(in_features=32, out_features=100, bias=True)
      (1): LeakyReLU(negative_slope=0.01)
    )
    (out_layer): Sequential(
      (0): Linear(in_features=100, out_features=100, bias=True)
    )
  )
)
Number of parameters: 85215
LinearQuantizer(
  (encoder_layer): Linear(in_features=100, out_features=32, bias=True)
  (quantizer_layer): QuantizerLayer()
  (decoder_layer): Linear(in_features=32, out_features=100, bias=True)
)
Number of parameters: 6535
  0%|          | 0/500 [00:00<?, ?it/s]
 0.001 -> 0.001

Epoch: 0 	Training Loss: 0.0002687835 	Validation Loss: 0.0011135642
Validation loss same/decreased (inf --> 0.0011135642)... saving model.
  0%|          | 1/500 [00:06<51:37,  6.21s/it]
 0.001 -> 0.001

Epoch: 1 	Training Loss: 0.0002610404 	Validation Loss: 0.0010774777
…
 'batch_size': 512,
 'epoch_echo': True,
 'epoch_val': 100,
 'epochs': 500,
 'lr': 0.001,
 'mc_runs': 1000000,
 'momentum': 0.9,
 'overall_bits': 32,
 'snr_dB': -5,
 'train_test_split': 0.8,
 'train_val_split': 0.8}
Achievable Rate (bps/Hz) using RIS phase shifts with Transmit power SNR -5 dB:
optimum:  12.528217315673828
AQE net:  9.612030982971191
lin Q:    8.57098388671875
random:   5.528288841247559
-------------------------------------------------------------------------------------------------------


AutoQEncoder(
  (encoder_layer): EncoderLayer(
    (linear_theta): Sequential(
      (0): Linear(in_features=100, out_features=100, bias=True)
      (1): LeakyReLU(negative_slope=0.01)
      (2): Dropout(p=0.2, inplace=False)
      (3): Linear(in_features=100, out_features=64, bias=True)
      (4): LeakyReLU(negative_slope=0.01)
    )
    (linear_hra_mag): Sequential(
      (0): Linear(in_features=100, out_features=100, bias=True)
      (1): LeakyReLU(negative_slope=0.01)
      (2): Dropout(p=0.2, inplace=False)
      (3): Linear(in_features=100, out_features=64, bias=True)
      (4): LeakyReLU(negative_slope=0.01)
    )
    (linear_hra_ang): Sequential(
      (0): Linear(in_features=100, out_features=100, bias=True)
      (1): LeakyReLU(negative_slope=0.01)
      (2): Dropout(p=0.2, inplace=False)
      (3): Linear(in_features=100, out_features=64, bias=True)
      (4): LeakyReLU(negative_slope=0.01)
    )
    (linear_hur_mag): Sequential(
      (0): Linear(in_features=100, out_features=100, bias=True)
      (1): LeakyReLU(negative_slope=0.01)
      (2): Dropout(p=0.2, inplace=False)
      (3): Linear(in_features=100, out_features=64, bias=True)
      (4): LeakyReLU(negative_slope=0.01)
    )
    (linear_hur_ang): Sequential(
      (0): Linear(in_features=100, out_features=100, bias=True)
      (1): LeakyReLU(negative_slope=0.01)
      (2): Dropout(p=0.2, inplace=False)
      (3): Linear(in_features=100, out_features=64, bias=True)
      (4): LeakyReLU(negative_slope=0.01)
    )
    (linear_encoder): Sequential(
      (0): Linear(in_features=320, out_features=64, bias=True)
      (1): LeakyReLU(negative_slope=0.01)
    )
  )
  (quantizer_layer): QuantizerLayer()
  (decoder_layer): DecoderLayer(
    (linear_decoder): Sequential(
      (0): Linear(in_features=64, out_features=100, bias=True)
      (1): LeakyReLU(negative_slope=0.01)
    )
    (out_layer): Sequential(
      (0): Linear(in_features=100, out_features=100, bias=True)
    )
  )
)
Number of parameters: 119967
LinearQuantizer(
  (encoder_layer): Linear(in_features=100, out_features=64, bias=True)
  (quantizer_layer): QuantizerLayer()
  (decoder_layer): Linear(in_features=64, out_features=100, bias=True)
)
Number of parameters: 12967
  0%|          | 0/500 [00:00<?, ?it/s]
 0.001 -> 0.001

Epoch: 0 	Training Loss: 0.0002485887 	Validation Loss: 0.0010057142
Validation loss same/decreased (inf --> 0.0010057142)... saving model.
  0%|          | 1/500 [00:06<51:43,  6.22s/it]
 0.001 -> 0.001

Epoch: 1 	Training Loss: 0.0002356672 	Validation Loss: 0.0009387554
…
 'batch_size': 512,
 'epoch_echo': True,
 'epoch_val': 100,
 'epochs': 500,
 'lr': 0.001,
 'mc_runs': 1000000,
 'momentum': 0.9,
 'overall_bits': 64,
 'snr_dB': -5,
 'train_test_split': 0.8,
 'train_val_split': 0.8}
Achievable Rate (bps/Hz) using RIS phase shifts with Transmit power SNR -5 dB:
optimum:  12.528217315673828
AQE net:  9.80031967163086
lin Q:    10.074638366699219
random:   5.527024745941162
-------------------------------------------------------------------------------------------------------


AutoQEncoder(
  (encoder_layer): EncoderLayer(
    (linear_theta): Sequential(
      (0): Linear(in_features=100, out_features=100, bias=True)
      (1): LeakyReLU(negative_slope=0.01)
      (2): Dropout(p=0.2, inplace=False)
      (3): Linear(in_features=100, out_features=128, bias=True)
      (4): LeakyReLU(negative_slope=0.01)
    )
    (linear_hra_mag): Sequential(
      (0): Linear(in_features=100, out_features=100, bias=True)
      (1): LeakyReLU(negative_slope=0.01)
      (2): Dropout(p=0.2, inplace=False)
      (3): Linear(in_features=100, out_features=128, bias=True)
      (4): LeakyReLU(negative_slope=0.01)
    )
    (linear_hra_ang): Sequential(
      (0): Linear(in_features=100, out_features=100, bias=True)
      (1): LeakyReLU(negative_slope=0.01)
      (2): Dropout(p=0.2, inplace=False)
      (3): Linear(in_features=100, out_features=128, bias=True)
      (4): LeakyReLU(negative_slope=0.01)
    )
    (linear_hur_mag): Sequential(
      (0): Linear(in_features=100, out_features=100, bias=True)
      (1): LeakyReLU(negative_slope=0.01)
      (2): Dropout(p=0.2, inplace=False)
      (3): Linear(in_features=100, out_features=128, bias=True)
      (4): LeakyReLU(negative_slope=0.01)
    )
    (linear_hur_ang): Sequential(
      (0): Linear(in_features=100, out_features=100, bias=True)
      (1): LeakyReLU(negative_slope=0.01)
      (2): Dropout(p=0.2, inplace=False)
      (3): Linear(in_features=100, out_features=128, bias=True)
      (4): LeakyReLU(negative_slope=0.01)
    )
    (linear_encoder): Sequential(
      (0): Linear(in_features=640, out_features=128, bias=True)
      (1): LeakyReLU(negative_slope=0.01)
    )
  )
  (quantizer_layer): QuantizerLayer()
  (decoder_layer): DecoderLayer(
    (linear_decoder): Sequential(
      (0): Linear(in_features=128, out_features=100, bias=True)
      (1): LeakyReLU(negative_slope=0.01)
    )
    (out_layer): Sequential(
      (0): Linear(in_features=100, out_features=100, bias=True)
    )
  )
)
Number of parameters: 220191
LinearQuantizer(
  (encoder_layer): Linear(in_features=100, out_features=128, bias=True)
  (quantizer_layer): QuantizerLayer()
  (decoder_layer): Linear(in_features=128, out_features=100, bias=True)
)
Number of parameters: 25831
  0%|          | 0/500 [00:00<?, ?it/s]
 0.001 -> 0.001

Epoch: 0 	Training Loss: 0.0002339670 	Validation Loss: 0.0009308856
Validation loss same/decreased (inf --> 0.0009308856)... saving model.
  0%|          | 1/500 [00:06<52:04,  6.26s/it]
 0.001 -> 0.001

Epoch: 1 	Training Loss: 0.0002216764 	Validation Loss: 0.0008641725
…
