…
5/100000 [00:11<00:00, 9977.49it/s]  94%|█████████▍| 94066/100000 [00:11<00:00, 9963.90it/s] 95%|█████████▌| 95065/100000 [00:11<00:00, 9275.06it/s] 96%|█████████▌| 96081/100000 [00:11<00:00, 9523.68it/s] 97%|█████████▋| 97096/100000 [00:11<00:00, 9702.49it/s] 98%|█████████▊| 98074/100000 [00:12<00:00, 4030.61it/s] 99%|█████████▉| 99086/100000 [00:12<00:00, 4927.24it/s]100%|██████████| 100000/100000 [00:12<00:00, 8121.88it/s]
------------
Train & Test
------------
AQE Number of parameters: 16539458
AutoQEncoder(
  (encoder_layer): EncoderLayer(
    (linear_encoder): Sequential(
      (0): Linear(in_features=1548, out_features=3968, bias=True)
      (1): ReLU()
      (2): Dropout(p=0.5, inplace=False)
      (3): BatchNorm1d(3968, eps=1e-05, momentum=0.1, affine=True, track_running_stats=True)
      (4): Linear(in_features=3968, out_features=1984, bias=True)
      (5): ReLU()
      (6): Dropout(p=0.5, inplace=False)
      (7): BatchNorm1d(1984, eps=1e-05, momentum=0.1, affine=True, track_running_stats=True)
      (8): Linear(in_features=1984, out_features=992, bias=True)
      (9): ReLU()
      (10): Dropout(p=0.5, inplace=False)
      (11): BatchNorm1d(992, eps=1e-05, momentum=0.1, affine=True, track_running_stats=True)
      (12): Linear(in_features=992, out_features=496, bias=True)
      (13): ReLU()
      (14): Dropout(p=0.5, inplace=False)
      (15): BatchNorm1d(496, eps=1e-05, momentum=0.1, affine=True, track_running_stats=True)
      (16): Linear(in_features=496, out_features=10, bias=True)
    )
  )
  (quantizer_layer): QuantizerLayer()
  (decoder_layer): DecoderLayer(
    (linear_decoder): Sequential(
      (0): Linear(in_features=10, out_features=100, bias=True)
      (1): ReLU()
      (2): Linear(in_features=100, out_features=100, bias=True)
      (3): ReLU()
    )
    (out_layer): Sequential(
      (0): Linear(in_features=100, out_features=100, bias=True)
    )
  )
  (w_update_layer): WupdateLayer(
    (linear_W): Sequential(
      (0): Linear(in_features=48, out_features=48, bias=True)
      (1): ReLU()
      (2): Dropout(p=0.5, inplace=False)
      (3): Linear(in_features=48, out_features=48, bias=True)
      (4): ReLU()
      (5): Dropout(p=0.5, inplace=False)
      (6): Linear(in_features=48, out_features=48, bias=True)
      (7): ReLU()
      (8): Dropout(p=0.5, inplace=False)
      (9): Linear(in_features=48, out_features=24, bias=True)
    )
    (linear_UL): Sequential(
      (0): Linear(in_features=48, out_features=48, bias=True)
      (1): ReLU()
      (2): Dropout(p=0.5, inplace=False)
      (3): Linear(in_features=48, out_features=48, bias=True)
      (4): ReLU()
      (5): Dropout(p=0.5, inplace=False)
      (6): Linear(in_features=48, out_features=48, bias=True)
      (7): ReLU()
      (8): Dropout(p=0.5, inplace=False)
      (9): Linear(in_features=48, out_features=9, bias=True)
    )
  )
)
AQEnoW Number of parameters: 16523729
AutoQEncoderNoWupdate(
  (encoder_layer): EncoderLayer(
    (linear_encoder): Sequential(
      (0): Linear(in_features=1548, out_features=3968, bias=True)
      (1): ReLU()
      (2): Dropout(p=0.5, inplace=False)
      (3): BatchNorm1d(3968, eps=1e-05, momentum=0.1, affine=True, track_running_stats=True)
      (4): Linear(in_features=3968, out_features=1984, bias=True)
      (5): ReLU()
      (6): Dropout(p=0.5, inplace=False)
      (7): BatchNorm1d(1984, eps=1e-05, momentum=0.1, affine=True, track_running_stats=True)
      (8): Linear(in_features=1984, out_features=992, bias=True)
      (9): ReLU()
      (10): Dropout(p=0.5, inplace=False)
      (11): BatchNorm1d(992, eps=1e-05, momentum=0.1, affine=True, track_running_stats=True)
      (12): Linear(in_features=992, out_features=496, bias=True)
      (13): ReLU()
      (14): Dropout(p=0.5, inplace=False)
      (15): BatchNorm1d(496, eps=1e-05, momentum=0.1, affine=True, track_running_stats=True)
      (16): Linear(in_features=496, out_features=10, bias=True)
    )
  )
  (quantizer_layer): QuantizerLayer()
  (decoder_layer): DecoderLayer(
    (linear_decoder): Sequential(
      (0): Linear(in_features=10, out_features=100, bias=True)
      (1): ReLU()
      (2): Linear(in_features=100, out_features=100, bias=True)
      (3): ReLU()
    )
    (out_layer): Sequential(
      (0): Linear(in_features=100, out_features=100, bias=True)
    )
  )
)
ACF Number of parameters: 16175065
ACFNet(
  (mapping_network): DNN(
    (linear_encoder): Sequential(
      (0): Linear(in_features=1424, out_features=3968, bias=True)
      (1): ReLU()
      (2): Dropout(p=0.5, inplace=False)
      (3): BatchNorm1d(3968, eps=1e-05, momentum=0.1, affine=True, track_running_stats=True)
      (4): Linear(in_features=3968, out_features=1984, bias=True)
      (5): ReLU()
      (6): Dropout(p=0.5, inplace=False)
      (7): BatchNorm1d(1984, eps=1e-05, momentum=0.1, affine=True, track_running_stats=True)
      (8): Linear(in_features=1984, out_features=992, bias=True)
      (9): ReLU()
      (10): Dropout(p=0.5, inplace=False)
      (11): BatchNorm1d(992, eps=1e-05, momentum=0.1, affine=True, track_running_stats=True)
      (12): Linear(in_features=992, out_features=496, bias=True)
      (13): ReLU()
      (14): Dropout(p=0.5, inplace=False)
      (15): BatchNorm1d(496, eps=1e-05, momentum=0.1, affine=True, track_running_stats=True)
      (16): Linear(in_features=496, out_features=124, bias=True)
    )
  )
  (compression_network): ACFNetCompressionNetwork(
    (convolution_layer): Sequential(
      (0): Conv2d(1, 3, kernel_size=(2, 2), stride=(1, 1))
      (1): ReLU()
    )
    (dense_layer): Sequential(
      (0): Linear(in_features=297, out_features=10, bias=True)
    )
  )
  (quantizer_layer): QuantizerLayer()
  (decoder_network): ACFNetDecoderNetwork(
    (dense_layer1): Sequential(
      (0): Linear(in_features=10, out_features=200, bias=True)
    )
    (convolution_layer): Sequential(
      (0): Conv2d(1, 3, kernel_size=(2, 2), stride=(1, 1))
      (1): ReLU()
    )
    (dense_layer2): Sequential(
      (0): Linear(in_features=513, out_features=200, bias=True)
    )
  )
)
linQ Number of parameters: 2713
LinearQuantizer(
  (precoder_layer): Linear(in_features=24, out_features=24, bias=True)
  (encoder_layer): Linear(in_features=100, out_features=10, bias=True)
  (quantizer_layer): QuantizerLayer()
  (decoder_layer): Linear(in_features=10, out_features=100, bias=True)
)
  0%|          | 0/1000 [00:00<?, ?it/s]0.001 -> 0.001
Epoch: 0 	Training Loss: -0.0095201351 	Validation Loss: -0.0375695596 	Best Validation Loss: inf
### Validation loss same/decreased (inf --> -0.0375695596)... saving model. ###
  0%|          | 1/1000 [00:14<3:54:58, 14.11s/it]0.001 -> 0.001
Epoch: 1 	Training Loss: -0.0103984044 	Validation Loss: -0.0394113343 	Best Validation Loss: -0.0375695596
…
Achievable Rate (bps/Hz) using RIS phase shifts with Transmit power SNR 55.60 dB:
optimum:    10.597851753234863
AQE net:    4.932764530181885
AQEnoW net:    3.222501516342163
ACF net:    4.026427745819092
linQ net:   3.054070234298706
opt rand:   1.9130202531814575
AQE rand:   1.7740919589996338
AQEnoW rand:   1.9098023176193237
ACF rand:   2.0472729206085205
linQ rand:  1.9733909368515015
-------------------------------------------------------------------------------------------------------


AQE Number of parameters: 16545428
AutoQEncoder(
  (encoder_layer): EncoderLayer(
    (linear_encoder): Sequential(
      (0): Linear(in_features=1548, out_features=3968, bias=True)
      (1): ReLU()
      (2): Dropout(p=0.5, inplace=False)
      (3): BatchNorm1d(3968, eps=1e-05, momentum=0.1, affine=True, track_running_stats=True)
      (4): Linear(in_features=3968, out_features=1984, bias=True)
      (5): ReLU()
      (6): Dropout(p=0.5, inplace=False)
      (7): BatchNorm1d(1984, eps=1e-05, momentum=0.1, affine=True, track_running_stats=True)
      (8): Linear(in_features=1984, out_features=992, bias=True)
      (9): ReLU()
      (10): Dropout(p=0.5, inplace=False)
      (11): BatchNorm1d(992, eps=1e-05, momentum=0.1, affine=True, track_running_stats=True)
      (12): Linear(in_features=992, out_features=496, bias=True)
      (13): ReLU()
      (14): Dropout(p=0.5, inplace=False)
      (15): BatchNorm1d(496, eps=1e-05, momentum=0.1, affine=True, track_running_stats=True)
      (16): Linear(in_features=496, out_features=20, bias=True)
    )
  )
  (quantizer_layer): QuantizerLayer()
  (decoder_layer): DecoderLayer(
    (linear_decoder): Sequential(
      (0): Linear(in_features=20, out_features=100, bias=True)
      (1): ReLU()
      (2): Linear(in_features=100, out_features=100, bias=True)
      (3): ReLU()
    )
    (out_layer): Sequential(
      (0): Linear(in_features=100, out_features=100, bias=True)
    )
  )
  (w_update_layer): WupdateLayer(
    (linear_W): Sequential(
      (0): Linear(in_features=48, out_features=48, bias=True)
      (1): ReLU()
      (2): Dropout(p=0.5, inplace=False)
      (3): Linear(in_features=48, out_features=48, bias=True)
      (4): ReLU()
      (5): Dropout(p=0.5, inplace=False)
      (6): Linear(in_features=48, out_features=48, bias=True)
      (7): ReLU()
      (8): Dropout(p=0.5, inplace=False)
      (9): Linear(in_features=48, out_features=24, bias=True)
    )
    (linear_UL): Sequential(
      (0): Linear(in_features=48, out_features=48, bias=True)
      (1): ReLU()
      (2): Dropout(p=0.5, inplace=False)
      (3): Linear(in_features=48, out_features=48, bias=True)
      (4): ReLU()
      (5): Dropout(p=0.5, inplace=False)
      (6): Linear(in_features=48, out_features=48, bias=True)
      (7): ReLU()
      (8): Dropout(p=0.5, inplace=False)
      (9): Linear(in_features=48, out_features=9, bias=True)
    )
  )
)
AQEnoW Number of parameters: 16529699
AutoQEncoderNoWupdate(
  (encoder_layer): EncoderLayer(
    (linear_encoder): Sequential(
      (0): Linear(in_features=1548, out_features=3968, bias=True)
      (1): ReLU()
      (2): Dropout(p=0.5, inplace=False)
      (3): BatchNorm1d(3968, eps=1e-05, momentum=0.1, affine=True, track_running_stats=True)
      (4): Linear(in_features=3968, out_features=1984, bias=True)
      (5): ReLU()
      (6): Dropout(p=0.5, inplace=False)
      (7): BatchNorm1d(1984, eps=1e-05, momentum=0.1, affine=True, track_running_stats=True)
      (8): Linear(in_features=1984, out_features=992, bias=True)
      (9): ReLU()
      (10): Dropout(p=0.5, inplace=False)
      (11): BatchNorm1d(992, eps=1e-05, momentum=0.1, affine=True, track_running_stats=True)
      (12): Linear(in_features=992, out_features=496, bias=True)
      (13): ReLU()
      (14): Dropout(p=0.5, inplace=False)
      (15): BatchNorm1d(496, eps=1e-05, momentum=0.1, affine=True, track_running_stats=True)
      (16): Linear(in_features=496, out_features=20, bias=True)
    )
  )
  (quantizer_layer): QuantizerLayer()
  (decoder_layer): DecoderLayer(
    (linear_decoder): Sequential(
      (0): Linear(in_features=20, out_features=100, bias=True)
      (1): ReLU()
      (2): Linear(in_features=100, out_features=100, bias=True)
      (3): ReLU()
    )
    (out_layer): Sequential(
      (0): Linear(in_features=100, out_features=100, bias=True)
    )
  )
)
ACF Number of parameters: 16180045
ACFNet(
  (mapping_network): DNN(
    (linear_encoder): Sequential(
      (0): Linear(in_features=1424, out_features=3968, bias=True)
      (1): ReLU()
      (2): Dropout(p=0.5, inplace=False)
      (3): BatchNorm1d(3968, eps=1e-05, momentum=0.1, affine=True, track_running_stats=True)
      (4): Linear(in_features=3968, out_features=1984, bias=True)
      (5): ReLU()
      (6): Dropout(p=0.5, inplace=False)
      (7): BatchNorm1d(1984, eps=1e-05, momentum=0.1, affine=True, track_running_stats=True)
      (8): Linear(in_features=1984, out_features=992, bias=True)
      (9): ReLU()
      (10): Dropout(p=0.5, inplace=False)
      (11): BatchNorm1d(992, eps=1e-05, momentum=0.1, affine=True, track_running_stats=True)
      (12): Linear(in_features=992, out_features=496, bias=True)
      (13): ReLU()
      (14): Dropout(p=0.5, inplace=False)
      (15): BatchNorm1d(496, eps=1e-05, momentum=0.1, affine=True, track_running_stats=True)
      (16): Linear(in_features=496, out_features=124, bias=True)
    )
  )
  (compression_network): ACFNetCompressionNetwork(
    (convolution_layer): Sequential(
      (0): Conv2d(1, 3, kernel_size=(2, 2), stride=(1, 1))
      (1): ReLU()
    )
    (dense_layer): Sequential(
      (0): Linear(in_features=297, out_features=20, bias=True)
    )
  )
  (quantizer_layer): QuantizerLayer()
  (decoder_network): ACFNetDecoderNetwork(
    (dense_layer1): Sequential(
      (0): Linear(in_features=20, out_features=200, bias=True)
    )
    (convolution_layer): Sequential(
      (0): Conv2d(1, 3, kernel_size=(2, 2), stride=(1, 1))
      (1): ReLU()
    )
    (dense_layer2): Sequential(
      (0): Linear(in_features=513, out_features=200, bias=True)
    )
  )
)
linQ Number of parameters: 4723
LinearQuantizer(
  (precoder_layer): Linear(in_features=24, out_features=24, bias=True)
  (encoder_layer): Linear(in_features=100, out_features=20, bias=True)
  (quantizer_layer): QuantizerLayer()
  (decoder_layer): Linear(in_features=20, out_features=100, bias=True)
)
  0%|          | 0/1000 [00:00<?, ?it/s]0.001 -> 0.001
Epoch: 0 	Training Loss: -0.0097646026 	Validation Loss: -0.0393479203 	Best Validation Loss: inf
### Validation loss same/decreased (inf --> -0.0393479203)... saving model. ###
  0%|          | 1/1000 [00:13<3:50:16, 13.83s/it]0.001 -> 0.001
Epoch: 1 	Training Loss: -0.0109716152 	Validation Loss: -0.0431611689 	Best Validation Loss: -0.0393479203
…
Achievable Rate (bps/Hz) using RIS phase shifts with Transmit power SNR 55.60 dB:
optimum:    10.597851753234863
AQE net:    5.876415252685547
AQEnoW net:    4.554448127746582
ACF net:    4.451207637786865
linQ net:   3.3864428997039795
opt rand:   1.9111689329147339
AQE rand:   1.8946549892425537
AQEnoW rand:   1.9138811826705933
ACF rand:   2.0364701747894287
linQ rand:  1.9578224420547485
-------------------------------------------------------------------------------------------------------


AQE Number of parameters: 16551398
AutoQEncoder(
  (encoder_layer): EncoderLayer(
    (linear_encoder): Sequential(
      (0): Linear(in_features=1548, out_features=3968, bias=True)
      (1): ReLU()
      (2): Dropout(p=0.5, inplace=False)
      (3): BatchNorm1d(3968, eps=1e-05, momentum=0.1, affine=True, track_running_stats=True)
      (4): Linear(in_features=3968, out_features=1984, bias=True)
      (5): ReLU()
      (6): Dropout(p=0.5, inplace=False)
      (7): BatchNorm1d(1984, eps=1e-05, momentum=0.1, affine=True, track_running_stats=True)
      (8): Linear(in_features=1984, out_features=992, bias=True)
      (9): ReLU()
      (10): Dropout(p=0.5, inplace=False)
      (11): BatchNorm1d(992, eps=1e-05, momentum=0.1, affine=True, track_running_stats=True)
      (12): Linear(in_features=992, out_features=496, bias=True)
      (13): ReLU()
      (14): Dropout(p=0.5, inplace=False)
      (15): BatchNorm1d(496, eps=1e-05, momentum=0.1, affine=True, track_running_stats=True)
      (16): Linear(in_features=496, out_features=30, bias=True)
    )
  )
  (quantizer_layer): QuantizerLayer()
  (decoder_layer): DecoderLayer(
    (linear_decoder): Sequential(
      (0): Linear(in_features=30, out_features=100, bias=True)
      (1): ReLU()
      (2): Linear(in_features=100, out_features=100, bias=True)
      (3): ReLU()
    )
    (out_layer): Sequential(
      (0): Linear(in_features=100, out_features=100, bias=True)
    )
  )
  (w_update_layer): WupdateLayer(
    (linear_W): Sequential(
      (0): Linear(in_features=48, out_features=48, bias=True)
      (1): ReLU()
      (2): Dropout(p=0.5, inplace=False)
      (3): Linear(in_features=48, out_features=48, bias=True)
      (4): ReLU()
      (5): Dropout(p=0.5, inplace=False)
      (6): Linear(in_features=48, out_features=48, bias=True)
      (7): ReLU()
      (8): Dropout(p=0.5, inplace=False)
      (9): Linear(in_features=48, out_features=24, bias=True)
    )
    (linear_UL): Sequential(
      (0): Linear(in_features=48, out_features=48, bias=True)
      (1): ReLU()
      (2): Dropout(p=0.5, inplace=False)
      (3): Linear(in_features=48, out_features=48, bias=True)
      (4): ReLU()
      (5): Dropout(p=0.5, inplace=False)
      (6): Linear(in_features=48, out_features=48, bias=True)
      (7): ReLU()
      (8): Dropout(p=0.5, inplace=False)
      (9): Linear(in_features=48, out_features=9, bias=True)
    )
  )
)
AQEnoW Number of parameters: 16535669
AutoQEncoderNoWupdate(
  (encoder_layer): EncoderLayer(
    (linear_encoder): Sequential(
      (0): Linear(in_features=1548, out_features=3968, bias=True)
      (1): ReLU()
      (2): Dropout(p=0.5, inplace=False)
      (3): BatchNorm1d(3968, eps=1e-05, momentum=0.1, affine=True, track_running_stats=True)
      (4): Linear(in_features=3968, out_features=1984, bias=True)
      (5): ReLU()
      (6): Dropout(p=0.5, inplace=False)
      (7): BatchNorm1d(1984, eps=1e-05, momentum=0.1, affine=True, track_running_stats=True)
      (8): Linear(in_features=1984, out_features=992, bias=True)
      (9): ReLU()
      (10): Dropout(p=0.5, inplace=False)
      (11): BatchNorm1d(992, eps=1e-05, momentum=0.1, affine=True, track_running_stats=True)
      (12): Linear(in_features=992, out_features=496, bias=True)
      (13): ReLU()
      (14): Dropout(p=0.5, inplace=False)
      (15): BatchNorm1d(496, eps=1e-05, momentum=0.1, affine=True, track_running_stats=True)
      (16): Linear(in_features=496, out_features=30, bias=True)
    )
  )
  (quantizer_layer): QuantizerLayer()
  (decoder_layer): DecoderLayer(
    (linear_decoder): Sequential(
      (0): Linear(in_features=30, out_features=100, bias=True)
      (1): ReLU()
      (2): Linear(in_features=100, out_features=100, bias=True)
      (3): ReLU()
    )
    (out_layer): Sequential(
      (0): Linear(in_features=100, out_features=100, bias=True)
    )
  )
)
ACF Number of parameters: 16185025
ACFNet(
  (mapping_network): DNN(
    (linear_encoder): Sequential(
      (0): Linear(in_features=1424, out_features=3968, bias=True)
      (1): ReLU()
      (2): Dropout(p=0.5, inplace=False)
      (3): BatchNorm1d(3968, eps=1e-05, momentum=0.1, affine=True, track_running_stats=True)
      (4): Linear(in_features=3968, out_features=1984, bias=True)
      (5): ReLU()
      (6): Dropout(p=0.5, inplace=False)
      (7): BatchNorm1d(1984, eps=1e-05, momentum=0.1, affine=True, track_running_stats=True)
      (8): Linear(in_features=1984, out_features=992, bias=True)
      (9): ReLU()
      (10): Dropout(p=0.5, inplace=False)
      (11): BatchNorm1d(992, eps=1e-05, momentum=0.1, affine=True, track_running_stats=True)
      (12): Linear(in_features=992, out_features=496, bias=True)
      (13): ReLU()
      (14): Dropout(p=0.5, inplace=False)
      (15): BatchNorm1d(496, eps=1e-05, momentum=0.1, affine=True, track_running_stats=True)
      (16): Linear(in_features=496, out_features=124, bias=True)
    )
  )
  (compression_network): ACFNetCompressionNetwork(
    (convolution_layer): Sequential(
      (0): Conv2d(1, 3, kernel_size=(2, 2), stride=(1, 1))
      (1): ReLU()
    )
    (dense_layer): Sequential(
      (0): Linear(in_features=297, out_features=30, bias=True)
    )
  )
  (quantizer_layer): QuantizerLayer()
  (decoder_network): ACFNetDecoderNetwork(
    (dense_layer1): Sequential(
      (0): Linear(in_features=30, out_features=200, bias=True)
    )
    (convolution_layer): Sequential(
      (0): Conv2d(1, 3, kernel_size=(2, 2), stride=(1, 1))
      (1): ReLU()
    )
    (dense_layer2): Sequential(
      (0): Linear(in_features=513, out_features=200, bias=True)
    )
  )
)
linQ Number of parameters: 6733
LinearQuantizer(
  (precoder_layer): Linear(in_features=24, out_features=24, bias=True)
  (encoder_layer): Linear(in_features=100, out_features=30, bias=True)
  (quantizer_layer): QuantizerLayer()
  (decoder_layer): Linear(in_features=30, out_features=100, bias=True)
)
  0%|          | 0/1000 [00:00<?, ?it/s]0.001 -> 0.001
Epoch: 0 	Training Loss: -0.0097180211 	Validation Loss: -0.0398195282 	Best Validation Loss: inf
### Validation loss same/decreased (inf --> -0.0398195282)... saving model. ###
  0%|          | 1/1000 [00:13<3:50:40, 13.85s/it]0.001 -> 0.001
Epoch: 1 	Training Loss: -0.0106970176 	Validation Loss: -0.0430951768 	Best Validation Loss: -0.0398195282
…
Achievable Rate (bps/Hz) using RIS phase shifts with Transmit power SNR 55.60 dB:
optimum:    10.597851753234863
AQE net:    6.394338130950928
AQEnoW net:    5.095751762390137
ACF net:    4.518368244171143
linQ net:   3.5015769004821777
opt rand:   1.9103491306304932
AQE rand:   1.903272032737732
AQEnoW rand:   1.916463017463684
ACF rand:   2.02463698387146
linQ rand:  1.9398874044418335
-------------------------------------------------------------------------------------------------------


AQE Number of parameters: 16557368
AutoQEncoder(
  (encoder_layer): EncoderLayer(
    (linear_encoder): Sequential(
      (0): Linear(in_features=1548, out_features=3968, bias=True)
      (1): ReLU()
      (2): Dropout(p=0.5, inplace=False)
      (3): BatchNorm1d(3968, eps=1e-05, momentum=0.1, affine=True, track_running_stats=True)
      (4): Linear(in_features=3968, out_features=1984, bias=True)
      (5): ReLU()
      (6): Dropout(p=0.5, inplace=False)
      (7): BatchNorm1d(1984, eps=1e-05, momentum=0.1, affine=True, track_running_stats=True)
      (8): Linear(in_features=1984, out_features=992, bias=True)
      (9): ReLU()
      (10): Dropout(p=0.5, inplace=False)
      (11): BatchNorm1d(992, eps=1e-05, momentum=0.1, affine=True, track_running_stats=True)
      (12): Linear(in_features=992, out_features=496, bias=True)
      (13): ReLU()
      (14): Dropout(p=0.5, inplace=False)
      (15): BatchNorm1d(496, eps=1e-05, momentum=0.1, affine=True, track_running_stats=True)
      (16): Linear(in_features=496, out_features=40, bias=True)
    )
  )
  (quantizer_layer): QuantizerLayer()
  (decoder_layer): DecoderLayer(
    (linear_decoder): Sequential(
      (0): Linear(in_features=40, out_features=100, bias=True)
      (1): ReLU()
      (2): Linear(in_features=100, out_features=100, bias=True)
      (3): ReLU()
    )
    (out_layer): Sequential(
      (0): Linear(in_features=100, out_features=100, bias=True)
    )
  )
  (w_update_layer): WupdateLayer(
    (linear_W): Sequential(
      (0): Linear(in_features=48, out_features=48, bias=True)
      (1): ReLU()
      (2): Dropout(p=0.5, inplace=False)
      (3): Linear(in_features=48, out_features=48, bias=True)
      (4): ReLU()
      (5): Dropout(p=0.5, inplace=False)
      (6): Linear(in_features=48, out_features=48, bias=True)
      (7): ReLU()
      (8): Dropout(p=0.5, inplace=False)
      (9): Linear(in_features=48, out_features=24, bias=True)
    )
    (linear_UL): Sequential(
      (0): Linear(in_features=48, out_features=48, bias=True)
      (1): ReLU()
      (2): Dropout(p=0.5, inplace=False)
      (3): Linear(in_features=48, out_features=48, bias=True)
      (4): ReLU()
      (5): Dropout(p=0.5, inplace=False)
      (6): Linear(in_features=48, out_features=48, bias=True)
      (7): ReLU()
      (8): Dropout(p=0.5, inplace=False)
      (9): Linear(in_features=48, out_features=9, bias=True)
    )
  )
)
AQEnoW Number of parameters: 16541639
AutoQEncoderNoWupdate(
  (encoder_layer): EncoderLayer(
    (linear_encoder): Sequential(
      (0): Linear(in_features=1548, out_features=3968, bias=True)
      (1): ReLU()
      (2): Dropout(p=0.5, inplace=False)
      (3): BatchNorm1d(3968, eps=1e-05, momentum=0.1, affine=True, track_running_stats=True)
      (4): Linear(in_features=3968, out_features=1984, bias=True)
      (5): ReLU()
      (6): Dropout(p=0.5, inplace=False)
      (7): BatchNorm1d(1984, eps=1e-05, momentum=0.1, affine=True, track_running_stats=True)
      (8): Linear(in_features=1984, out_features=992, bias=True)
      (9): ReLU()
      (10): Dropout(p=0.5, inplace=False)
      (11): BatchNorm1d(992, eps=1e-05, momentum=0.1, affine=True, track_running_stats=True)
      (12): Linear(in_features=992, out_features=496, bias=True)
      (13): ReLU()
      (14): Dropout(p=0.5, inplace=False)
      (15): BatchNorm1d(496, eps=1e-05, momentum=0.1, affine=True, track_running_stats=True)
      (16): Linear(in_features=496, out_features=40, bias=True)
    )
  )
  (quantizer_layer): QuantizerLayer()
  (decoder_layer): DecoderLayer(
    (linear_decoder): Sequential(
      (0): Linear(in_features=40, out_features=100, bias=True)
      (1): ReLU()
      (2): Linear(in_features=100, out_features=100, bias=True)
      (3): ReLU()
    )
    (out_layer): Sequential(
      (0): Linear(in_features=100, out_features=100, bias=True)
    )
  )
)
ACF Number of parameters: 16190005
ACFNet(
  (mapping_network): DNN(
    (linear_encoder): Sequential(
      (0): Linear(in_features=1424, out_features=3968, bias=True)
      (1): ReLU()
      (2): Dropout(p=0.5, inplace=False)
      (3): BatchNorm1d(3968, eps=1e-05, momentum=0.1, affine=True, track_running_stats=True)
      (4): Linear(in_features=3968, out_features=1984, bias=True)
      (5): ReLU()
      (6): Dropout(p=0.5, inplace=False)
      (7): BatchNorm1d(1984, eps=1e-05, momentum=0.1, affine=True, track_running_stats=True)
      (8): Linear(in_features=1984, out_features=992, bias=True)
      (9): ReLU()
      (10): Dropout(p=0.5, inplace=False)
      (11): BatchNorm1d(992, eps=1e-05, momentum=0.1, affine=True, track_running_stats=True)
      (12): Linear(in_features=992, out_features=496, bias=True)
      (13): ReLU()
      (14): Dropout(p=0.5, inplace=False)
      (15): BatchNorm1d(496, eps=1e-05, momentum=0.1, affine=True, track_running_stats=True)
      (16): Linear(in_features=496, out_features=124, bias=True)
    )
  )
  (compression_network): ACFNetCompressionNetwork(
    (convolution_layer): Sequential(
      (0): Conv2d(1, 3, kernel_size=(2, 2), stride=(1, 1))
      (1): ReLU()
    )
    (dense_layer): Sequential(
      (0): Linear(in_features=297, out_features=40, bias=True)
    )
  )
  (quantizer_layer): QuantizerLayer()
  (decoder_network): ACFNetDecoderNetwork(
    (dense_layer1): Sequential(
      (0): Linear(in_features=40, out_features=200, bias=True)
    )
    (convolution_layer): Sequential(
      (0): Conv2d(1, 3, kernel_size=(2, 2), stride=(1, 1))
      (1): ReLU()
    )
    (dense_layer2): Sequential(
      (0): Linear(in_features=513, out_features=200, bias=True)
    )
  )
)
linQ Number of parameters: 8743
LinearQuantizer(
  (precoder_layer): Linear(in_features=24, out_features=24, bias=True)
  (encoder_layer): Linear(in_features=100, out_features=40, bias=True)
  (quantizer_layer): QuantizerLayer()
  (decoder_layer): Linear(in_features=40, out_features=100, bias=True)
)
  0%|          | 0/1000 [00:00<?, ?it/s]0.001 -> 0.001
Epoch: 0 	Training Loss: -0.0098795615 	Validation Loss: -0.0391304961 	Best Validation Loss: inf
### Validation loss same/decreased (inf --> -0.0391304961)... saving model. ###
  0%|          | 1/1000 [00:13<3:49:27, 13.78s/it]0.001 -> 0.001
Epoch: 1 	Training Loss: -0.0107516094 	Validation Loss: -0.0427508530 	Best Validation Loss: -0.0391304961
…
Achievable Rate (bps/Hz) using RIS phase shifts with Transmit power SNR 55.60 dB:
optimum:    10.597851753234863
AQE net:    6.891921043395996
AQEnoW net:    5.815224647521973
ACF net:    4.6890645027160645
linQ net:   4.0277419090271
opt rand:   1.9159085750579834
AQE rand:   1.8975695371627808
AQEnoW rand:   1.9039288759231567
ACF rand:   2.0181119441986084
linQ rand:  1.8677000999450684
-------------------------------------------------------------------------------------------------------


AQE Number of parameters: 16563338
AutoQEncoder(
  (encoder_layer): EncoderLayer(
    (linear_encoder): Sequential(
      (0): Linear(in_features=1548, out_features=3968, bias=True)
      (1): ReLU()
      (2): Dropout(p=0.5, inplace=False)
      (3): BatchNorm1d(3968, eps=1e-05, momentum=0.1, affine=True, track_running_stats=True)
      (4): Linear(in_features=3968, out_features=1984, bias=True)
      (5): ReLU()
      (6): Dropout(p=0.5, inplace=False)
      (7): BatchNorm1d(1984, eps=1e-05, momentum=0.1, affine=True, track_running_stats=True)
      (8): Linear(in_features=1984, out_features=992, bias=True)
      (9): ReLU()
      (10): Dropout(p=0.5, inplace=False)
      (11): BatchNorm1d(992, eps=1e-05, momentum=0.1, affine=True, track_running_stats=True)
      (12): Linear(in_features=992, out_features=496, bias=True)
      (13): ReLU()
      (14): Dropout(p=0.5, inplace=False)
      (15): BatchNorm1d(496, eps=1e-05, momentum=0.1, affine=True, track_running_stats=True)
      (16): Linear(in_features=496, out_features=50, bias=True)
    )
  )
  (quantizer_layer): QuantizerLayer()
  (decoder_layer): DecoderLayer(
    (linear_decoder): Sequential(
      (0): Linear(in_features=50, out_features=100, bias=True)
      (1): ReLU()
      (2): Linear(in_features=100, out_features=100, bias=True)
      (3): ReLU()
    )
    (out_layer): Sequential(
      (0): Linear(in_features=100, out_features=100, bias=True)
    )
  )
  (w_update_layer): WupdateLayer(
    (linear_W): Sequential(
      (0): Linear(in_features=48, out_features=48, bias=True)
      (1): ReLU()
      (2): Dropout(p=0.5, inplace=False)
      (3): Linear(in_features=48, out_features=48, bias=True)
      (4): ReLU()
      (5): Dropout(p=0.5, inplace=False)
      (6): Linear(in_features=48, out_features=48, bias=True)
      (7): ReLU()
      (8): Dropout(p=0.5, inplace=False)
      (9): Linear(in_features=48, out_features=24, bias=True)
    )
    (linear_UL): Sequential(
      (0): Linear(in_features=48, out_features=48, bias=True)
      (1): ReLU()
      (2): Dropout(p=0.5, inplace=False)
      (3): Linear(in_features=48, out_features=48, bias=True)
      (4): ReLU()
      (5): Dropout(p=0.5, inplace=False)
      (6): Linear(in_features=48, out_features=48, bias=True)
      (7): ReLU()
      (8): Dropout(p=0.5, inplace=False)
      (9): Linear(in_features=48, out_features=9, bias=True)
    )
  )
)
AQEnoW Number of parameters: 16547609
AutoQEncoderNoWupdate(
  (encoder_layer): EncoderLayer(
    (linear_encoder): Sequential(
      (0): Linear(in_features=1548, out_features=3968, bias=True)
      (1): ReLU()
      (2): Dropout(p=0.5, inplace=False)
      (3): BatchNorm1d(3968, eps=1e-05, momentum=0.1, affine=True, track_running_stats=True)
      (4): Linear(in_features=3968, out_features=1984, bias=True)
      (5): ReLU()
      (6): Dropout(p=0.5, inplace=False)
      (7): BatchNorm1d(1984, eps=1e-05, momentum=0.1, affine=True, track_running_stats=True)
      (8): Linear(in_features=1984, out_features=992, bias=True)
      (9): ReLU()
      (10): Dropout(p=0.5, inplace=False)
      (11): BatchNorm1d(992, eps=1e-05, momentum=0.1, affine=True, track_running_stats=True)
      (12): Linear(in_features=992, out_features=496, bias=True)
      (13): ReLU()
      (14): Dropout(p=0.5, inplace=False)
      (15): BatchNorm1d(496, eps=1e-05, momentum=0.1, affine=True, track_running_stats=True)
      (16): Linear(in_features=496, out_features=50, bias=True)
    )
  )
  (quantizer_layer): QuantizerLayer()
  (decoder_layer): DecoderLayer(
    (linear_decoder): Sequential(
      (0): Linear(in_features=50, out_features=100, bias=True)
      (1): ReLU()
      (2): Linear(in_features=100, out_features=100, bias=True)
      (3): ReLU()
    )
    (out_layer): Sequential(
      (0): Linear(in_features=100, out_features=100, bias=True)
    )
  )
)
ACF Number of parameters: 16194985
ACFNet(
  (mapping_network): DNN(
    (linear_encoder): Sequential(
      (0): Linear(in_features=1424, out_features=3968, bias=True)
      (1): ReLU()
      (2): Dropout(p=0.5, inplace=False)
      (3): BatchNorm1d(3968, eps=1e-05, momentum=0.1, affine=True, track_running_stats=True)
      (4): Linear(in_features=3968, out_features=1984, bias=True)
      (5): ReLU()
      (6): Dropout(p=0.5, inplace=False)
      (7): BatchNorm1d(1984, eps=1e-05, momentum=0.1, affine=True, track_running_stats=True)
      (8): Linear(in_features=1984, out_features=992, bias=True)
      (9): ReLU()
      (10): Dropout(p=0.5, inplace=False)
      (11): BatchNorm1d(992, eps=1e-05, momentum=0.1, affine=True, track_running_stats=True)
      (12): Linear(in_features=992, out_features=496, bias=True)
      (13): ReLU()
      (14): Dropout(p=0.5, inplace=False)
      (15): BatchNorm1d(496, eps=1e-05, momentum=0.1, affine=True, track_running_stats=True)
      (16): Linear(in_features=496, out_features=124, bias=True)
    )
  )
  (compression_network): ACFNetCompressionNetwork(
    (convolution_layer): Sequential(
      (0): Conv2d(1, 3, kernel_size=(2, 2), stride=(1, 1))
      (1): ReLU()
    )
    (dense_layer): Sequential(
      (0): Linear(in_features=297, out_features=50, bias=True)
    )
  )
  (quantizer_layer): QuantizerLayer()
  (decoder_network): ACFNetDecoderNetwork(
    (dense_layer1): Sequential(
      (0): Linear(in_features=50, out_features=200, bias=True)
    )
    (convolution_layer): Sequential(
      (0): Conv2d(1, 3, kernel_size=(2, 2), stride=(1, 1))
      (1): ReLU()
    )
    (dense_layer2): Sequential(
      (0): Linear(in_features=513, out_features=200, bias=True)
    )
  )
)
linQ Number of parameters: 10753
LinearQuantizer(
  (precoder_layer): Linear(in_features=24, out_features=24, bias=True)
  (encoder_layer): Linear(in_features=100, out_features=50, bias=True)
  (quantizer_layer): QuantizerLayer()
  (decoder_layer): Linear(in_features=50, out_features=100, bias=True)
)
  0%|          | 0/1000 [00:00<?, ?it/s]0.001 -> 0.001
Epoch: 0 	Training Loss: -0.0097340291 	Validation Loss: -0.0405063321 	Best Validation Loss: inf
### Validation loss same/decreased (inf --> -0.0405063321)... saving model. ###
  0%|          | 1/1000 [00:13<3:50:23, 13.84s/it]0.001 -> 0.001
Epoch: 1 	Training Loss: -0.0109140298 	Validation Loss: -0.0441378201 	Best Validation Loss: -0.0405063321
…
Achievable Rate (bps/Hz) using RIS phase shifts with Transmit power SNR 55.60 dB:
optimum:    10.597851753234863
AQE net:    7.1413702964782715
AQEnoW net:    6.079814910888672
ACF net:    4.679786205291748
linQ net:   4.333322048187256
opt rand:   1.912739634513855
AQE rand:   1.917697548866272
AQEnoW rand:   1.9150559902191162
ACF rand:   2.0172455310821533
linQ rand:  1.9328926801681519
-------------------------------------------------------------------------------------------------------


AQE Number of parameters: 16569308
AutoQEncoder(
  (encoder_layer): EncoderLayer(
    (linear_encoder): Sequential(
      (0): Linear(in_features=1548, out_features=3968, bias=True)
      (1): ReLU()
      (2): Dropout(p=0.5, inplace=False)
      (3): BatchNorm1d(3968, eps=1e-05, momentum=0.1, affine=True, track_running_stats=True)
      (4): Linear(in_features=3968, out_features=1984, bias=True)
      (5): ReLU()
      (6): Dropout(p=0.5, inplace=False)
      (7): BatchNorm1d(1984, eps=1e-05, momentum=0.1, affine=True, track_running_stats=True)
      (8): Linear(in_features=1984, out_features=992, bias=True)
      (9): ReLU()
      (10): Dropout(p=0.5, inplace=False)
      (11): BatchNorm1d(992, eps=1e-05, momentum=0.1, affine=True, track_running_stats=True)
      (12): Linear(in_features=992, out_features=496, bias=True)
      (13): ReLU()
      (14): Dropout(p=0.5, inplace=False)
      (15): BatchNorm1d(496, eps=1e-05, momentum=0.1, affine=True, track_running_stats=True)
      (16): Linear(in_features=496, out_features=60, bias=True)
    )
  )
  (quantizer_layer): QuantizerLayer()
  (decoder_layer): DecoderLayer(
    (linear_decoder): Sequential(
      (0): Linear(in_features=60, out_features=100, bias=True)
      (1): ReLU()
      (2): Linear(in_features=100, out_features=100, bias=True)
      (3): ReLU()
    )
    (out_layer): Sequential(
      (0): Linear(in_features=100, out_features=100, bias=True)
    )
  )
  (w_update_layer): WupdateLayer(
    (linear_W): Sequential(
      (0): Linear(in_features=48, out_features=48, bias=True)
      (1): ReLU()
      (2): Dropout(p=0.5, inplace=False)
      (3): Linear(in_features=48, out_features=48, bias=True)
      (4): ReLU()
      (5): Dropout(p=0.5, inplace=False)
      (6): Linear(in_features=48, out_features=48, bias=True)
      (7): ReLU()
      (8): Dropout(p=0.5, inplace=False)
      (9): Linear(in_features=48, out_features=24, bias=True)
    )
    (linear_UL): Sequential(
      (0): Linear(in_features=48, out_features=48, bias=True)
      (1): ReLU()
      (2): Dropout(p=0.5, inplace=False)
      (3): Linear(in_features=48, out_features=48, bias=True)
      (4): ReLU()
      (5): Dropout(p=0.5, inplace=False)
      (6): Linear(in_features=48, out_features=48, bias=True)
      (7): ReLU()
      (8): Dropout(p=0.5, inplace=False)
      (9): Linear(in_features=48, out_features=9, bias=True)
    )
  )
)
AQEnoW Number of parameters: 16553579
AutoQEncoderNoWupdate(
  (encoder_layer): EncoderLayer(
    (linear_encoder): Sequential(
      (0): Linear(in_features=1548, out_features=3968, bias=True)
      (1): ReLU()
      (2): Dropout(p=0.5, inplace=False)
      (3): BatchNorm1d(3968, eps=1e-05, momentum=0.1, affine=True, track_running_stats=True)
      (4): Linear(in_features=3968, out_features=1984, bias=True)
      (5): ReLU()
      (6): Dropout(p=0.5, inplace=False)
      (7): BatchNorm1d(1984, eps=1e-05, momentum=0.1, affine=True, track_running_stats=True)
      (8): Linear(in_features=1984, out_features=992, bias=True)
      (9): ReLU()
      (10): Dropout(p=0.5, inplace=False)
      (11): BatchNorm1d(992, eps=1e-05, momentum=0.1, affine=True, track_running_stats=True)
      (12): Linear(in_features=992, out_features=496, bias=True)
      (13): ReLU()
      (14): Dropout(p=0.5, inplace=False)
      (15): BatchNorm1d(496, eps=1e-05, momentum=0.1, affine=True, track_running_stats=True)
      (16): Linear(in_features=496, out_features=60, bias=True)
    )
  )
  (quantizer_layer): QuantizerLayer()
  (decoder_layer): DecoderLayer(
    (linear_decoder): Sequential(
      (0): Linear(in_features=60, out_features=100, bias=True)
      (1): ReLU()
      (2): Linear(in_features=100, out_features=100, bias=True)
      (3): ReLU()
    )
    (out_layer): Sequential(
      (0): Linear(in_features=100, out_features=100, bias=True)
    )
  )
)
ACF Number of parameters: 16199965
ACFNet(
  (mapping_network): DNN(
    (linear_encoder): Sequential(
      (0): Linear(in_features=1424, out_features=3968, bias=True)
      (1): ReLU()
      (2): Dropout(p=0.5, inplace=False)
      (3): BatchNorm1d(3968, eps=1e-05, momentum=0.1, affine=True, track_running_stats=True)
      (4): Linear(in_features=3968, out_features=1984, bias=True)
      (5): ReLU()
      (6): Dropout(p=0.5, inplace=False)
      (7): BatchNorm1d(1984, eps=1e-05, momentum=0.1, affine=True, track_running_stats=True)
      (8): Linear(in_features=1984, out_features=992, bias=True)
      (9): ReLU()
      (10): Dropout(p=0.5, inplace=False)
      (11): BatchNorm1d(992, eps=1e-05, momentum=0.1, affine=True, track_running_stats=True)
      (12): Linear(in_features=992, out_features=496, bias=True)
      (13): ReLU()
      (14): Dropout(p=0.5, inplace=False)
      (15): BatchNorm1d(496, eps=1e-05, momentum=0.1, affine=True, track_running_stats=True)
      (16): Linear(in_features=496, out_features=124, bias=True)
    )
  )
  (compression_network): ACFNetCompressionNetwork(
    (convolution_layer): Sequential(
      (0): Conv2d(1, 3, kernel_size=(2, 2), stride=(1, 1))
      (1): ReLU()
    )
    (dense_layer): Sequential(
      (0): Linear(in_features=297, out_features=60, bias=True)
    )
  )
  (quantizer_layer): QuantizerLayer()
  (decoder_network): ACFNetDecoderNetwork(
    (dense_layer1): Sequential(
      (0): Linear(in_features=60, out_features=200, bias=True)
    )
    (convolution_layer): Sequential(
      (0): Conv2d(1, 3, kernel_size=(2, 2), stride=(1, 1))
      (1): ReLU()
    )
    (dense_layer2): Sequential(
      (0): Linear(in_features=513, out_features=200, bias=True)
    )
  )
)
linQ Number of parameters: 12763
LinearQuantizer(
  (precoder_layer): Linear(in_features=24, out_features=24, bias=True)
  (encoder_layer): Linear(in_features=100, out_features=60, bias=True)
  (quantizer_layer): QuantizerLayer()
  (decoder_layer): Linear(in_features=60, out_features=100, bias=True)
)
  0%|          | 0/1000 [00:00<?, ?it/s]0.001 -> 0.001
Epoch: 0 	Training Loss: -0.0099913251 	Validation Loss: -0.0411152585 	Best Validation Loss: inf
### Validation loss same/decreased (inf --> -0.0411152585)... saving model. ###
  0%|          | 1/1000 [00:13<3:47:09, 13.64s/it]0.001 -> 0.001
Epoch: 1 	Training Loss: -0.0109519226 	Validation Loss: -0.0446517760 	Best Validation Loss: -0.0411152585
…
Achievable Rate (bps/Hz) using RIS phase shifts with Transmit power SNR 55.60 dB:
optimum:    10.597851753234863
AQE net:    7.375406265258789
AQEnoW net:    6.295559406280518
ACF net:    5.439182758331299
linQ net:   4.092044830322266
opt rand:   1.9097108840942383
AQE rand:   1.9252667427062988
AQEnoW rand:   1.9153529405593872
ACF rand:   2.038001298904419
linQ rand:  1.876128911972046
-------------------------------------------------------------------------------------------------------


AQE Number of parameters: 16575278
AutoQEncoder(
  (encoder_layer): EncoderLayer(
    (linear_encoder): Sequential(
      (0): Linear(in_features=1548, out_features=3968, bias=True)
      (1): ReLU()
      (2): Dropout(p=0.5, inplace=False)
      (3): BatchNorm1d(3968, eps=1e-05, momentum=0.1, affine=True, track_running_stats=True)
      (4): Linear(in_features=3968, out_features=1984, bias=True)
      (5): ReLU()
      (6): Dropout(p=0.5, inplace=False)
      (7): BatchNorm1d(1984, eps=1e-05, momentum=0.1, affine=True, track_running_stats=True)
      (8): Linear(in_features=1984, out_features=992, bias=True)
      (9): ReLU()
      (10): Dropout(p=0.5, inplace=False)
      (11): BatchNorm1d(992, eps=1e-05, momentum=0.1, affine=True, track_running_stats=True)
      (12): Linear(in_features=992, out_features=496, bias=True)
      (13): ReLU()
      (14): Dropout(p=0.5, inplace=False)
      (15): BatchNorm1d(496, eps=1e-05, momentum=0.1, affine=True, track_running_stats=True)
      (16): Linear(in_features=496, out_features=70, bias=True)
    )
  )
  (quantizer_layer): QuantizerLayer()
  (decoder_layer): DecoderLayer(
    (linear_decoder): Sequential(
      (0): Linear(in_features=70, out_features=100, bias=True)
      (1): ReLU()
      (2): Linear(in_features=100, out_features=100, bias=True)
      (3): ReLU()
    )
    (out_layer): Sequential(
      (0): Linear(in_features=100, out_features=100, bias=True)
    )
  )
  (w_update_layer): WupdateLayer(
    (linear_W): Sequential(
      (0): Linear(in_features=48, out_features=48, bias=True)
      (1): ReLU()
      (2): Dropout(p=0.5, inplace=False)
      (3): Linear(in_features=48, out_features=48, bias=True)
      (4): ReLU()
      (5): Dropout(p=0.5, inplace=False)
      (6): Linear(in_features=48, out_features=48, bias=True)
      (7): ReLU()
      (8): Dropout(p=0.5, inplace=False)
      (9): Linear(in_features=48, out_features=24, bias=True)
    )
    (linear_UL): Sequential(
      (0): Linear(in_features=48, out_features=48, bias=True)
      (1): ReLU()
      (2): Dropout(p=0.5, inplace=False)
      (3): Linear(in_features=48, out_features=48, bias=True)
      (4): ReLU()
      (5): Dropout(p=0.5, inplace=False)
      (6): Linear(in_features=48, out_features=48, bias=True)
      (7): ReLU()
      (8): Dropout(p=0.5, inplace=False)
      (9): Linear(in_features=48, out_features=9, bias=True)
    )
  )
)
AQEnoW Number of parameters: 16559549
AutoQEncoderNoWupdate(
  (encoder_layer): EncoderLayer(
    (linear_encoder): Sequential(
      (0): Linear(in_features=1548, out_features=3968, bias=True)
      (1): ReLU()
      (2): Dropout(p=0.5, inplace=False)
      (3): BatchNorm1d(3968, eps=1e-05, momentum=0.1, affine=True, track_running_stats=True)
      (4): Linear(in_features=3968, out_features=1984, bias=True)
      (5): ReLU()
      (6): Dropout(p=0.5, inplace=False)
      (7): BatchNorm1d(1984, eps=1e-05, momentum=0.1, affine=True, track_running_stats=True)
      (8): Linear(in_features=1984, out_features=992, bias=True)
      (9): ReLU()
      (10): Dropout(p=0.5, inplace=False)
      (11): BatchNorm1d(992, eps=1e-05, momentum=0.1, affine=True, track_running_stats=True)
      (12): Linear(in_features=992, out_features=496, bias=True)
      (13): ReLU()
      (14): Dropout(p=0.5, inplace=False)
      (15): BatchNorm1d(496, eps=1e-05, momentum=0.1, affine=True, track_running_stats=True)
      (16): Linear(in_features=496, out_features=70, bias=True)
    )
  )
  (quantizer_layer): QuantizerLayer()
  (decoder_layer): DecoderLayer(
    (linear_decoder): Sequential(
      (0): Linear(in_features=70, out_features=100, bias=True)
      (1): ReLU()
      (2): Linear(in_features=100, out_features=100, bias=True)
      (3): ReLU()
    )
    (out_layer): Sequential(
      (0): Linear(in_features=100, out_features=100, bias=True)
    )
  )
)
ACF Number of parameters: 16204945
ACFNet(
  (mapping_network): DNN(
    (linear_encoder): Sequential(
      (0): Linear(in_features=1424, out_features=3968, bias=True)
      (1): ReLU()
      (2): Dropout(p=0.5, inplace=False)
      (3): BatchNorm1d(3968, eps=1e-05, momentum=0.1, affine=True, track_running_stats=True)
      (4): Linear(in_features=3968, out_features=1984, bias=True)
      (5): ReLU()
      (6): Dropout(p=0.5, inplace=False)
      (7): BatchNorm1d(1984, eps=1e-05, momentum=0.1, affine=True, track_running_stats=True)
      (8): Linear(in_features=1984, out_features=992, bias=True)
      (9): ReLU()
      (10): Dropout(p=0.5, inplace=False)
      (11): BatchNorm1d(992, eps=1e-05, momentum=0.1, affine=True, track_running_stats=True)
      (12): Linear(in_features=992, out_features=496, bias=True)
      (13): ReLU()
      (14): Dropout(p=0.5, inplace=False)
      (15): BatchNorm1d(496, eps=1e-05, momentum=0.1, affine=True, track_running_stats=True)
      (16): Linear(in_features=496, out_features=124, bias=True)
    )
  )
  (compression_network): ACFNetCompressionNetwork(
    (convolution_layer): Sequential(
      (0): Conv2d(1, 3, kernel_size=(2, 2), stride=(1, 1))
      (1): ReLU()
    )
    (dense_layer): Sequential(
      (0): Linear(in_features=297, out_features=70, bias=True)
    )
  )
  (quantizer_layer): QuantizerLayer()
  (decoder_network): ACFNetDecoderNetwork(
    (dense_layer1): Sequential(
      (0): Linear(in_features=70, out_features=200, bias=True)
    )
    (convolution_layer): Sequential(
      (0): Conv2d(1, 3, kernel_size=(2, 2), stride=(1, 1))
      (1): ReLU()
    )
    (dense_layer2): Sequential(
      (0): Linear(in_features=513, out_features=200, bias=True)
    )
  )
)
linQ Number of parameters: 14773
LinearQuantizer(
  (precoder_layer): Linear(in_features=24, out_features=24, bias=True)
  (encoder_layer): Linear(in_features=100, out_features=70, bias=True)
  (quantizer_layer): QuantizerLayer()
  (decoder_layer): Linear(in_features=70, out_features=100, bias=True)
)
  0%|          | 0/1000 [00:00<?, ?it/s]0.001 -> 0.001
Epoch: 0 	Training Loss: -0.0098775375 	Validation Loss: -0.0404840780 	Best Validation Loss: inf
### Validation loss same/decreased (inf --> -0.0404840780)... saving model. ###
  0%|          | 1/1000 [00:13<3:45:42, 13.56s/it]0.001 -> 0.001
Epoch: 1 	Training Loss: -0.0109780161 	Validation Loss: -0.0444773560 	Best Validation Loss: -0.0404840780
…
Achievable Rate (bps/Hz) using RIS phase shifts with Transmit power SNR 55.60 dB:
optimum:    10.597851753234863
AQE net:    7.502445697784424
AQEnoW net:    6.379247665405273
ACF net:    5.094442367553711
linQ net:   4.795999050140381
opt rand:   1.9066263437271118
AQE rand:   1.9543910026550293
AQEnoW rand:   1.910952091217041
ACF rand:   2.0400469303131104
linQ rand:  1.915557622909546
-------------------------------------------------------------------------------------------------------


AQE Number of parameters: 16581248
AutoQEncoder(
  (encoder_layer): EncoderLayer(
    (linear_encoder): Sequential(
      (0): Linear(in_features=1548, out_features=3968, bias=True)
      (1): ReLU()
      (2): Dropout(p=0.5, inplace=False)
      (3): BatchNorm1d(3968, eps=1e-05, momentum=0.1, affine=True, track_running_stats=True)
      (4): Linear(in_features=3968, out_features=1984, bias=True)
      (5): ReLU()
      (6): Dropout(p=0.5, inplace=False)
      (7): BatchNorm1d(1984, eps=1e-05, momentum=0.1, affine=True, track_running_stats=True)
      (8): Linear(in_features=1984, out_features=992, bias=True)
      (9): ReLU()
      (10): Dropout(p=0.5, inplace=False)
      (11): BatchNorm1d(992, eps=1e-05, momentum=0.1, affine=True, track_running_stats=True)
      (12): Linear(in_features=992, out_features=496, bias=True)
      (13): ReLU()
      (14): Dropout(p=0.5, inplace=False)
      (15): BatchNorm1d(496, eps=1e-05, momentum=0.1, affine=True, track_running_stats=True)
      (16): Linear(in_features=496, out_features=80, bias=True)
    )
  )
  (quantizer_layer): QuantizerLayer()
  (decoder_layer): DecoderLayer(
    (linear_decoder): Sequential(
      (0): Linear(in_features=80, out_features=100, bias=True)
      (1): ReLU()
      (2): Linear(in_features=100, out_features=100, bias=True)
      (3): ReLU()
    )
    (out_layer): Sequential(
      (0): Linear(in_features=100, out_features=100, bias=True)
    )
  )
  (w_update_layer): WupdateLayer(
    (linear_W): Sequential(
      (0): Linear(in_features=48, out_features=48, bias=True)
      (1): ReLU()
      (2): Dropout(p=0.5, inplace=False)
      (3): Linear(in_features=48, out_features=48, bias=True)
      (4): ReLU()
      (5): Dropout(p=0.5, inplace=False)
      (6): Linear(in_features=48, out_features=48, bias=True)
      (7): ReLU()
      (8): Dropout(p=0.5, inplace=False)
      (9): Linear(in_features=48, out_features=24, bias=True)
    )
    (linear_UL): Sequential(
      (0): Linear(in_features=48, out_features=48, bias=True)
      (1): ReLU()
      (2): Dropout(p=0.5, inplace=False)
      (3): Linear(in_features=48, out_features=48, bias=True)
      (4): ReLU()
      (5): Dropout(p=0.5, inplace=False)
      (6): Linear(in_features=48, out_features=48, bias=True)
      (7): ReLU()
      (8): Dropout(p=0.5, inplace=False)
      (9): Linear(in_features=48, out_features=9, bias=True)
    )
  )
)
AQEnoW Number of parameters: 16565519
AutoQEncoderNoWupdate(
  (encoder_layer): EncoderLayer(
    (linear_encoder): Sequential(
      (0): Linear(in_features=1548, out_features=3968, bias=True)
      (1): ReLU()
      (2): Dropout(p=0.5, inplace=False)
      (3): BatchNorm1d(3968, eps=1e-05, momentum=0.1, affine=True, track_running_stats=True)
      (4): Linear(in_features=3968, out_features=1984, bias=True)
      (5): ReLU()
      (6): Dropout(p=0.5, inplace=False)
      (7): BatchNorm1d(1984, eps=1e-05, momentum=0.1, affine=True, track_running_stats=True)
      (8): Linear(in_features=1984, out_features=992, bias=True)
      (9): ReLU()
      (10): Dropout(p=0.5, inplace=False)
      (11): BatchNorm1d(992, eps=1e-05, momentum=0.1, affine=True, track_running_stats=True)
      (12): Linear(in_features=992, out_features=496, bias=True)
      (13): ReLU()
      (14): Dropout(p=0.5, inplace=False)
      (15): BatchNorm1d(496, eps=1e-05, momentum=0.1, affine=True, track_running_stats=True)
      (16): Linear(in_features=496, out_features=80, bias=True)
    )
  )
  (quantizer_layer): QuantizerLayer()
  (decoder_layer): DecoderLayer(
    (linear_decoder): Sequential(
      (0): Linear(in_features=80, out_features=100, bias=True)
      (1): ReLU()
      (2): Linear(in_features=100, out_features=100, bias=True)
      (3): ReLU()
    )
    (out_layer): Sequential(
      (0): Linear(in_features=100, out_features=100, bias=True)
    )
  )
)
ACF Number of parameters: 16209925
ACFNet(
  (mapping_network): DNN(
    (linear_encoder): Sequential(
      (0): Linear(in_features=1424, out_features=3968, bias=True)
      (1): ReLU()
      (2): Dropout(p=0.5, inplace=False)
      (3): BatchNorm1d(3968, eps=1e-05, momentum=0.1, affine=True, track_running_stats=True)
      (4): Linear(in_features=3968, out_features=1984, bias=True)
      (5): ReLU()
      (6): Dropout(p=0.5, inplace=False)
      (7): BatchNorm1d(1984, eps=1e-05, momentum=0.1, affine=True, track_running_stats=True)
      (8): Linear(in_features=1984, out_features=992, bias=True)
      (9): ReLU()
      (10): Dropout(p=0.5, inplace=False)
      (11): BatchNorm1d(992, eps=1e-05, momentum=0.1, affine=True, track_running_stats=True)
      (12): Linear(in_features=992, out_features=496, bias=True)
      (13): ReLU()
      (14): Dropout(p=0.5, inplace=False)
      (15): BatchNorm1d(496, eps=1e-05, momentum=0.1, affine=True, track_running_stats=True)
      (16): Linear(in_features=496, out_features=124, bias=True)
    )
  )
  (compression_network): ACFNetCompressionNetwork(
    (convolution_layer): Sequential(
      (0): Conv2d(1, 3, kernel_size=(2, 2), stride=(1, 1))
      (1): ReLU()
    )
    (dense_layer): Sequential(
      (0): Linear(in_features=297, out_features=80, bias=True)
    )
  )
  (quantizer_layer): QuantizerLayer()
  (decoder_network): ACFNetDecoderNetwork(
    (dense_layer1): Sequential(
      (0): Linear(in_features=80, out_features=200, bias=True)
    )
    (convolution_layer): Sequential(
      (0): Conv2d(1, 3, kernel_size=(2, 2), stride=(1, 1))
      (1): ReLU()
    )
    (dense_layer2): Sequential(
      (0): Linear(in_features=513, out_features=200, bias=True)
    )
  )
)
linQ Number of parameters: 16783
LinearQuantizer(
  (precoder_layer): Linear(in_features=24, out_features=24, bias=True)
  (encoder_layer): Linear(in_features=100, out_features=80, bias=True)
  (quantizer_layer): QuantizerLayer()
  (decoder_layer): Linear(in_features=80, out_features=100, bias=True)
)
  0%|          | 0/1000 [00:00<?, ?it/s]0.001 -> 0.001
Epoch: 0 	Training Loss: -0.0100395327 	Validation Loss: -0.0416298404 	Best Validation Loss: inf
### Validation loss same/decreased (inf --> -0.0416298404)... saving model. ###
  0%|          | 1/1000 [00:13<3:45:33, 13.55s/it]0.001 -> 0.001
Epoch: 1 	Training Loss: -0.0109044604 	Validation Loss: -0.0446167633 	Best Validation Loss: -0.0416298404
…
Achievable Rate (bps/Hz) using RIS phase shifts with Transmit power SNR 55.60 dB:
optimum:    10.597851753234863
AQE net:    7.527695178985596
AQEnoW net:    6.382143497467041
ACF net:    5.223766803741455
linQ net:   4.949296951293945
opt rand:   1.9071462154388428
AQE rand:   1.9549007415771484
AQEnoW rand:   1.9129644632339478
ACF rand:   2.0334787368774414
linQ rand:  1.9075285196304321
-------------------------------------------------------------------------------------------------------


AQE Number of parameters: 16587218
AutoQEncoder(
  (encoder_layer): EncoderLayer(
    (linear_encoder): Sequential(
      (0): Linear(in_features=1548, out_features=3968, bias=True)
      (1): ReLU()
      (2): Dropout(p=0.5, inplace=False)
      (3): BatchNorm1d(3968, eps=1e-05, momentum=0.1, affine=True, track_running_stats=True)
      (4): Linear(in_features=3968, out_features=1984, bias=True)
      (5): ReLU()
      (6): Dropout(p=0.5, inplace=False)
      (7): BatchNorm1d(1984, eps=1e-05, momentum=0.1, affine=True, track_running_stats=True)
      (8): Linear(in_features=1984, out_features=992, bias=True)
      (9): ReLU()
      (10): Dropout(p=0.5, inplace=False)
      (11): BatchNorm1d(992, eps=1e-05, momentum=0.1, affine=True, track_running_stats=True)
      (12): Linear(in_features=992, out_features=496, bias=True)
      (13): ReLU()
      (14): Dropout(p=0.5, inplace=False)
      (15): BatchNorm1d(496, eps=1e-05, momentum=0.1, affine=True, track_running_stats=True)
      (16): Linear(in_features=496, out_features=90, bias=True)
    )
  )
  (quantizer_layer): QuantizerLayer()
  (decoder_layer): DecoderLayer(
    (linear_decoder): Sequential(
      (0): Linear(in_features=90, out_features=100, bias=True)
      (1): ReLU()
      (2): Linear(in_features=100, out_features=100, bias=True)
      (3): ReLU()
    )
    (out_layer): Sequential(
      (0): Linear(in_features=100, out_features=100, bias=True)
    )
  )
  (w_update_layer): WupdateLayer(
    (linear_W): Sequential(
      (0): Linear(in_features=48, out_features=48, bias=True)
      (1): ReLU()
      (2): Dropout(p=0.5, inplace=False)
      (3): Linear(in_features=48, out_features=48, bias=True)
      (4): ReLU()
      (5): Dropout(p=0.5, inplace=False)
      (6): Linear(in_features=48, out_features=48, bias=True)
      (7): ReLU()
      (8): Dropout(p=0.5, inplace=False)
      (9): Linear(in_features=48, out_features=24, bias=True)
    )
    (linear_UL): Sequential(
      (0): Linear(in_features=48, out_features=48, bias=True)
      (1): ReLU()
      (2): Dropout(p=0.5, inplace=False)
      (3): Linear(in_features=48, out_features=48, bias=True)
      (4): ReLU()
      (5): Dropout(p=0.5, inplace=False)
      (6): Linear(in_features=48, out_features=48, bias=True)
      (7): ReLU()
      (8): Dropout(p=0.5, inplace=False)
      (9): Linear(in_features=48, out_features=9, bias=True)
    )
  )
)
AQEnoW Number of parameters: 16571489
AutoQEncoderNoWupdate(
  (encoder_layer): EncoderLayer(
    (linear_encoder): Sequential(
      (0): Linear(in_features=1548, out_features=3968, bias=True)
      (1): ReLU()
      (2): Dropout(p=0.5, inplace=False)
      (3): BatchNorm1d(3968, eps=1e-05, momentum=0.1, affine=True, track_running_stats=True)
      (4): Linear(in_features=3968, out_features=1984, bias=True)
      (5): ReLU()
      (6): Dropout(p=0.5, inplace=False)
      (7): BatchNorm1d(1984, eps=1e-05, momentum=0.1, affine=True, track_running_stats=True)
      (8): Linear(in_features=1984, out_features=992, bias=True)
      (9): ReLU()
      (10): Dropout(p=0.5, inplace=False)
      (11): BatchNorm1d(992, eps=1e-05, momentum=0.1, affine=True, track_running_stats=True)
      (12): Linear(in_features=992, out_features=496, bias=True)
      (13): ReLU()
      (14): Dropout(p=0.5, inplace=False)
      (15): BatchNorm1d(496, eps=1e-05, momentum=0.1, affine=True, track_running_stats=True)
      (16): Linear(in_features=496, out_features=90, bias=True)
    )
  )
  (quantizer_layer): QuantizerLayer()
  (decoder_layer): DecoderLayer(
    (linear_decoder): Sequential(
      (0): Linear(in_features=90, out_features=100, bias=True)
      (1): ReLU()
      (2): Linear(in_features=100, out_features=100, bias=True)
      (3): ReLU()
    )
    (out_layer): Sequential(
      (0): Linear(in_features=100, out_features=100, bias=True)
    )
  )
)
ACF Number of parameters: 16214905
ACFNet(
  (mapping_network): DNN(
    (linear_encoder): Sequential(
      (0): Linear(in_features=1424, out_features=3968, bias=True)
      (1): ReLU()
      (2): Dropout(p=0.5, inplace=False)
      (3): BatchNorm1d(3968, eps=1e-05, momentum=0.1, affine=True, track_running_stats=True)
      (4): Linear(in_features=3968, out_features=1984, bias=True)
      (5): ReLU()
      (6): Dropout(p=0.5, inplace=False)
      (7): BatchNorm1d(1984, eps=1e-05, momentum=0.1, affine=True, track_running_stats=True)
      (8): Linear(in_features=1984, out_features=992, bias=True)
      (9): ReLU()
      (10): Dropout(p=0.5, inplace=False)
      (11): BatchNorm1d(992, eps=1e-05, momentum=0.1, affine=True, track_running_stats=True)
      (12): Linear(in_features=992, out_features=496, bias=True)
      (13): ReLU()
      (14): Dropout(p=0.5, inplace=False)
      (15): BatchNorm1d(496, eps=1e-05, momentum=0.1, affine=True, track_running_stats=True)
      (16): Linear(in_features=496, out_features=124, bias=True)
    )
  )
  (compression_network): ACFNetCompressionNetwork(
    (convolution_layer): Sequential(
      (0): Conv2d(1, 3, kernel_size=(2, 2), stride=(1, 1))
      (1): ReLU()
    )
    (dense_layer): Sequential(
      (0): Linear(in_features=297, out_features=90, bias=True)
    )
  )
  (quantizer_layer): QuantizerLayer()
  (decoder_network): ACFNetDecoderNetwork(
    (dense_layer1): Sequential(
      (0): Linear(in_features=90, out_features=200, bias=True)
    )
    (convolution_layer): Sequential(
      (0): Conv2d(1, 3, kernel_size=(2, 2), stride=(1, 1))
      (1): ReLU()
    )
    (dense_layer2): Sequential(
      (0): Linear(in_features=513, out_features=200, bias=True)
    )
  )
)
linQ Number of parameters: 18793
LinearQuantizer(
  (precoder_layer): Linear(in_features=24, out_features=24, bias=True)
  (encoder_layer): Linear(in_features=100, out_features=90, bias=True)
  (quantizer_layer): QuantizerLayer()
  (decoder_layer): Linear(in_features=90, out_features=100, bias=True)
)
  0%|          | 0/1000 [00:00<?, ?it/s]0.001 -> 0.001
Epoch: 0 	Training Loss: -0.0096783001 	Validation Loss: -0.0394954006 	Best Validation Loss: inf
### Validation loss same/decreased (inf --> -0.0394954006)... saving model. ###
  0%|          | 1/1000 [00:13<3:44:58, 13.51s/it]0.001 -> 0.001
Epoch: 1 	Training Loss: -0.0109525558 	Validation Loss: -0.0450232246 	Best Validation Loss: -0.0394954006
…
Achievable Rate (bps/Hz) using RIS phase shifts with Transmit power SNR 55.60 dB:
optimum:    10.597851753234863
AQE net:    7.472169399261475
AQEnoW net:    6.5217132568359375
ACF net:    5.326543807983398
linQ net:   5.067517280578613
opt rand:   1.9138022661209106
AQE rand:   1.941300392150879
AQEnoW rand:   1.9206503629684448
ACF rand:   2.0541324615478516
linQ rand:  1.915973424911499
-------------------------------------------------------------------------------------------------------


AQE Number of parameters: 16593188
AutoQEncoder(
  (encoder_layer): EncoderLayer(
    (linear_encoder): Sequential(
      (0): Linear(in_features=1548, out_features=3968, bias=True)
      (1): ReLU()
      (2): Dropout(p=0.5, inplace=False)
      (3): BatchNorm1d(3968, eps=1e-05, momentum=0.1, affine=True, track_running_stats=True)
      (4): Linear(in_features=3968, out_features=1984, bias=True)
      (5): ReLU()
      (6): Dropout(p=0.5, inplace=False)
      (7): BatchNorm1d(1984, eps=1e-05, momentum=0.1, affine=True, track_running_stats=True)
      (8): Linear(in_features=1984, out_features=992, bias=True)
      (9): ReLU()
      (10): Dropout(p=0.5, inplace=False)
      (11): BatchNorm1d(992, eps=1e-05, momentum=0.1, affine=True, track_running_stats=True)
      (12): Linear(in_features=992, out_features=496, bias=True)
      (13): ReLU()
      (14): Dropout(p=0.5, inplace=False)
      (15): BatchNorm1d(496, eps=1e-05, momentum=0.1, affine=True, track_running_stats=True)
      (16): Linear(in_features=496, out_features=100, bias=True)
    )
  )
  (quantizer_layer): QuantizerLayer()
  (decoder_layer): DecoderLayer(
    (linear_decoder): Sequential(
      (0): Linear(in_features=100, out_features=100, bias=True)
      (1): ReLU()
      (2): Linear(in_features=100, out_features=100, bias=True)
      (3): ReLU()
    )
    (out_layer): Sequential(
      (0): Linear(in_features=100, out_features=100, bias=True)
    )
  )
  (w_update_layer): WupdateLayer(
    (linear_W): Sequential(
      (0): Linear(in_features=48, out_features=48, bias=True)
      (1): ReLU()
      (2): Dropout(p=0.5, inplace=False)
      (3): Linear(in_features=48, out_features=48, bias=True)
      (4): ReLU()
      (5): Dropout(p=0.5, inplace=False)
      (6): Linear(in_features=48, out_features=48, bias=True)
      (7): ReLU()
      (8): Dropout(p=0.5, inplace=False)
      (9): Linear(in_features=48, out_features=24, bias=True)
    )
    (linear_UL): Sequential(
      (0): Linear(in_features=48, out_features=48, bias=True)
      (1): ReLU()
      (2): Dropout(p=0.5, inplace=False)
      (3): Linear(in_features=48, out_features=48, bias=True)
      (4): ReLU()
      (5): Dropout(p=0.5, inplace=False)
      (6): Linear(in_features=48, out_features=48, bias=True)
      (7): ReLU()
      (8): Dropout(p=0.5, inplace=False)
      (9): Linear(in_features=48, out_features=9, bias=True)
    )
  )
)
AQEnoW Number of parameters: 16577459
AutoQEncoderNoWupdate(
  (encoder_layer): EncoderLayer(
    (linear_encoder): Sequential(
      (0): Linear(in_features=1548, out_features=3968, bias=True)
      (1): ReLU()
      (2): Dropout(p=0.5, inplace=False)
      (3): BatchNorm1d(3968, eps=1e-05, momentum=0.1, affine=True, track_running_stats=True)
      (4): Linear(in_features=3968, out_features=1984, bias=True)
      (5): ReLU()
      (6): Dropout(p=0.5, inplace=False)
      (7): BatchNorm1d(1984, eps=1e-05, momentum=0.1, affine=True, track_running_stats=True)
      (8): Linear(in_features=1984, out_features=992, bias=True)
      (9): ReLU()
      (10): Dropout(p=0.5, inplace=False)
      (11): BatchNorm1d(992, eps=1e-05, momentum=0.1, affine=True, track_running_stats=True)
      (12): Linear(in_features=992, out_features=496, bias=True)
      (13): ReLU()
      (14): Dropout(p=0.5, inplace=False)
      (15): BatchNorm1d(496, eps=1e-05, momentum=0.1, affine=True, track_running_stats=True)
      (16): Linear(in_features=496, out_features=100, bias=True)
    )
  )
  (quantizer_layer): QuantizerLayer()
  (decoder_layer): DecoderLayer(
    (linear_decoder): Sequential(
      (0): Linear(in_features=100, out_features=100, bias=True)
      (1): ReLU()
      (2): Linear(in_features=100, out_features=100, bias=True)
      (3): ReLU()
    )
    (out_layer): Sequential(
      (0): Linear(in_features=100, out_features=100, bias=True)
    )
  )
)
ACF Number of parameters: 16219885
ACFNet(
  (mapping_network): DNN(
    (linear_encoder): Sequential(
      (0): Linear(in_features=1424, out_features=3968, bias=True)
      (1): ReLU()
      (2): Dropout(p=0.5, inplace=False)
      (3): BatchNorm1d(3968, eps=1e-05, momentum=0.1, affine=True, track_running_stats=True)
      (4): Linear(in_features=3968, out_features=1984, bias=True)
      (5): ReLU()
      (6): Dropout(p=0.5, inplace=False)
      (7): BatchNorm1d(1984, eps=1e-05, momentum=0.1, affine=True, track_running_stats=True)
      (8): Linear(in_features=1984, out_features=992, bias=True)
      (9): ReLU()
      (10): Dropout(p=0.5, inplace=False)
      (11): BatchNorm1d(992, eps=1e-05, momentum=0.1, affine=True, track_running_stats=True)
      (12): Linear(in_features=992, out_features=496, bias=True)
      (13): ReLU()
      (14): Dropout(p=0.5, inplace=False)
      (15): BatchNorm1d(496, eps=1e-05, momentum=0.1, affine=True, track_running_stats=True)
      (16): Linear(in_features=496, out_features=124, bias=True)
    )
  )
  (compression_network): ACFNetCompressionNetwork(
    (convolution_layer): Sequential(
      (0): Conv2d(1, 3, kernel_size=(2, 2), stride=(1, 1))
      (1): ReLU()
    )
    (dense_layer): Sequential(
      (0): Linear(in_features=297, out_features=100, bias=True)
    )
  )
  (quantizer_layer): QuantizerLayer()
  (decoder_network): ACFNetDecoderNetwork(
    (dense_layer1): Sequential(
      (0): Linear(in_features=100, out_features=200, bias=True)
    )
    (convolution_layer): Sequential(
      (0): Conv2d(1, 3, kernel_size=(2, 2), stride=(1, 1))
      (1): ReLU()
    )
    (dense_layer2): Sequential(
      (0): Linear(in_features=513, out_features=200, bias=True)
    )
  )
)
DQNN Number of parameters: 16067055
DQNN(
  (DNN_layer): DNN(
    (linear_encoder): Sequential(
      (0): Linear(in_features=1424, out_features=3968, bias=True)
      (1): ReLU()
      (2): Dropout(p=0.5, inplace=False)
      (3): BatchNorm1d(3968, eps=1e-05, momentum=0.1, affine=True, track_running_stats=True)
      (4): Linear(in_features=3968, out_features=1984, bias=True)
      (5): ReLU()
      (6): Dropout(p=0.5, inplace=False)
      (7): BatchNorm1d(1984, eps=1e-05, momentum=0.1, affine=True, track_running_stats=True)
      (8): Linear(in_features=1984, out_features=992, bias=True)
      (9): ReLU()
      (10): Dropout(p=0.5, inplace=False)
      (11): BatchNorm1d(992, eps=1e-05, momentum=0.1, affine=True, track_running_stats=True)
      (12): Linear(in_features=992, out_features=496, bias=True)
      (13): ReLU()
      (14): Dropout(p=0.5, inplace=False)
      (15): BatchNorm1d(496, eps=1e-05, momentum=0.1, affine=True, track_running_stats=True)
      (16): Linear(in_features=496, out_features=124, bias=True)
    )
  )
  (quantizer_layer): QuantizerLayer()
)
linQ Number of parameters: 20803
LinearQuantizer(
  (precoder_layer): Linear(in_features=24, out_features=24, bias=True)
  (encoder_layer): Linear(in_features=100, out_features=100, bias=True)
  (quantizer_layer): QuantizerLayer()
  (decoder_layer): Linear(in_features=100, out_features=100, bias=True)
)
  0%|          | 0/1000 [00:00<?, ?it/s]0.001 -> 0.001
Epoch: 0 	Training Loss: -0.0100377421 	Validation Loss: -0.0405954834 	Best Validation Loss: inf
### Validation loss same/decreased (inf --> -0.0405954834)... saving model. ###
  0%|          | 1/1000 [00:13<3:52:17, 13.95s/it]0.001 -> 0.001
Epoch: 1 	Training Loss: -0.0110260258 	Validation Loss: -0.0450704207 	Best Validation Loss: -0.0405954834
…
