…
0000 [00:10<00:00, 10394.46it/s] 95%|█████████▍| 94612/100000 [00:10<00:00, 10406.81it/s] 96%|█████████▌| 95657/100000 [00:10<00:00, 10419.13it/s] 97%|█████████▋| 96701/100000 [00:10<00:00, 10423.43it/s] 98%|█████████▊| 97745/100000 [00:11<00:00, 4189.07it/s]  99%|█████████▉| 98795/100000 [00:11<00:00, 5114.28it/s]100%|█████████▉| 99845/100000 [00:11<00:00, 6047.20it/s]100%|██████████| 100000/100000 [00:11<00:00, 8537.21it/s]
------------
Train & Test
------------
AQE Number of parameters: 16550192
AutoQEncoder(
  (encoder_layer): EncoderLayer(
    (linear_encoder): Sequential(
      (0): Linear(in_features=1548, out_features=3968, bias=True)
      (1): ReLU()
      (2): Dropout(p=0.5, inplace=False)
      (3): BatchNorm1d(3968, eps=1e-05, momentum=0.1, affine=True, track_running_stats=True)
      (4): Linear(in_features=3968, out_features=1984, bias=True)
      (5): ReLU()
      (6): Dropout(p=0.5, inplace=False)
      (7): BatchNorm1d(1984, eps=1e-05, momentum=0.1, affine=True, track_running_stats=True)
      (8): Linear(in_features=1984, out_features=992, bias=True)
      (9): ReLU()
      (10): Dropout(p=0.5, inplace=False)
      (11): BatchNorm1d(992, eps=1e-05, momentum=0.1, affine=True, track_running_stats=True)
      (12): Linear(in_features=992, out_features=496, bias=True)
      (13): ReLU()
      (14): Dropout(p=0.5, inplace=False)
      (15): BatchNorm1d(496, eps=1e-05, momentum=0.1, affine=True, track_running_stats=True)
      (16): Linear(in_features=496, out_features=32, bias=True)
    )
  )
  (quantizer_layer): QuantizerLayer()
  (decoder_layer): DecoderLayer(
    (linear_decoder): Sequential(
      (0): Linear(in_features=8, out_features=100, bias=True)
      (1): ReLU()
      (2): Linear(in_features=100, out_features=100, bias=True)
      (3): ReLU()
    )
    (out_layer): Sequential(
      (0): Linear(in_features=100, out_features=100, bias=True)
    )
  )
  (w_update_layer): WupdateLayer(
    (linear_W): Sequential(
      (0): Linear(in_features=48, out_features=48, bias=True)
      (1): ReLU()
      (2): Dropout(p=0.5, inplace=False)
      (3): Linear(in_features=48, out_features=48, bias=True)
      (4): ReLU()
      (5): Dropout(p=0.5, inplace=False)
      (6): Linear(in_features=48, out_features=48, bias=True)
      (7): ReLU()
      (8): Dropout(p=0.5, inplace=False)
      (9): Linear(in_features=48, out_features=24, bias=True)
    )
    (linear_UL): Sequential(
      (0): Linear(in_features=48, out_features=48, bias=True)
      (1): ReLU()
      (2): Dropout(p=0.5, inplace=False)
      (3): Linear(in_features=48, out_features=48, bias=True)
      (4): ReLU()
      (5): Dropout(p=0.5, inplace=False)
      (6): Linear(in_features=48, out_features=48, bias=True)
      (7): ReLU()
      (8): Dropout(p=0.5, inplace=False)
      (9): Linear(in_features=48, out_features=9, bias=True)
    )
  )
)
ACF Number of parameters: 16174069
ACFNet(
  (mapping_network): DNN(
    (linear_encoder): Sequential(
      (0): Linear(in_features=1424, out_features=3968, bias=True)
      (1): ReLU()
      (2): Dropout(p=0.5, inplace=False)
      (3): BatchNorm1d(3968, eps=1e-05, momentum=0.1, affine=True, track_running_stats=True)
      (4): Linear(in_features=3968, out_features=1984, bias=True)
      (5): ReLU()
      (6): Dropout(p=0.5, inplace=False)
      (7): BatchNorm1d(1984, eps=1e-05, momentum=0.1, affine=True, track_running_stats=True)
      (8): Linear(in_features=1984, out_features=992, bias=True)
      (9): ReLU()
      (10): Dropout(p=0.5, inplace=False)
      (11): BatchNorm1d(992, eps=1e-05, momentum=0.1, affine=True, track_running_stats=True)
      (12): Linear(in_features=992, out_features=496, bias=True)
      (13): ReLU()
      (14): Dropout(p=0.5, inplace=False)
      (15): BatchNorm1d(496, eps=1e-05, momentum=0.1, affine=True, track_running_stats=True)
      (16): Linear(in_features=496, out_features=124, bias=True)
    )
  )
  (compression_network): ACFNetCompressionNetwork(
    (convolution_layer): Sequential(
      (0): Conv2d(1, 3, kernel_size=(2, 2), stride=(1, 1))
      (1): ReLU()
    )
    (dense_layer): Sequential(
      (0): Linear(in_features=297, out_features=8, bias=True)
    )
  )
  (quantizer_layer): QuantizerLayer()
  (decoder_network): ACFNetDecoderNetwork(
    (dense_layer1): Sequential(
      (0): Linear(in_features=8, out_features=200, bias=True)
    )
    (convolution_layer): Sequential(
      (0): Conv2d(1, 3, kernel_size=(2, 2), stride=(1, 1))
      (1): ReLU()
    )
    (dense_layer2): Sequential(
      (0): Linear(in_features=513, out_features=200, bias=True)
    )
  )
)
linQ Number of parameters: 2311
LinearQuantizer(
  (precoder_layer): Linear(in_features=24, out_features=24, bias=True)
  (encoder_layer): Linear(in_features=100, out_features=8, bias=True)
  (quantizer_layer): QuantizerLayer()
  (decoder_layer): Linear(in_features=8, out_features=100, bias=True)
)
  0%|          | 0/1000 [00:00<?, ?it/s]0.001 -> 0.001
Epoch: 0 	Training Loss: -0.0183631486 	Validation Loss: -0.0649137776 	Best Validation Loss: inf
### Validation loss same/decreased (inf --> -0.0649137776)... saving model. ###
  0%|          | 1/1000 [00:09<2:35:30,  9.34s/it]0.001 -> 0.001
Epoch: 1 	Training Loss: -0.0195400460 	Validation Loss: -0.0690222768 	Best Validation Loss: -0.0649137776
…
 'train_test_split': 0.9,
 'train_val_split': 0.9}
Achievable Rate (bps/Hz) using RIS phase shifts with Transmit power SNR 70.60 dB:
optimum:    22.50373649597168
AQE net:    15.200575828552246
ACF net:    8.609237670898438
linQ net:   7.656591892242432
opt rand:   3.295714855194092
AQE rand:   2.936033248901367
ACF rand:   6.395054340362549
linQ rand:  6.114661693572998
-------------------------------------------------------------------------------------------------------


AQE Number of parameters: 16554968
AutoQEncoder(
  (encoder_layer): EncoderLayer(
    (linear_encoder): Sequential(
      (0): Linear(in_features=1548, out_features=3968, bias=True)
      (1): ReLU()
      (2): Dropout(p=0.5, inplace=False)
      (3): BatchNorm1d(3968, eps=1e-05, momentum=0.1, affine=True, track_running_stats=True)
      (4): Linear(in_features=3968, out_features=1984, bias=True)
      (5): ReLU()
      (6): Dropout(p=0.5, inplace=False)
      (7): BatchNorm1d(1984, eps=1e-05, momentum=0.1, affine=True, track_running_stats=True)
      (8): Linear(in_features=1984, out_features=992, bias=True)
      (9): ReLU()
      (10): Dropout(p=0.5, inplace=False)
      (11): BatchNorm1d(992, eps=1e-05, momentum=0.1, affine=True, track_running_stats=True)
      (12): Linear(in_features=992, out_features=496, bias=True)
      (13): ReLU()
      (14): Dropout(p=0.5, inplace=False)
      (15): BatchNorm1d(496, eps=1e-05, momentum=0.1, affine=True, track_running_stats=True)
      (16): Linear(in_features=496, out_features=40, bias=True)
    )
  )
  (quantizer_layer): QuantizerLayer()
  (decoder_layer): DecoderLayer(
    (linear_decoder): Sequential(
      (0): Linear(in_features=16, out_features=100, bias=True)
      (1): ReLU()
      (2): Linear(in_features=100, out_features=100, bias=True)
      (3): ReLU()
    )
    (out_layer): Sequential(
      (0): Linear(in_features=100, out_features=100, bias=True)
    )
  )
  (w_update_layer): WupdateLayer(
    (linear_W): Sequential(
      (0): Linear(in_features=48, out_features=48, bias=True)
      (1): ReLU()
      (2): Dropout(p=0.5, inplace=False)
      (3): Linear(in_features=48, out_features=48, bias=True)
      (4): ReLU()
      (5): Dropout(p=0.5, inplace=False)
      (6): Linear(in_features=48, out_features=48, bias=True)
      (7): ReLU()
      (8): Dropout(p=0.5, inplace=False)
      (9): Linear(in_features=48, out_features=24, bias=True)
    )
    (linear_UL): Sequential(
      (0): Linear(in_features=48, out_features=48, bias=True)
      (1): ReLU()
      (2): Dropout(p=0.5, inplace=False)
      (3): Linear(in_features=48, out_features=48, bias=True)
      (4): ReLU()
      (5): Dropout(p=0.5, inplace=False)
      (6): Linear(in_features=48, out_features=48, bias=True)
      (7): ReLU()
      (8): Dropout(p=0.5, inplace=False)
      (9): Linear(in_features=48, out_features=9, bias=True)
    )
  )
)
ACF Number of parameters: 16178053
ACFNet(
  (mapping_network): DNN(
    (linear_encoder): Sequential(
      (0): Linear(in_features=1424, out_features=3968, bias=True)
      (1): ReLU()
      (2): Dropout(p=0.5, inplace=False)
      (3): BatchNorm1d(3968, eps=1e-05, momentum=0.1, affine=True, track_running_stats=True)
      (4): Linear(in_features=3968, out_features=1984, bias=True)
      (5): ReLU()
      (6): Dropout(p=0.5, inplace=False)
      (7): BatchNorm1d(1984, eps=1e-05, momentum=0.1, affine=True, track_running_stats=True)
      (8): Linear(in_features=1984, out_features=992, bias=True)
      (9): ReLU()
      (10): Dropout(p=0.5, inplace=False)
      (11): BatchNorm1d(992, eps=1e-05, momentum=0.1, affine=True, track_running_stats=True)
      (12): Linear(in_features=992, out_features=496, bias=True)
      (13): ReLU()
      (14): Dropout(p=0.5, inplace=False)
      (15): BatchNorm1d(496, eps=1e-05, momentum=0.1, affine=True, track_running_stats=True)
      (16): Linear(in_features=496, out_features=124, bias=True)
    )
  )
  (compression_network): ACFNetCompressionNetwork(
    (convolution_layer): Sequential(
      (0): Conv2d(1, 3, kernel_size=(2, 2), stride=(1, 1))
      (1): ReLU()
    )
    (dense_layer): Sequential(
      (0): Linear(in_features=297, out_features=16, bias=True)
    )
  )
  (quantizer_layer): QuantizerLayer()
  (decoder_network): ACFNetDecoderNetwork(
    (dense_layer1): Sequential(
      (0): Linear(in_features=16, out_features=200, bias=True)
    )
    (convolution_layer): Sequential(
      (0): Conv2d(1, 3, kernel_size=(2, 2), stride=(1, 1))
      (1): ReLU()
    )
    (dense_layer2): Sequential(
      (0): Linear(in_features=513, out_features=200, bias=True)
    )
  )
)
linQ Number of parameters: 3919
LinearQuantizer(
  (precoder_layer): Linear(in_features=24, out_features=24, bias=True)
  (encoder_layer): Linear(in_features=100, out_features=16, bias=True)
  (quantizer_layer): QuantizerLayer()
  (decoder_layer): Linear(in_features=16, out_features=100, bias=True)
)
  0%|          | 0/1000 [00:00<?, ?it/s]0.001 -> 0.001
Epoch: 0 	Training Loss: -0.0190426103 	Validation Loss: -0.0663331401 	Best Validation Loss: inf
### Validation loss same/decreased (inf --> -0.0663331401)... saving model. ###
  0%|          | 1/1000 [00:08<2:25:05,  8.71s/it]0.001 -> 0.001
Epoch: 1 	Training Loss: -0.0201579300 	Validation Loss: -0.0702944430 	Best Validation Loss: -0.0663331401
…
 'train_test_split': 0.9,
 'train_val_split': 0.9}
Achievable Rate (bps/Hz) using RIS phase shifts with Transmit power SNR 70.60 dB:
optimum:    22.50373649597168
AQE net:    17.03007698059082
ACF net:    7.6940107345581055
linQ net:   8.056694030761719
opt rand:   3.296297073364258
AQE rand:   3.1838719844818115
ACF rand:   5.446280002593994
linQ rand:  6.102338790893555
-------------------------------------------------------------------------------------------------------


AQE Number of parameters: 16564520
AutoQEncoder(
  (encoder_layer): EncoderLayer(
    (linear_encoder): Sequential(
      (0): Linear(in_features=1548, out_features=3968, bias=True)
      (1): ReLU()
      (2): Dropout(p=0.5, inplace=False)
      (3): BatchNorm1d(3968, eps=1e-05, momentum=0.1, affine=True, track_running_stats=True)
      (4): Linear(in_features=3968, out_features=1984, bias=True)
      (5): ReLU()
      (6): Dropout(p=0.5, inplace=False)
      (7): BatchNorm1d(1984, eps=1e-05, momentum=0.1, affine=True, track_running_stats=True)
      (8): Linear(in_features=1984, out_features=992, bias=True)
      (9): ReLU()
      (10): Dropout(p=0.5, inplace=False)
      (11): BatchNorm1d(992, eps=1e-05, momentum=0.1, affine=True, track_running_stats=True)
      (12): Linear(in_features=992, out_features=496, bias=True)
      (13): ReLU()
      (14): Dropout(p=0.5, inplace=False)
      (15): BatchNorm1d(496, eps=1e-05, momentum=0.1, affine=True, track_running_stats=True)
      (16): Linear(in_features=496, out_features=56, bias=True)
    )
  )
  (quantizer_layer): QuantizerLayer()
  (decoder_layer): DecoderLayer(
    (linear_decoder): Sequential(
      (0): Linear(in_features=32, out_features=100, bias=True)
      (1): ReLU()
      (2): Linear(in_features=100, out_features=100, bias=True)
      (3): ReLU()
    )
    (out_layer): Sequential(
      (0): Linear(in_features=100, out_features=100, bias=True)
    )
  )
  (w_update_layer): WupdateLayer(
    (linear_W): Sequential(
      (0): Linear(in_features=48, out_features=48, bias=True)
      (1): ReLU()
      (2): Dropout(p=0.5, inplace=False)
      (3): Linear(in_features=48, out_features=48, bias=True)
      (4): ReLU()
      (5): Dropout(p=0.5, inplace=False)
      (6): Linear(in_features=48, out_features=48, bias=True)
      (7): ReLU()
      (8): Dropout(p=0.5, inplace=False)
      (9): Linear(in_features=48, out_features=24, bias=True)
    )
    (linear_UL): Sequential(
      (0): Linear(in_features=48, out_features=48, bias=True)
      (1): ReLU()
      (2): Dropout(p=0.5, inplace=False)
      (3): Linear(in_features=48, out_features=48, bias=True)
      (4): ReLU()
      (5): Dropout(p=0.5, inplace=False)
      (6): Linear(in_features=48, out_features=48, bias=True)
      (7): ReLU()
      (8): Dropout(p=0.5, inplace=False)
      (9): Linear(in_features=48, out_features=9, bias=True)
    )
  )
)
ACF Number of parameters: 16186021
ACFNet(
  (mapping_network): DNN(
    (linear_encoder): Sequential(
      (0): Linear(in_features=1424, out_features=3968, bias=True)
      (1): ReLU()
      (2): Dropout(p=0.5, inplace=False)
      (3): BatchNorm1d(3968, eps=1e-05, momentum=0.1, affine=True, track_running_stats=True)
      (4): Linear(in_features=3968, out_features=1984, bias=True)
      (5): ReLU()
      (6): Dropout(p=0.5, inplace=False)
      (7): BatchNorm1d(1984, eps=1e-05, momentum=0.1, affine=True, track_running_stats=True)
      (8): Linear(in_features=1984, out_features=992, bias=True)
      (9): ReLU()
      (10): Dropout(p=0.5, inplace=False)
      (11): BatchNorm1d(992, eps=1e-05, momentum=0.1, affine=True, track_running_stats=True)
      (12): Linear(in_features=992, out_features=496, bias=True)
      (13): ReLU()
      (14): Dropout(p=0.5, inplace=False)
      (15): BatchNorm1d(496, eps=1e-05, momentum=0.1, affine=True, track_running_stats=True)
      (16): Linear(in_features=496, out_features=124, bias=True)
    )
  )
  (compression_network): ACFNetCompressionNetwork(
    (convolution_layer): Sequential(
      (0): Conv2d(1, 3, kernel_size=(2, 2), stride=(1, 1))
      (1): ReLU()
    )
    (dense_layer): Sequential(
      (0): Linear(in_features=297, out_features=32, bias=True)
    )
  )
  (quantizer_layer): QuantizerLayer()
  (decoder_network): ACFNetDecoderNetwork(
    (dense_layer1): Sequential(
      (0): Linear(in_features=32, out_features=200, bias=True)
    )
    (convolution_layer): Sequential(
      (0): Conv2d(1, 3, kernel_size=(2, 2), stride=(1, 1))
      (1): ReLU()
    )
    (dense_layer2): Sequential(
      (0): Linear(in_features=513, out_features=200, bias=True)
    )
  )
)
linQ Number of parameters: 7135
LinearQuantizer(
  (precoder_layer): Linear(in_features=24, out_features=24, bias=True)
  (encoder_layer): Linear(in_features=100, out_features=32, bias=True)
  (quantizer_layer): QuantizerLayer()
  (decoder_layer): Linear(in_features=32, out_features=100, bias=True)
)
  0%|          | 0/1000 [00:00<?, ?it/s]0.001 -> 0.001
Epoch: 0 	Training Loss: -0.0175851232 	Validation Loss: -0.0587242031 	Best Validation Loss: inf
### Validation loss same/decreased (inf --> -0.0587242031)... saving model. ###
  0%|          | 1/1000 [00:08<2:24:40,  8.69s/it]0.001 -> 0.001
Epoch: 1 	Training Loss: -0.0181933593 	Validation Loss: -0.0611695396 	Best Validation Loss: -0.0587242031
…
 'train_test_split': 0.9,
 'train_val_split': 0.9}
Achievable Rate (bps/Hz) using RIS phase shifts with Transmit power SNR 70.60 dB:
optimum:    22.50373649597168
AQE net:    18.78306770324707
ACF net:    9.362237930297852
linQ net:   8.560791015625
opt rand:   3.311061143875122
AQE rand:   3.3082873821258545
ACF rand:   6.348946571350098
linQ rand:  6.068756103515625
-------------------------------------------------------------------------------------------------------


AQE Number of parameters: 16583624
AutoQEncoder(
  (encoder_layer): EncoderLayer(
    (linear_encoder): Sequential(
      (0): Linear(in_features=1548, out_features=3968, bias=True)
      (1): ReLU()
      (2): Dropout(p=0.5, inplace=False)
      (3): BatchNorm1d(3968, eps=1e-05, momentum=0.1, affine=True, track_running_stats=True)
      (4): Linear(in_features=3968, out_features=1984, bias=True)
      (5): ReLU()
      (6): Dropout(p=0.5, inplace=False)
      (7): BatchNorm1d(1984, eps=1e-05, momentum=0.1, affine=True, track_running_stats=True)
      (8): Linear(in_features=1984, out_features=992, bias=True)
      (9): ReLU()
      (10): Dropout(p=0.5, inplace=False)
      (11): BatchNorm1d(992, eps=1e-05, momentum=0.1, affine=True, track_running_stats=True)
      (12): Linear(in_features=992, out_features=496, bias=True)
      (13): ReLU()
      (14): Dropout(p=0.5, inplace=False)
      (15): BatchNorm1d(496, eps=1e-05, momentum=0.1, affine=True, track_running_stats=True)
      (16): Linear(in_features=496, out_features=88, bias=True)
    )
  )
  (quantizer_layer): QuantizerLayer()
  (decoder_layer): DecoderLayer(
    (linear_decoder): Sequential(
      (0): Linear(in_features=64, out_features=100, bias=True)
      (1): ReLU()
      (2): Linear(in_features=100, out_features=100, bias=True)
      (3): ReLU()
    )
    (out_layer): Sequential(
      (0): Linear(in_features=100, out_features=100, bias=True)
    )
  )
  (w_update_layer): WupdateLayer(
    (linear_W): Sequential(
      (0): Linear(in_features=48, out_features=48, bias=True)
      (1): ReLU()
      (2): Dropout(p=0.5, inplace=False)
      (3): Linear(in_features=48, out_features=48, bias=True)
      (4): ReLU()
      (5): Dropout(p=0.5, inplace=False)
      (6): Linear(in_features=48, out_features=48, bias=True)
      (7): ReLU()
      (8): Dropout(p=0.5, inplace=False)
      (9): Linear(in_features=48, out_features=24, bias=True)
    )
    (linear_UL): Sequential(
      (0): Linear(in_features=48, out_features=48, bias=True)
      (1): ReLU()
      (2): Dropout(p=0.5, inplace=False)
      (3): Linear(in_features=48, out_features=48, bias=True)
      (4): ReLU()
      (5): Dropout(p=0.5, inplace=False)
      (6): Linear(in_features=48, out_features=48, bias=True)
      (7): ReLU()
      (8): Dropout(p=0.5, inplace=False)
      (9): Linear(in_features=48, out_features=9, bias=True)
    )
  )
)
ACF Number of parameters: 16201957
ACFNet(
  (mapping_network): DNN(
    (linear_encoder): Sequential(
      (0): Linear(in_features=1424, out_features=3968, bias=True)
      (1): ReLU()
      (2): Dropout(p=0.5, inplace=False)
      (3): BatchNorm1d(3968, eps=1e-05, momentum=0.1, affine=True, track_running_stats=True)
      (4): Linear(in_features=3968, out_features=1984, bias=True)
      (5): ReLU()
      (6): Dropout(p=0.5, inplace=False)
      (7): BatchNorm1d(1984, eps=1e-05, momentum=0.1, affine=True, track_running_stats=True)
      (8): Linear(in_features=1984, out_features=992, bias=True)
      (9): ReLU()
      (10): Dropout(p=0.5, inplace=False)
      (11): BatchNorm1d(992, eps=1e-05, momentum=0.1, affine=True, track_running_stats=True)
      (12): Linear(in_features=992, out_features=496, bias=True)
      (13): ReLU()
      (14): Dropout(p=0.5, inplace=False)
      (15): BatchNorm1d(496, eps=1e-05, momentum=0.1, affine=True, track_running_stats=True)
      (16): Linear(in_features=496, out_features=124, bias=True)
    )
  )
  (compression_network): ACFNetCompressionNetwork(
    (convolution_layer): Sequential(
      (0): Conv2d(1, 3, kernel_size=(2, 2), stride=(1, 1))
      (1): ReLU()
    )
    (dense_layer): Sequential(
      (0): Linear(in_features=297, out_features=64, bias=True)
    )
  )
  (quantizer_layer): QuantizerLayer()
  (decoder_network): ACFNetDecoderNetwork(
    (dense_layer1): Sequential(
      (0): Linear(in_features=64, out_features=200, bias=True)
    )
    (convolution_layer): Sequential(
      (0): Conv2d(1, 3, kernel_size=(2, 2), stride=(1, 1))
      (1): ReLU()
    )
    (dense_layer2): Sequential(
      (0): Linear(in_features=513, out_features=200, bias=True)
    )
  )
)
linQ Number of parameters: 13567
LinearQuantizer(
  (precoder_layer): Linear(in_features=24, out_features=24, bias=True)
  (encoder_layer): Linear(in_features=100, out_features=64, bias=True)
  (quantizer_layer): QuantizerLayer()
  (decoder_layer): Linear(in_features=64, out_features=100, bias=True)
)
  0%|          | 0/1000 [00:00<?, ?it/s]0.001 -> 0.001
Epoch: 0 	Training Loss: -0.0179271982 	Validation Loss: -0.0602506676 	Best Validation Loss: inf
### Validation loss same/decreased (inf --> -0.0602506676)... saving model. ###
  0%|          | 1/1000 [00:08<2:24:26,  8.67s/it]0.001 -> 0.001
Epoch: 1 	Training Loss: -0.0194044974 	Validation Loss: -0.0666811449 	Best Validation Loss: -0.0602506676
…
 'train_test_split': 0.9,
 'train_val_split': 0.9}
Achievable Rate (bps/Hz) using RIS phase shifts with Transmit power SNR 70.60 dB:
optimum:    22.50373649597168
AQE net:    20.07274627685547
ACF net:    9.336180686950684
linQ net:   9.175384521484375
opt rand:   3.3113043308258057
AQE rand:   3.391371726989746
ACF rand:   6.397010326385498
linQ rand:  6.102866172790527
-------------------------------------------------------------------------------------------------------


AQE Number of parameters: 16605116
AutoQEncoder(
  (encoder_layer): EncoderLayer(
    (linear_encoder): Sequential(
      (0): Linear(in_features=1548, out_features=3968, bias=True)
      (1): ReLU()
      (2): Dropout(p=0.5, inplace=False)
      (3): BatchNorm1d(3968, eps=1e-05, momentum=0.1, affine=True, track_running_stats=True)
      (4): Linear(in_features=3968, out_features=1984, bias=True)
      (5): ReLU()
      (6): Dropout(p=0.5, inplace=False)
      (7): BatchNorm1d(1984, eps=1e-05, momentum=0.1, affine=True, track_running_stats=True)
      (8): Linear(in_features=1984, out_features=992, bias=True)
      (9): ReLU()
      (10): Dropout(p=0.5, inplace=False)
      (11): BatchNorm1d(992, eps=1e-05, momentum=0.1, affine=True, track_running_stats=True)
      (12): Linear(in_features=992, out_features=496, bias=True)
      (13): ReLU()
      (14): Dropout(p=0.5, inplace=False)
      (15): BatchNorm1d(496, eps=1e-05, momentum=0.1, affine=True, track_running_stats=True)
      (16): Linear(in_features=496, out_features=124, bias=True)
    )
  )
  (quantizer_layer): QuantizerLayer()
  (decoder_layer): DecoderLayer(
    (linear_decoder): Sequential(
      (0): Linear(in_features=100, out_features=100, bias=True)
      (1): ReLU()
      (2): Linear(in_features=100, out_features=100, bias=True)
      (3): ReLU()
    )
    (out_layer): Sequential(
      (0): Linear(in_features=100, out_features=100, bias=True)
    )
  )
  (w_update_layer): WupdateLayer(
    (linear_W): Sequential(
      (0): Linear(in_features=48, out_features=48, bias=True)
      (1): ReLU()
      (2): Dropout(p=0.5, inplace=False)
      (3): Linear(in_features=48, out_features=48, bias=True)
      (4): ReLU()
      (5): Dropout(p=0.5, inplace=False)
      (6): Linear(in_features=48, out_features=48, bias=True)
      (7): ReLU()
      (8): Dropout(p=0.5, inplace=False)
      (9): Linear(in_features=48, out_features=24, bias=True)
    )
    (linear_UL): Sequential(
      (0): Linear(in_features=48, out_features=48, bias=True)
      (1): ReLU()
      (2): Dropout(p=0.5, inplace=False)
      (3): Linear(in_features=48, out_features=48, bias=True)
      (4): ReLU()
      (5): Dropout(p=0.5, inplace=False)
      (6): Linear(in_features=48, out_features=48, bias=True)
      (7): ReLU()
      (8): Dropout(p=0.5, inplace=False)
      (9): Linear(in_features=48, out_features=9, bias=True)
    )
  )
)
ACF Number of parameters: 16219885
ACFNet(
  (mapping_network): DNN(
    (linear_encoder): Sequential(
      (0): Linear(in_features=1424, out_features=3968, bias=True)
      (1): ReLU()
      (2): Dropout(p=0.5, inplace=False)
      (3): BatchNorm1d(3968, eps=1e-05, momentum=0.1, affine=True, track_running_stats=True)
      (4): Linear(in_features=3968, out_features=1984, bias=True)
      (5): ReLU()
      (6): Dropout(p=0.5, inplace=False)
      (7): BatchNorm1d(1984, eps=1e-05, momentum=0.1, affine=True, track_running_stats=True)
      (8): Linear(in_features=1984, out_features=992, bias=True)
      (9): ReLU()
      (10): Dropout(p=0.5, inplace=False)
      (11): BatchNorm1d(992, eps=1e-05, momentum=0.1, affine=True, track_running_stats=True)
      (12): Linear(in_features=992, out_features=496, bias=True)
      (13): ReLU()
      (14): Dropout(p=0.5, inplace=False)
      (15): BatchNorm1d(496, eps=1e-05, momentum=0.1, affine=True, track_running_stats=True)
      (16): Linear(in_features=496, out_features=124, bias=True)
    )
  )
  (compression_network): ACFNetCompressionNetwork(
    (convolution_layer): Sequential(
      (0): Conv2d(1, 3, kernel_size=(2, 2), stride=(1, 1))
      (1): ReLU()
    )
    (dense_layer): Sequential(
      (0): Linear(in_features=297, out_features=100, bias=True)
    )
  )
  (quantizer_layer): QuantizerLayer()
  (decoder_network): ACFNetDecoderNetwork(
    (dense_layer1): Sequential(
      (0): Linear(in_features=100, out_features=200, bias=True)
    )
    (convolution_layer): Sequential(
      (0): Conv2d(1, 3, kernel_size=(2, 2), stride=(1, 1))
      (1): ReLU()
    )
    (dense_layer2): Sequential(
      (0): Linear(in_features=513, out_features=200, bias=True)
    )
  )
)
DQNN Number of parameters: 16067055
DQNN(
  (DNN_layer): DNN(
    (linear_encoder): Sequential(
      (0): Linear(in_features=1424, out_features=3968, bias=True)
      (1): ReLU()
      (2): Dropout(p=0.5, inplace=False)
      (3): BatchNorm1d(3968, eps=1e-05, momentum=0.1, affine=True, track_running_stats=True)
      (4): Linear(in_features=3968, out_features=1984, bias=True)
      (5): ReLU()
      (6): Dropout(p=0.5, inplace=False)
      (7): BatchNorm1d(1984, eps=1e-05, momentum=0.1, affine=True, track_running_stats=True)
      (8): Linear(in_features=1984, out_features=992, bias=True)
      (9): ReLU()
      (10): Dropout(p=0.5, inplace=False)
      (11): BatchNorm1d(992, eps=1e-05, momentum=0.1, affine=True, track_running_stats=True)
      (12): Linear(in_features=992, out_features=496, bias=True)
      (13): ReLU()
      (14): Dropout(p=0.5, inplace=False)
      (15): BatchNorm1d(496, eps=1e-05, momentum=0.1, affine=True, track_running_stats=True)
      (16): Linear(in_features=496, out_features=124, bias=True)
    )
  )
  (quantizer_layer): QuantizerLayer()
)
linQ Number of parameters: 20803
LinearQuantizer(
  (precoder_layer): Linear(in_features=24, out_features=24, bias=True)
  (encoder_layer): Linear(in_features=100, out_features=100, bias=True)
  (quantizer_layer): QuantizerLayer()
  (decoder_layer): Linear(in_features=100, out_features=100, bias=True)
)
  0%|          | 0/1000 [00:00<?, ?it/s]0.001 -> 0.001
Epoch: 0 	Training Loss: -0.0196384826 	Validation Loss: -0.0669771091 	Best Validation Loss: inf
### Validation loss same/decreased (inf --> -0.0669771091)... saving model. ###
  0%|          | 1/1000 [00:08<2:24:43,  8.69s/it]0.001 -> 0.001
Epoch: 1 	Training Loss: -0.0206525460 	Validation Loss: -0.0723879841 	Best Validation Loss: -0.0669771091
…
Achievable Rate (bps/Hz) using RIS phase shifts with Transmit power SNR 70.60 dB:
optimum:    22.50373649597168
AQE net:    20.7022705078125
ACF net:    10.494444847106934
DQNN net:   10.448402404785156
linQ net:   9.624464988708496
opt rand:   3.2906956672668457
AQE rand:   3.4340951442718506
ACF rand:   6.393886089324951
DQNN rand:  6.464686393737793
linQ rand:  6.1384758949279785
-------------------------------------------------------------------------------------------------------


AQE Number of parameters: 16621832
AutoQEncoder(
  (encoder_layer): EncoderLayer(
    (linear_encoder): Sequential(
      (0): Linear(in_features=1548, out_features=3968, bias=True)
      (1): ReLU()
      (2): Dropout(p=0.5, inplace=False)
      (3): BatchNorm1d(3968, eps=1e-05, momentum=0.1, affine=True, track_running_stats=True)
      (4): Linear(in_features=3968, out_features=1984, bias=True)
      (5): ReLU()
      (6): Dropout(p=0.5, inplace=False)
      (7): BatchNorm1d(1984, eps=1e-05, momentum=0.1, affine=True, track_running_stats=True)
      (8): Linear(in_features=1984, out_features=992, bias=True)
      (9): ReLU()
      (10): Dropout(p=0.5, inplace=False)
      (11): BatchNorm1d(992, eps=1e-05, momentum=0.1, affine=True, track_running_stats=True)
      (12): Linear(in_features=992, out_features=496, bias=True)
      (13): ReLU()
      (14): Dropout(p=0.5, inplace=False)
      (15): BatchNorm1d(496, eps=1e-05, momentum=0.1, affine=True, track_running_stats=True)
      (16): Linear(in_features=496, out_features=152, bias=True)
    )
  )
  (quantizer_layer): QuantizerLayer()
  (decoder_layer): DecoderLayer(
    (linear_decoder): Sequential(
      (0): Linear(in_features=128, out_features=100, bias=True)
      (1): ReLU()
      (2): Linear(in_features=100, out_features=100, bias=True)
      (3): ReLU()
    )
    (out_layer): Sequential(
      (0): Linear(in_features=100, out_features=100, bias=True)
    )
  )
  (w_update_layer): WupdateLayer(
    (linear_W): Sequential(
      (0): Linear(in_features=48, out_features=48, bias=True)
      (1): ReLU()
      (2): Dropout(p=0.5, inplace=False)
      (3): Linear(in_features=48, out_features=48, bias=True)
      (4): ReLU()
      (5): Dropout(p=0.5, inplace=False)
      (6): Linear(in_features=48, out_features=48, bias=True)
      (7): ReLU()
      (8): Dropout(p=0.5, inplace=False)
      (9): Linear(in_features=48, out_features=24, bias=True)
    )
    (linear_UL): Sequential(
      (0): Linear(in_features=48, out_features=48, bias=True)
      (1): ReLU()
      (2): Dropout(p=0.5, inplace=False)
      (3): Linear(in_features=48, out_features=48, bias=True)
      (4): ReLU()
      (5): Dropout(p=0.5, inplace=False)
      (6): Linear(in_features=48, out_features=48, bias=True)
      (7): ReLU()
      (8): Dropout(p=0.5, inplace=False)
      (9): Linear(in_features=48, out_features=9, bias=True)
    )
  )
)
ACF Number of parameters: 16233829
ACFNet(
  (mapping_network): DNN(
    (linear_encoder): Sequential(
      (0): Linear(in_features=1424, out_features=3968, bias=True)
      (1): ReLU()
      (2): Dropout(p=0.5, inplace=False)
      (3): BatchNorm1d(3968, eps=1e-05, momentum=0.1, affine=True, track_running_stats=True)
      (4): Linear(in_features=3968, out_features=1984, bias=True)
      (5): ReLU()
      (6): Dropout(p=0.5, inplace=False)
      (7): BatchNorm1d(1984, eps=1e-05, momentum=0.1, affine=True, track_running_stats=True)
      (8): Linear(in_features=1984, out_features=992, bias=True)
      (9): ReLU()
      (10): Dropout(p=0.5, inplace=False)
      (11): BatchNorm1d(992, eps=1e-05, momentum=0.1, affine=True, track_running_stats=True)
      (12): Linear(in_features=992, out_features=496, bias=True)
      (13): ReLU()
      (14): Dropout(p=0.5, inplace=False)
      (15): BatchNorm1d(496, eps=1e-05, momentum=0.1, affine=True, track_running_stats=True)
      (16): Linear(in_features=496, out_features=124, bias=True)
    )
  )
  (compression_network): ACFNetCompressionNetwork(
    (convolution_layer): Sequential(
      (0): Conv2d(1, 3, kernel_size=(2, 2), stride=(1, 1))
      (1): ReLU()
    )
    (dense_layer): Sequential(
      (0): Linear(in_features=297, out_features=128, bias=True)
    )
  )
  (quantizer_layer): QuantizerLayer()
  (decoder_network): ACFNetDecoderNetwork(
    (dense_layer1): Sequential(
      (0): Linear(in_features=128, out_features=200, bias=True)
    )
    (convolution_layer): Sequential(
      (0): Conv2d(1, 3, kernel_size=(2, 2), stride=(1, 1))
      (1): ReLU()
    )
    (dense_layer2): Sequential(
      (0): Linear(in_features=513, out_features=200, bias=True)
    )
  )
)
linQ Number of parameters: 26431
LinearQuantizer(
  (precoder_layer): Linear(in_features=24, out_features=24, bias=True)
  (encoder_layer): Linear(in_features=100, out_features=128, bias=True)
  (quantizer_layer): QuantizerLayer()
  (decoder_layer): Linear(in_features=128, out_features=100, bias=True)
)
  0%|          | 0/1000 [00:00<?, ?it/s]0.001 -> 0.001
Epoch: 0 	Training Loss: -0.0188173593 	Validation Loss: -0.0637622923 	Best Validation Loss: inf
### Validation loss same/decreased (inf --> -0.0637622923)... saving model. ###
  0%|          | 1/1000 [00:08<2:23:14,  8.60s/it]0.001 -> 0.001
Epoch: 1 	Training Loss: -0.0200047568 	Validation Loss: -0.0720939692 	Best Validation Loss: -0.0637622923
…
